average data/Average_TD3_5_Peg-in-hole-triple_assembly_seed_4/_actor.pth (torch_old, 510312 bytes, 6 tensors)

l1.weight f4 [400, 12]
000000 8f 47 ac 3e e9 82 3a 3f bb 3f ad 3b 6d 2a 50 be
       0.33648345 0.72856003 0.0052871383 -0.20328684
000010 0d da 94 bf 74 6a 4b bf 44 11 b2 3e f3 1a 0c 3f
       -1.1629044 -0.7945931 0.34778798 0.5472862
000020 af 57 be bb 9a 42 aa 3f 88 cb 51 3f 02 9b ea 3e
       -0.0058087925 1.3301575 0.8195119 0.45821387
000030 44 ed d0 3f 86 5f f2 3e 7f 48 88 bc 8d 35 98 3e
       1.6322408 0.47338504 -0.016636131 0.29728356
000040 b6 7a 6c bf ff b1 cd 3e d9 f2 cc 3c 53 0c b5 be
       -0.9237474 0.40174863 0.025018143 -0.35360965
000050 f2 38 f7 bd 61 b2 9b be 0e 4f bb bc e6 98 33 bf
       -0.12071408 -0.3040953 -0.022864845 -0.7015518
000060 02 db 83 3f 55 c0 7f be dd f1 03 3d 60 0e c3 3e
       1.0301211 -0.24975713 0.03221308 0.38096905
000070 b5 a4 ca 3e cd 59 99 3e 5c d6 17 3f 1c b6 43 3f
       0.39578786 0.29951325 0.5931146 0.7644975
000080 fa d0 f4 3d 45 6e 9a be d5 0b 08 bf b5 77 63 3f
       0.119539216 -0.30162254 -0.53143054 0.88854533
000090 08 9a e6 bd 1a 39 4a 3e bc 59 6e 3e 78 f5 9b 3d
       -0.11259848 0.19748345 0.23276418 0.07615179
0000a0 d8 8c b5 3d 9c f1 5a 3e d6 87 81 3e a8 f4 3a be
       0.088647544 0.21381229 0.25298947 -0.18257391
0000b0 44 2f f3 bd 84 e3 78 3e 4c a9 1f 3e 28 b3 0a be
       -0.118742496 0.2430554 0.15591925 -0.13544905
0000c0 71 34 a6 bf c8 7f 8f 3f a3 db bc 3c 4a 26 db be
       -1.2984754 1.1210871 0.02305395 -0.4280265
0000d0 ca 1d 8c be fe 34 1a be 78 41 97 be 9c 15 08 3e
       -0.27366477 -0.15059277 -0.29542136 0.13289493
0000e0 64 ed 21 3b fc 36 a7 3f bf 3b 8e 3f 87 25 1b bf
       0.0024708146 1.3063655 1.1111983 -0.6060414
0000f0 78 0c a2 bf 6d d8 7c 3f e5 88 ae 3d 9b 77 ad be
       -1.2660055 0.9876774 0.08522204 -0.33880314
000100 83 8c d8 3e ca 87 8d 3c fb 51 63 3e 7a be e1 be
       0.42294702 0.017276663 0.22199242 -0.44090635
000110 92 43 4d bc 3e ca 58 3d 9c 1a 4a 3e 75 d2 1c bf
       -0.012528317 0.05292725 0.19736713 -0.6125863
000120 7e 83 a6 bf c8 ec 06 3f 76 9a 80 3d 57 43 5e be
       -1.3008878 0.5270505 0.06279461 -0.21705376
000130 31 bf 00 3e 58 3f 28 be 29 c4 64 be 1c d1 26 bf
       0.12572934 -0.16430414 -0.22340454 -0.65162826
000140 5d 6f 83 bd ba 76 ae 3e fc e1 81 3e a7 d1 43 be
       -0.06417725 0.34074956 0.25367725 -0.19122945
000150 7d 30 65 bf e2 35 33 bd 3f 84 8c 3e 26 2b 9b 3e
       -0.8952711 -0.04375256 0.27444646 0.30306357
000160 74 0d 11 3f d1 f5 e6 be 74 28 19 3f e0 33 a5 3e
       0.5666115 -0.45109418 0.5982735 0.3226614
000170 57 3c 26 3e f4 ab 14 3f 93 51 a1 3e 34 2f 44 bf
       0.16233955 0.5807488 0.3150755 -0.76634526
000180 6a c3 8f be 48 c3 10 3e 9c 91 8e 3e 40 50 57 be
       -0.28078777 0.14136994 0.27845466 -0.21026707
000190 ea ce 14 be 04 19 7d 3e 94 e0 66 3e d0 2d e2 bc
       -0.14532056 0.24716574 0.22546607 -0.027609736
0001a0 8c b9 28 be e0 c4 58 3d 45 c3 90 be 44 85 e9 bd
       -0.1647703 0.05292213 -0.2827398 -0.114023715
0001b0 43 ee bc 3e 7d 8b bd be a8 3e 0e 3e e8 a6 e0 3e
       0.3690053 -0.37020484 0.13891089 0.4387734
0001c0 ea 12 85 bf a7 99 e0 be 45 f0 bc 3e e8 33 27 3e
       -1.0396397 -0.43867227 0.3690206 0.16328394
0001d0 f5 39 1a 3e 3c 22 83 3f 17 ef d5 3d a1 f2 58 bd
       0.15061171 1.0244823 0.104459934 -0.052965764
0001e0 c6 d8 9a be 6f d1 0b bf 06 2a 37 3d 29 7c 5e 3e
       -0.3024351 -0.54616445 0.04471781 0.21727051
0001f0 8e 9f d2 3e 0b 55 c5 be 41 e8 da be f9 99 17 3e
       0.41137356 -0.38541445 -0.4275532 0.1480483
000200 3d d3 8b bb d7 65 e0 3d e0 68 94 3e ca 48 95 3f
       -0.004267125 0.109569244 0.28986263 1.1662838
000210 bb 85 30 3f 41 71 33 be b3 85 bd 3d 80 9b 57 3c
       0.68954057 -0.17523672 0.09254017 0.013159633
000220 5c fd 85 be 85 30 f1 3e 7a ba 1a 3f e2 9e 89 bd
       -0.2616986 0.4710733 0.6044079 -0.067197576
000230 6b 95 05 3e d5 b8 f2 be 2a 04 a2 bf aa 03 2b 3f
       0.1304528 -0.4740664 -1.2657521 0.66802466
000240 d2 ea a7 bf b9 36 10 3f 02 24 bf bc 5e 59 b9 be
       -1.3118536 0.563335 -0.0233326 -0.36200994
000250 ff e0 00 3f c5 42 0b be 75 23 07 be 0a 76 af be
       0.50343317 -0.1359969 -0.1319712 -0.34269744
000260 8e fe 33 be 63 c9 88 be a0 58 0e bf ed e5 6e 3e
       -0.17577574 -0.26716146 -0.5560398 0.23329897
000270 1b 33 69 bf 5f 66 e0 3c fe eb 23 3c a8 5d ce be
       -0.91093606 0.027392564 0.010004995 -0.4030583
000280 21 46 2e 3f d1 80 49 be 0e 71 57 be 06 a8 0c 3f
       0.6807576 -0.19678046 -0.2103922 0.54943883
000290 84 f9 51 bf bc 5a 78 3e 43 1b 86 3e e0 ea 5f 3f
       -0.82021356 0.24253362 0.26192674 0.87467766
0002a0 69 96 57 3c c1 9f 13 bf 82 9d 88 3e 85 4b f2 3e
       0.013158419 -0.5766564 0.2668267 0.47323242
0002b0 52 29 4e 3e b1 81 ee be 3a f9 ea be b4 e7 23 3e
       0.2013295 -0.46583322 -0.4589327 0.16006356
0002c0 87 1c b7 3d a9 a1 38 3f 31 f7 90 3e ae 4a f0 3e
       0.08940988 0.72121674 0.28313592 0.46931976
0002d0 fe c9 59 bf 66 ba 41 3f 89 77 01 bc 93 ea fd be
       -0.8507384 0.75675046 -0.007902035 -0.49593028
0002e0 d7 e2 f6 bd 94 5a 41 be 13 53 8e 3d 19 8a 61 be
       -0.12054985 -0.18882209 0.06949439 -0.22025336
0002f0 8e da ce 3c b8 1d df be 5c d0 71 3f 0a 8e d1 be
       0.0252507 -0.4357736 0.94458556 -0.4092868
000300 be e6 97 3f d6 b1 4f bf 27 a9 ee 3c 55 de cf 3e
       1.1867292 -0.8113073 0.029133392 0.40599313
000310 62 3c a3 3e 1a ec d3 3e bf eb b1 be 82 da e1 bd
       0.31882006 0.4139107 -0.34750172 -0.11028005
000320 09 f5 ad 3d 75 20 a0 bf ea ac 3e bf c4 88 57 3f
       0.08494002 -1.2509905 -0.74482596 0.8419306
000330 e0 16 78 bf d6 89 86 3f 3c 38 d8 3b 7f e6 1b bf
       -0.96909904 1.0510814 0.0065985005 -0.60898584
000340 07 35 03 3f 45 9c c4 3e a3 9a bc be 1d 31 0d bf
       0.5125279 0.38400474 -0.36836728 -0.55153066
000350 5a d4 74 be 3b d7 c1 3d 47 97 28 3e cb af 5a 3c
       -0.2390913 0.0946488 0.16463958 0.013347576
000360 03 88 8d 3d fe 5a b8 3e 71 5a 8e 3d 6e c8 e8 3c
       0.06910708 0.36006922 0.06950844 0.028415885
000370 dc 46 aa be e6 e3 72 bf 7f c1 99 be cc 98 00 bf
       -0.33257186 -0.94878995 -0.30030438 -0.5023315
000380 04 4d 2a bc c1 4a 19 be 41 d8 9b 3f 55 16 67 bf
       -0.0103943385 -0.14969923 1.217537 -0.9026845
000390 b1 da 54 3e ed de 78 3f 2b ba e3 3b 55 ad b5 be
       0.20786549 0.9721516 0.006949683 -0.35483804
0003a0 b8 8c bc be f4 47 95 be 28 f9 05 3f 45 d8 c5 be
       -0.3682611 -0.29156458 0.5233331 -0.38641563
0003b0 df f7 43 bd c9 6a 0c bf ea a4 0c bf f7 33 28 bd
       -0.04784381 -0.5485044 -0.5493914 -0.041065183
0003c0 7a 25 19 be 2d 30 bb 3e 28 40 fc 3d ba f5 9e bd
       -0.14955702 0.36560193 0.12316924 -0.07761712
0003d0 fe 62 61 bd c4 ae f1 be 81 6d 04 3d de 3e 25 bf
       -0.055026047 -0.47203648 0.032330994 -0.6454905
0003e0 97 e8 f7 3c 7b b8 90 be ac 9b 5c bf 86 28 12 3f
       0.030262275 -0.28265747 -0.86175036 0.57093084
0003f0 92 77 45 bf 8a 3a 58 3f ad a2 c2 3c a2 89 19 bf
       -0.77135575 0.84464324 0.02375921 -0.59975636

l1.bias f4 [400]
000000 b5 b4 17 be 2c 26 55 3d 3e c0 62 3e a0 1e 70 be
       -0.14815028 0.052038357 0.22143647 -0.23449183
000010 2a 52 d1 bd 1d 42 44 bf 90 06 32 be 4b 62 f1 3d
       -0.1022075 -0.7666338 -0.17385316 0.11786326
000020 20 4f 2e 3d f9 94 7d bb 40 8c 6b be f9 4d 9d 3e
       0.04255593 -0.003869353 -0.2300272 0.3072355
000030 3c 14 d9 3d bd 67 c1 3e 01 79 1b 3e 62 8e 0d bf
       0.105995625 0.3777446 0.15182878 -0.55295384
000040 92 f2 c6 bc fd 24 e9 be 20 43 cd bd 9f 03 5f bf
       -0.024285588 -0.45536032 -0.10022569 -0.871149
000050 be a4 8f be cf c9 fa be 7f 6c c6 bc 02 6e 75 be
       -0.28055376 -0.48982093 -0.024221657 -0.23967746
000060 5a ff 31 3d 3f b4 ad 3e 29 21 cf be c9 0e 97 be
       0.043456413 0.3392658 -0.40454987 -0.29503468
000070 44 0b 0b be 75 c7 b6 3d ef 68 0b 3d 30 73 a2 3e
       -0.13578516 0.08924762 0.03403562 0.31728506
000080 84 ea de bd 52 93 b7 be 54 ba 26 bf 5f 8c c1 bd
       -0.10884574 -0.35854584 -0.65128064 -0.09450602
000090 e0 8e 72 be b6 16 11 3f cf aa 40 be 7b e3 d3 be
       -0.23687315 0.5667528 -0.18815158 -0.4138449
0000a0 6d 8e 48 3d ee 75 21 be 92 59 3b bf 47 ab 19 bf
       0.048963953 -0.15767643 -0.7318355 -0.60026973
0000b0 36 71 c6 be e4 5c 00 be be e1 07 3f 2c fa b0 bd
       -0.38758248 -0.12535435 0.5307883 -0.086414665
0000c0 8c cd 24 bc 9d d1 14 bf 63 1a 93 be b3 ae be be
       -0.010058772 -0.58132344 -0.2873107 -0.3724266
0000d0 54 48 2c 3e 80 f0 27 bf 3a 26 0a bf 49 50 0e bf
       0.16824466 -0.6560135 -0.5396458 -0.55591255
0000e0 fd ed a6 bd 4a 03 32 bf 84 4f 5a 3e f2 32 d0 be
       -0.081508614 -0.6953627 0.21319395 -0.40663868
0000f0 63 d5 1a be 2e 85 5a 3e e5 79 8d 3d ef 8e b9 3d
       -0.15120463 0.21339867 0.06908015 0.090604655
000100 71 a4 14 bd 9a 08 7c 3e 7d 50 8b be fa ad b1 be
       -0.036289636 0.24612656 -0.27209845 -0.34703046
000110 9d 27 d7 bd b3 f3 a1 3e b4 d6 03 bc 97 a8 97 be
       -0.105056025 0.3163124 -0.008046795 -0.2962081
000120 df a3 f4 3d 98 fb 48 3f eb d1 5d be e6 2c e3 be
       0.119453184 0.785089 -0.21662109 -0.44370192
000130 ce 8d 30 3e 95 1a aa be fa d0 99 be ad 31 bb bd
       0.17241594 -0.33223405 -0.3004225 -0.09140334
000140 84 08 2c 3d a4 31 33 3e e7 70 15 bf 4f d1 59 be
       0.04200031 0.17499405 -0.583754 -0.21271251
000150 af 0e 8d be ee 7c b0 3e 33 2d 9f 3d f4 5a 18 be
       -0.27550265 0.34470314 0.07772293 -0.14878446
000160 38 19 fc be 50 da 4c be c3 cb d3 be d3 e2 67 3e
       -0.4923799 -0.20005155 -0.41366395 0.2264512
000170 13 d9 41 bf 6b 3a 57 3c b7 8b 89 bd d4 62 67 bd
       -0.75721854 0.0131364865 -0.067161016 -0.056490734
000180 41 60 08 bf 46 08 7a be f3 fd e5 3d 4f 7c 47 bf
       -0.5327187 -0.24417219 0.112300776 -0.77924055
000190 42 1f 3d 3e da 8e 54 3e 4c 6c 9d be d0 25 a3 bd
       0.18468955 0.20757619 -0.30746686 -0.079661965
0001a0 18 4a 14 bf c4 74 59 bf 92 81 df be 75 d9 73 be
       -0.5792556 -0.84943795 -0.43653542 -0.23813422
0001b0 b5 98 9a 3d 29 0c 4a be 23 99 c5 be 2a 4f 36 3e
       0.07548658 -0.19731201 -0.38593397 0.17803636
0001c0 34 77 74 3e 04 7e 42 3e 64 e9 f5 be 31 9e ae be
       0.23873597 0.18993384 -0.48029625 -0.34105065
0001d0 0c 0a c5 bd 08 d4 e8 3d 1f 7c be 3e 24 aa 58 3e
       -0.09621057 0.11368567 0.37204072 0.21158653
0001e0 fb cb 88 be fd 14 aa 3e 14 44 1e bb b1 b4 f4 3d
       -0.26718125 0.33219138 -0.0024149464 0.11948527
0001f0 2b 98 75 3d 79 15 06 bf 92 e8 70 be d5 66 07 be
       0.05995957 -0.52376515 -0.23526219 -0.13222821
000200 27 cb 57 be e3 b2 ce be 3e a2 a2 bd e4 93 ed 3e
       -0.2107359 -0.40370855 -0.079411015 0.46401894
000210 62 b9 3f bf e5 56 53 be b4 65 a9 3d 49 79 49 3e
       -0.74892247 -0.20638616 0.082713515 0.19675173
000220 e4 cb 65 3d e0 a0 35 be 33 f9 39 3d 46 ab 0b bf
       0.05610265 -0.1773715 0.04540367 -0.5455822
000230 b4 66 9d be da 86 23 3e 2c cc 47 be 34 38 1b 3f
       -0.3074242 0.1596941 -0.19511479 0.60632634
000240 b5 b5 c1 be 9f 2b e5 be f8 08 24 3d d5 db 78 be
       -0.37833944 -0.44759843 0.040047616 -0.2430261
000250 7b 30 ea 3e 89 9b ec 3d f4 b0 e9 be 01 8c 7e be
       0.45740113 0.115531035 -0.45642817 -0.24858095
000260 66 2b 31 be 5c 64 b2 be 43 90 06 bf 88 64 6a be
       -0.17301711 -0.34842193 -0.52563876 -0.22889912
000270 c7 89 c5 bd c5 e6 35 bf 45 2f e5 be 5c 0a d3 3e
       -0.096454196 -0.7105525 -0.44762626 0.4121884
000280 96 c9 88 3e 79 67 dc be fd 6b 35 bd df 44 0c bd
       0.26716298 -0.43047693 -0.04429244 -0.034245368
000290 db c7 4e bf dd a5 fa be 75 f3 71 bd 03 69 35 3d
       -0.80773705 -0.4895467 -0.05907007 0.0442896
0002a0 95 be dd bd 07 38 a9 be e1 47 3c be a6 6a 0e 3d
       -0.10827366 -0.33050558 -0.18386795 0.034769677
0002b0 bc 8f f4 3d 97 b2 e2 3e 6d 0a 29 bf 09 7a 92 be
       0.11941478 0.44276878 -0.66031533 -0.2860873
0002c0 0e 00 ce 3e a4 0b d3 bd 2f ac 86 be 86 d4 16 be
       0.40234417 -0.10304955 -0.2630324 -0.14729509
0002d0 7e fe 9e 3e 4e 5c 87 3c c6 ca de be 4b 4f 8b 3e
       0.31053537 0.016523506 -0.4351408 0.27208933
0002e0 09 d5 04 bf 14 ba b2 be b8 c1 83 3e 08 f2 9b 3e
       -0.51887566 -0.3490759 0.25733733 0.30458093
0002f0 9d 99 5f bf 2b 3f 68 be bc f8 78 be 7d 13 ee 3e
       -0.8734377 -0.22680347 -0.24313635 0.46499243
000300 aa 0b 20 bf a0 1b 0a 3f 86 b3 c4 be 7a 4e 77 be
       -0.625178 0.539484 -0.38418216 -0.2415103
000310 08 3d 01 be 6a 2a 1e bf 1e dd ab 3a d0 e2 f2 be
       -0.12620938 -0.6178347 0.0013112163 -0.4743867
000320 dc 95 ec 3d de cb 84 bd 8c e7 da bd fb d0 7a be
       0.11552021 -0.06484197 -0.10688695 -0.24493782
000330 0f b5 99 be 56 cb cd be 2d c7 57 be 66 21 21 bf
       -0.3002095 -0.40194196 -0.21072073 -0.62941587
000340 d6 02 d4 3d 37 4f 70 be ea 03 82 be 08 5e 9f 3c
       0.103521034 -0.23467718 -0.2539361 0.019454017
000350 2a f0 f7 be b5 14 1a 3e 77 15 28 be 15 a8 a9 be
       -0.48425418 0.15046962 -0.16414438 -0.3313605
000360 35 24 90 3e 74 d5 f4 be ff 24 a0 be 4e de c9 3c
       0.28152624 -0.47819102 -0.31278226 0.024642136
000370 95 e2 ac bc bb 70 d2 be 14 70 8a be 7c aa 31 3e
       -0.021104136 -0.41101632 -0.27038634 0.17350191
000380 1b 19 d7 3d 7e c5 db be 92 d7 4c bd c9 ce d0 be
       0.10502835 -0.42924112 -0.05001027 -0.40782765
000390 00 92 55 bf c6 14 ac 3d 14 65 13 bd 61 92 3a bd
       -0.83425903 0.084024 -0.035985067 -0.045549754
0003a0 8e c7 4c bb b0 c5 e7 3c 6c 6e 68 be 9b 95 8b be
       -0.0031246874 0.028292507 -0.22698373 -0.27262577
0003b0 56 62 7a 3c e9 19 60 3f f8 47 49 3e a2 52 14 bf
       0.015282234 0.87539536 0.1965636 -0.5793859
0003c0 b6 c6 0e be 62 d6 6c 3e 6a 0e 1f bf 02 ca 11 3e
       -0.1394299 0.23128656 -0.6213137 0.14237216
0003d0 c2 9c 2b bd 6f 98 50 be fa ae 12 bf 3d 98 50 bf
       -0.041897543 -0.20370649 -0.57298243 -0.814823
0003e0 a5 a9 0e 3f d6 19 90 3e e7 3f ce be 5c 79 56 be
       0.55727607 0.2814471 -0.4028313 -0.20944732
0003f0 6a ca 3a bf f1 82 02 3f ab c1 09 bf 4d 7c 3f 3e
       -0.7296511 0.5098105 -0.5381114 0.1869976

l2.weight f4 [300, 400]
000000 17 3e 99 bb 7e 35 cd 3c 9e e0 9d ba 54 13 5f bc
       -0.004676591 0.025049921 -0.001204509 -0.013615448
000010 2e 81 e5 3b a1 ce 2b 3d ad c2 04 bd 56 5a 97 bc
       0.007003925 0.041945104 -0.03241222 -0.018475693
000020 d9 18 41 3d a5 ac 44 3d 30 61 79 bb f5 f9 60 bc
       0.047142837 0.04801621 -0.0038052313 -0.013731469
000030 ec 01 0d bd f2 61 39 bb 31 41 10 3d d1 51 87 bd
       -0.03442566 -0.002828714 0.03521842 -0.06607402
000040 8a 9d 26 bd f4 48 75 bb c0 fb c2 3b 62 59 e1 3b
       -0.040677585 -0.0037427517 0.005950421 0.0068771103
000050 fd df 3b bd 3f f5 6c bd 68 db f3 3b 09 c4 4a 3d
       -0.04586791 -0.057851072 0.0074419267 0.04950336
000060 c8 c2 95 bb bd db 99 bc 1d 2b 22 bd dd 4b 2a bd
       -0.004570339 -0.018781537 -0.039591897 -0.041576255
000070 e5 d9 1c bd 70 2a db bc 0e 1a 68 bd 1d 7a 23 3c
       -0.038293738 -0.026753634 -0.056665473 0.009977845
000080 47 1e b5 3c 9b c7 19 bc 75 5c e3 bc 9a 22 fc bc
       0.022109164 -0.009385969 -0.027754048 -0.030778218
000090 08 f1 32 3c 6e 5d 73 bb 02 7c a7 3c b4 6c 00 bc
       0.010921724 -0.0037134546 0.020444874 -0.007838417
0000a0 af c4 5f bd 2e d3 8f bc 14 c3 62 3c 80 9e 82 3c
       -0.05463093 -0.017556753 0.013840456 0.01594472
0000b0 1a fd 5f bd 00 95 b0 bc 64 c2 83 bd 81 e5 2d 3d
       -0.054684736 -0.021555424 -0.064335614 0.0424552
0000c0 e7 3e 16 3d d6 ba 14 bd 64 18 74 3c 96 8f 0e bc
       0.036681082 -0.036310993 0.014898393 -0.008701226
0000d0 76 a4 8a bc 66 4a 18 bd 8f 3d 70 3c 06 8c cb 3c
       -0.016924124 -0.037180327 0.014663114 0.024847042
0000e0 ea 1e cf 3c 9e 74 20 bd 84 78 88 bc 41 71 d0 bc
       0.025283296 -0.039173715 -0.016659029 -0.025444629
0000f0 de 31 bf 3c 46 25 b2 3c 8c 01 01 3c 77 44 d5 bc
       0.023339208 0.021746289 0.007873904 -0.026033623
000100 da 37 92 3c fa 84 ec bc 8a 65 df bc 0f 88 4a bd
       0.017848898 -0.028872002 -0.027270097 -0.04944616
000110 28 fb 51 3a 07 ba 45 bd 58 6f 16 3d ef 8c 94 bb
       0.00080101425 -0.048273113 0.03672728 -0.004533402
000120 cd 0f f6 bc 40 b8 dc bb 37 f3 50 bd d3 0b f9 3a
       -0.030036831 -0.0067358315 -0.051013198 0.0019000716
000130 fd 0c 4c bd ca 27 a9 bc 1a 72 28 bd b5 b8 10 bc
       -0.049817074 -0.020648856 -0.04112444 -0.0088331
000140 1b 15 0b 3d 0b 66 3a 3d ea 78 2b bc b3 0c 1e bd
       0.033955675 0.045507472 -0.01046584 -0.03858633
000150 08 fa 75 bc 51 59 94 3c 3a b1 0b bc 98 ae 28 3c
       -0.015013225 0.018108996 -0.008526141 0.010295533
000160 78 71 e2 bc 2a cc a3 3c 4d 28 6e 3c 85 39 0e 3d
       -0.027641997 0.019994814 0.014535976 0.034722824
000170 d2 14 00 3d 3a f8 3f bd b0 a8 0f 3b 73 05 f9 bc
       0.031269856 -0.046867587 0.0021920614 -0.030398106
000180 80 51 ec 3b 87 a1 85 bd 72 d2 df 3c 00 fd 04 3b
       0.007211864 -0.065249495 0.027322028 0.0020292401
000190 ce 48 1f bd 13 38 1c bd 81 08 36 3d 1c 62 97 bc
       -0.03888779 -0.038139414 0.044441704 -0.0184794
0001a0 88 c4 06 3c 9d 5c ff bc f4 4a 09 bd 4d 98 28 bd
       0.008225568 -0.031172091 -0.033518746 -0.04116087
0001b0 10 dd b7 bc 00 74 19 3a 4a 2c bf 3c d8 f4 39 3c
       -0.022444278 0.0005853772 0.023336548 0.011349879
0001c0 3d c4 f6 bc cd a2 fa bc 48 e5 0e bd 4c e3 17 3c
       -0.03012287 -0.030595208 -0.03488663 0.0092705
0001d0 c1 11 b4 3c 2f bf 85 bd 7a 48 02 bc f2 db 24 3c
       0.021981122 -0.06530606 -0.00795185 0.010062205
0001e0 f2 ec ff 3c 35 8c 47 bb ff f8 87 bc 06 f3 1c bd
       0.031240914 -0.003044856 -0.016598223 -0.038317703
0001f0 2c 39 3f 3c 53 cf 14 bc f8 24 17 bd 26 10 c5 3c
       0.011671346 -0.009082633 -0.03690049 0.024055552
000200 57 ed 8e bc 99 a5 62 bd 1f cf bd 3c 4b f8 7b bd
       -0.017447157 -0.055333707 0.023170052 -0.061516088
000210 98 94 c8 3b dd 9b aa 3c d8 8c db 3b 64 57 45 bd
       0.0061212294 0.020826275 0.0067001395 -0.048179045
000220 dd 2d 4b bc 96 3a 88 3c fa c7 8f 3c 78 50 75 bc
       -0.012401071 0.016629498 0.017551411 -0.0149727985
000230 50 e8 0c bd 05 33 13 3d e6 f1 8c bc 60 58 4c 3c
       -0.034401238 0.035937328 -0.01720519 0.012472242
000240 a6 e0 99 3c 82 9c a2 3c 57 e3 22 3d 7a 4c a4 3c
       0.018783879 0.01985002 0.03976759 0.020055998
000250 9f 23 51 bc a0 4f a6 ba 30 a0 57 bc 5e 6f ca 3c
       -0.01276484 -0.0012688525 -0.01316075 0.024711307
000260 3d 9e 21 bd c7 0c 30 bd 22 5a f8 bc 9d d4 30 3d
       -0.03945755 -0.042980935 -0.030316416 0.043171514
000270 1f da 2a bd 8e 91 3a 3a bf af d5 bc 6f 6a ac bc
       -0.041711923 0.0007117026 -0.026084779 -0.021046845
000280 26 a0 22 bd ad ec d4 bc 12 c4 73 bd 9c 01 4d bb
       -0.03970351 -0.025991762 -0.05951316 -0.0031281477
000290 d9 0d 83 bc 0f f6 df 3c 17 cf 40 bb 89 d4 11 3d
       -0.015997814 0.02733901 -0.002942031 0.03560308
0002a0 10 71 27 bd 4c 33 5a bd e0 df 6d bb 82 54 2b bc
       -0.04087931 -0.053271577 -0.003629677 -0.01045716
0002b0 70 b7 ee 3b 93 31 6d bd 65 cc a5 bc 47 ff 41 bd
       0.007285051 -0.057908606 -0.020239064 -0.047362592
0002c0 f0 3d 73 3c ec 57 25 3c 25 aa 08 bd cc 32 13 3c
       0.01484631 0.010091763 -0.033365387 0.008984279
0002d0 c3 0c f6 bc ae 45 0c bd c0 6d 26 3c 72 4d 04 bb
       -0.030035382 -0.03424614 0.010158002 -0.0020187763
0002e0 34 f0 03 bd b2 2b 0d bd d8 80 d7 3b 26 c9 2a 3c
       -0.032211497 -0.0344655 0.0065766387 0.010423934
0002f0 6a a3 0c bd 32 b5 ac 3c 28 32 ea bb fc 48 15 bd
       -0.03433553 0.021082494 -0.0071470924 -0.036446556
000300 39 cb 46 bc db 39 bc 3c 26 e4 d0 3c 9b 7f 1f bd
       -0.012133413 0.022976806 0.025499415 -0.038940053
000310 b0 43 48 bb 9a d5 b8 3c c7 26 cc bc d5 e1 48 bd
       -0.0030557923 0.02256279 -0.024920834 -0.049043495
000320 10 ad 37 bd a3 43 13 bd fd 34 44 3d 5e 9b a4 3c
       -0.04484278 -0.035953175 0.047902096 0.020093616
000330 12 5f be 3c 60 7e 24 3b 72 12 ff 3c 10 b1 e1 bb
       0.023238692 0.002509974 0.031136725 -0.0068875626
000340 ff 8d 39 bd 77 62 bf bc e0 f6 32 bd a3 1c c5 3c
       -0.045301434 -0.023362381 -0.04369247 0.024061507
000350 9f 20 74 bc 02 84 3b bd 81 21 0e bd 92 c4 ba 3c
       -0.014900356 -0.04578019 -0.03469992 0.02279881
000360 ba c8 8f 3c 74 32 db bc af 33 19 bd 75 cb 26 bd
       0.017551769 -0.026757456 -0.037402805 -0.040721375
000370 29 7b 8f bc b0 cc 30 3b 8a 0a e4 bc 67 61 a2 bc
       -0.017514782 0.0026977472 -0.027837057 -0.019821836
000380 16 4d e1 3c 51 ed 27 3d 80 eb ba 3b d3 2b 43 3d
       0.027502578 0.040997807 0.0057043433 0.047649216
000390 dd 53 59 bd c6 ff 83 bc 11 e9 3f 3d a0 58 0c bb
       -0.053058494 -0.016113173 0.04685313 -0.002141513
0003a0 d0 a3 03 3b 95 9b 07 bd e4 10 84 bd b4 10 96 bc
       0.0020086654 -0.03310736 -0.06448534 -0.018318512
0003b0 4a 69 49 bd 78 f8 1a bd 60 6b a9 3c e8 0a d0 bb
       -0.049172677 -0.037834615 0.020681083 -0.0063489564
0003c0 a1 bb 22 bd 55 38 42 bb ec 7a 18 bd 3e 88 38 bd
       -0.039729718 -0.0029635627 -0.037226602 -0.045051806
0003d0 78 79 3c bd 88 9c 09 bc ea 01 d6 3c b3 8f 13 bc
       -0.04601428 -0.008399136 0.02612396 -0.0090064285
0003e0 7f cc 47 bd d0 83 37 3b 34 6b 7d bc 5a c3 c2 bc
       -0.048779007 0.002800215 -0.015467454 -0.023774792
0003f0 b3 bc 54 bd e6 88 ab ba bc e1 35 bd 1e 8f 6c bd
       -0.05193777 -0.0013087064 -0.04440473 -0.057753675

l2.bias f4 [300]
000000 19 13 41 3c 8d e3 7f 3c b4 c9 c3 3d 75 5f 26 bd
       0.011784338 0.015618217 0.09559956 -0.04061838
000010 9e e2 38 bd c4 fe 23 3d 9b 8c 57 3d 62 a8 51 3e
       -0.045137994 0.040037885 0.052624326 0.20474389
000020 d3 dd 11 3c 10 cb 27 be a2 7c 7f 3c 5d 6a 03 3e
       0.008902985 -0.16386056 0.01559368 0.12833543
000030 0e bd 7c be 35 98 88 bd 27 3a 5f bd ab 0e b7 3e
       -0.24681494 -0.06669656 -0.054498818 0.35753378
000040 6c 50 8f b9 22 b2 89 bd 77 d2 33 3b c5 fa 62 bd
       -0.00027335004 -0.06723429 0.002743868 -0.055414934
000050 8d de 04 bd 13 40 2a 3d 8b 87 bc be eb e6 00 3e
       -0.032438803 0.041565012 -0.3682216 0.12588088
000060 e9 e4 78 bd 8d 84 69 be 7f 26 9d bd 2f 84 0e 3c
       -0.06076518 -0.2280447 -0.07673358 0.008698507
000070 48 b5 e7 bd cb 8a 8f 3d 2a df bd bc d6 43 12 bf
       -0.113138735 0.070088945 -0.023177702 -0.5713476
000080 58 1b 50 bd 04 2e 85 bd 6d 1e 5e bd ff 98 ad bc
       -0.050807327 -0.065029174 -0.054228235 -0.021191118
000090 5d fd 84 bd c4 f5 25 be 62 51 00 3c 8d 1e 9e bd
       -0.06493638 -0.16207033 0.007831903 -0.07720671
0000a0 5a bc af 3a 76 66 41 bd 9d ea da 3d f2 67 ea bb
       0.0013407574 -0.047216855 0.1068928 -0.0071535045
0000b0 e1 49 19 be 10 8c 9e bc d4 c6 f6 bc 0f 1d a8 3c
       -0.14969589 -0.019353896 -0.030124106 0.020521669
0000c0 62 d3 81 bd a5 a0 df bd 24 1e 68 3c c4 f7 d7 be
       -0.06339146 -0.109193124 0.014167342 -0.42181218
0000d0 14 1e 55 bd 06 43 c1 bd 62 b5 5d be a1 ef 8b bd
       -0.052030638 -0.09436612 -0.21651223 -0.06832815
0000e0 62 c5 8f be 11 aa 2b be 44 7c 97 be 27 7e 1b 3e
       -0.2808028 -0.16764094 -0.29586995 0.15184842
0000f0 d4 a5 74 3e 25 37 3d bd 2b 36 b6 bc 53 43 b6 bd
       0.23891383 -0.046195168 -0.022242626 -0.0889956
000100 e1 e6 a8 be d3 73 ec 3b 74 7a ef bb fb 12 76 bd
       -0.32988647 0.0072159558 -0.0073082987 -0.060076695
000110 37 fa b3 bb 25 7b 33 bb bf 41 9a bd c7 ee 05 bd
       -0.0054924744 -0.0027386632 -0.07532071 -0.03269842
000120 e5 d7 bc be 88 6e 4a bd 76 86 42 be 80 dc 29 bf
       -0.36883464 -0.049421817 -0.18996605 -0.6635208
000130 b0 30 6c bd 08 7f 76 bc 23 3e 95 bd 1c 6d 25 bd
       -0.05766362 -0.015044935 -0.07287242 -0.040387258
000140 25 d1 46 3d 2e b4 41 3c 66 4b 17 3e 10 d1 c5 bd
       0.0485393 0.011822743 0.14774856 -0.09659016
000150 dc f3 a9 3c cf 7d 57 3e 48 fa 1b 3d d4 b6 ae 3d
       0.020746164 0.21044086 0.038080484 0.085309654
000160 bc 13 ae bd ab 00 1e 3e a7 53 66 3e 1c ac b1 bc
       -0.08499858 0.15429942 0.22492848 -0.021688513
000170 84 2d 45 3e 82 73 a8 bd 6e f9 ce bc b8 42 94 bd
       0.19255644 -0.08225156 -0.025265422 -0.07239288
000180 af a7 48 be 4b 47 c2 bc 75 57 b7 3d 2e 79 55 bd
       -0.19595216 -0.023715636 0.08952228 -0.05211752
000190 5a 46 67 bd ac cd 4a be c6 7c 4e 3e 6f d2 18 3e
       -0.056463577 -0.1980502 0.20164785 0.14924024
0001a0 8b 92 be bd 7f 6e 39 be dd 17 ad be 80 b3 87 3d
       -0.093052946 -0.18108557 -0.3380727 0.06626034
0001b0 dd 0e 38 be fa c6 f8 bc 42 8c 6e 3e 21 5c 56 3e
       -0.1797442 -0.030368317 0.23295692 0.20933582
0001c0 0f d8 b4 bd 06 a7 95 bd 54 49 f4 be 54 87 d7 3d
       -0.088302724 -0.07307248 -0.47712195 0.10523859
0001d0 72 7d 9d bd 7e c0 08 bd 17 4e 85 bd 35 43 90 bd
       -0.076899424 -0.0333867 -0.06509035 -0.07044069
0001e0 5e 6a 40 be 86 0b 13 be 43 28 8b bd 80 07 05 3d
       -0.18790576 -0.14359865 -0.06794789 0.032477856
0001f0 38 65 e1 3d 01 d6 07 bd 22 42 4e bd 76 f5 c1 bd
       0.11005634 -0.033163074 -0.050356038 -0.09470646
000200 6f a8 42 bd 8f ab d4 bd ae 6b 82 bd 61 05 32 bd
       -0.047523912 -0.10384285 -0.063681945 -0.04346216
000210 12 04 bb 3d 71 a9 06 3e 5d 8a 20 bd e3 d4 56 3c
       0.09131636 0.13150574 -0.039194454 0.01311228
000220 ef 99 07 bd 6d 61 99 be 7e 14 b7 3d b2 1e d5 3e
       -0.033105787 -0.29957142 0.089394554 0.4162498
000230 00 cc 05 be ce 15 b5 bc d7 48 f8 bd e6 41 b2 bd
       -0.13066101 -0.022105124 -0.12123268 -0.087039754
000240 06 93 5b bc 6e 43 59 be 1b ba 48 3e a4 12 77 bd
       -0.013401752 -0.21217129 0.19602244 -0.06032051
000250 e2 cd 39 be 9a 00 ac bc a9 b6 ab 3a 96 41 67 bd
       -0.18144944 -0.02099638 0.0013100702 -0.056459032
000260 c5 41 6c bb e5 d7 02 be 36 8c 77 bd 62 01 dd bb
       -0.0036049944 -0.1277767 -0.06043645 -0.0067445496
000270 c9 96 92 be 09 fd 16 3c 18 85 60 bd 7b 41 12 3d
       -0.28630665 0.009215602 -0.054814428 0.03570698
000280 47 94 09 bd aa 65 d7 bd 2e 5e 06 3e 1c c7 ea bc
       -0.033588674 -0.10517438 0.13121864 -0.028659396
000290 97 b1 6e bd cf a0 2f bd 57 76 17 bd a3 35 6e bd
       -0.05827483 -0.04287797 -0.036978092 -0.05815662
0002a0 d6 51 5d bd a0 b0 9a bc 4b e8 9f 3e 21 9f b8 bb
       -0.054033123 -0.01888305 0.31231913 -0.005634204
0002b0 7b 73 42 3c 70 d7 4a 3c 99 4b 1b be 22 71 f9 bd
       0.011868353 0.012380466 -0.15165557 -0.121797815
0002c0 6b d4 74 bd b3 17 73 be dd 37 dc 3c 7f 71 62 3b
       -0.05977289 -0.2373951 0.026882106 0.0034552512
0002d0 db b8 26 3b d8 05 01 be 7c 58 e6 3b 45 c7 aa bd
       0.0025439772 -0.12599885 0.007029591 -0.08338789
0002e0 aa c2 fd bd 88 80 ce 3c 9a 40 e3 bd d3 86 43 be
       -0.12390645 0.025207773 -0.11096306 -0.190944
0002f0 70 d6 3e bd 0a 04 6c bd 31 7b 92 bd a5 97 fa bd
       -0.046591222 -0.05762104 -0.07152403 -0.12235955
000300 a2 40 bc 3c 98 38 2c bd 49 ad e1 bc 55 49 a2 be
       0.022980038 -0.04204616 -0.02754845 -0.31696573
000310 9c 51 1c be 7c f0 bc bc 29 98 7d bb 36 58 c7 3b
       -0.15265507 -0.02306389 -0.003869543 0.0060835136
000320 26 50 4b bd dc ab 20 3d d2 9c 16 3e c6 f3 5b bd
       -0.049636982 0.039226398 0.1470826 -0.053699277
000330 92 e4 96 bd eb 47 bd 3d f1 ce b7 be f5 e9 34 be
       -0.07367815 0.09242233 -0.3590007 -0.17667373
000340 0c f2 0d be 34 54 74 bd bb 6d 86 bd 7f d9 a9 bc
       -0.13861865 -0.059650615 -0.06563898 -0.020733593
000350 24 8c e6 bc f7 5f 2a bd 38 05 c7 be b7 da 46 bc
       -0.028142996 -0.041595425 -0.3887117 -0.012137107
000360 fd 1f 89 bd 82 97 35 bd 5d ac 37 be 21 fd 1d bd
       -0.066955544 -0.044333942 -0.17936845 -0.03857148
000370 06 0c 73 be 98 43 80 bd 01 98 1d 3e 77 55 73 be
       -0.23735055 -0.062628925 0.15390016 -0.23763071
000380 78 8b 7b be 75 9e a9 3e bd a4 b1 bb c3 87 c5 bd
       -0.24564922 0.33128706 -0.0054212497 -0.09645035
000390 18 10 8d bd 59 9c 83 3e 99 44 f7 be 54 95 c9 bc
       -0.06887835 0.2570522 -0.48294523 -0.024607338
0003a0 74 51 56 bd 0a f8 03 bd db e2 1f 3c 9f d7 a5 bd
       -0.052323774 -0.03221897 0.009758676 -0.08097767
0003b0 ba f0 2f bd 9e 97 c1 bc fa 68 6b be e9 dd b1 bb
       -0.042954184 -0.023631867 -0.22989264 -0.005428065
0003c0 b4 69 c9 bc b3 c2 0b 3e 16 34 47 bd e4 9b 82 3c
       -0.024586536 0.1364849 -0.048633657 0.015943475
0003d0 8e 6c e8 bc d4 1d cf 3c 44 26 74 bd 61 a2 ea bd
       -0.028372075 0.025282778 -0.059606805 -0.114567526
0003e0 c9 f8 98 bd f4 0d 78 bd a7 a2 b2 3c 56 ee 01 be
       -0.07469327 -0.06056018 0.021806074 -0.12688574
0003f0 57 2a 72 bd f7 2a 8b 3e d5 0b 0e bc fc 9d af be
       -0.05912241 0.27181217 -0.008669813 -0.3430022

l3.weight f4 [6, 300]
000000 ac 52 9e 3b 09 fb 36 bc ae 4b 7d 3e b0 7a ae bd
       0.0048316326 -0.01116825 0.24735901 -0.085194945
000010 78 99 53 bd dd cb e5 3d 90 1f 68 bd bb 85 55 3d
       -0.05166003 0.112205245 -0.056670725 0.05212949
000020 66 97 a9 bd c3 f1 10 3e 52 9a f9 3c 25 60 6f bc
       -0.0828083 0.14154725 0.030469093 -0.014610325
000030 37 e1 7c be 47 46 50 be 1f 3e 2c bd 99 e9 0c be
       -0.24695288 -0.20339309 -0.04205143 -0.13760985
000040 5c dc a0 bc 50 63 ef 3d 9d 67 5a 3e 73 ea 52 bd
       -0.019636326 0.11688864 0.21328588 -0.05149312
000050 0b 93 fc bc 01 01 c8 bd b9 8a 10 bf c3 ee 47 3e
       -0.030831834 -0.097658165 -0.56461674 0.19524674
000060 02 74 c7 3c a1 0b 89 bd 3b ab 75 bd c0 29 bf bc
       0.024347309 -0.06691671 -0.05997775 -0.023335338
000070 17 c2 b4 3e f0 c4 17 be c1 15 f5 3b b3 3b f7 3d
       0.3530433 -0.1482122 0.0074794 0.120719336
000080 45 33 34 bc 83 d0 91 3b b3 01 d2 3a 22 e0 f3 3c
       -0.010998552 0.0044499054 0.0016022235 0.02976996
000090 3f a3 23 bd 94 a5 a0 bc 0c ea 1b bc cc ba a8 3d
       -0.039950605 -0.019610204 -0.00951625 0.08238754
0000a0 c3 af 43 3d b2 7f 8f 3d 0a cf 50 bd 81 4d c5 3c
       0.04777504 0.07006778 -0.050978698 0.024084808
0000b0 d5 1f 49 be e3 2e 30 3b 88 18 9d be 1b b1 19 bd
       -0.19641049 0.0026883415 -0.30682778 -0.037522417
0000c0 cd 83 0d bd bf 49 c5 be 82 f1 dc 3a 56 30 0a be
       -0.034549523 -0.38532826 0.0016856643 -0.13495001
0000d0 02 a8 12 3d 95 40 db 3e 3f a3 6e be 3b dc 7c bd
       0.035804756 0.4282271 -0.23304461 -0.061733466
0000e0 e7 cc 79 be 31 e8 6c 3e 74 e6 58 3d be bd b2 bd
       -0.2439457 0.23135449 0.052954152 -0.08727597
0000f0 30 74 eb bd e9 35 eb 3c 38 e7 3d 3c 2b 71 cc 3d
       -0.114967704 0.02871223 0.011590771 0.099825226
000100 4f 23 dc be df c5 ae be 20 6b 9f 3c 74 67 79 3d
       -0.42995688 -0.3413534 0.01946026 0.060889676
000110 c4 a9 0b bd ee 15 60 3c dc 62 33 bd 38 02 1c 3e
       -0.034097448 0.013677103 -0.04379545 0.15235221
000120 f3 3e e8 be b8 f9 03 3c b6 0b eb bd c1 9d ea be
       -0.45360526 0.008055143 -0.11476843 -0.45823482
000130 d5 c0 30 bd 29 56 3e be b8 2c b1 be 2f a0 2a bd
       -0.04315265 -0.18587555 -0.3460443 -0.04165667
000140 4b 90 ca 3e 6a 20 dd be fe f0 d9 3d bb 68 19 bc
       0.39563212 -0.43188792 0.10641669 -0.009363349
000150 0a 84 b5 bd 4c a8 9e 3e b1 26 be 3d f5 d3 84 bd
       -0.08863075 0.30987775 0.092847236 -0.0648574
000160 67 b5 3d 3e b1 8b 5b 3e fa 01 87 3d eb 2d b4 3c
       0.18526231 0.21440007 0.06592174 0.021994552
000170 0e f3 ad 3e 66 e2 81 bd eb 66 91 bc e2 d8 68 3d
       0.339745 -0.0634201 -0.01774927 0.05684746
000180 b6 3f 0b 3e a3 40 0a 3d 9e da cd bc 0e fe c2 be
       0.13598523 0.03375305 -0.025128659 -0.38084453
000190 3b d6 d6 3c ca ad 03 be fb cf e7 3d 46 49 57 3e
       0.0262252 -0.12859264 0.11318966 0.21024045
0001a0 ab ce 07 3d a8 39 38 bc b7 5a c5 bd 7a 53 b4 be
       0.03315608 -0.011244215 -0.09636443 -0.35219938
0001b0 00 ee 97 be 68 b2 1b bd 0a 86 d6 3d a1 14 61 3e
       -0.29673767 -0.03801194 0.10474785 0.21980526
0001c0 df eb 03 3b c9 a9 05 bc 00 96 5a bd 27 6f a2 3d
       0.0020129604 -0.008158156 -0.053365707 0.07931357
0001d0 0b 04 45 bd 9a e6 18 3d 4d 67 34 3d 9d 46 a4 ba
       -0.04809956 0.037329294 0.044043828 -0.0012533251
0001e0 2a aa af 3c b8 d3 e0 be 74 4b 49 3d 67 80 61 bc
       0.021443445 -0.4391153 0.049144223 -0.013763524
0001f0 6c a8 c0 bb 26 ab 24 bd a0 f4 3d 3b d8 12 b5 bd
       -0.0058794525 -0.040202282 0.002898492 -0.08841485
000200 3a 35 1f bb 97 26 58 be 8f 96 75 be 9c 02 c7 3c
       -0.00242932 -0.21108471 -0.23983215 0.024293236
000210 fa aa c5 3d 68 fd 51 3e 3e de a9 bd d8 0f 2b 3b
       0.09651752 0.20506823 -0.082943425 0.0026101973
000220 1b 1f 83 bb 39 c8 5d be b8 78 2a 3e c9 95 b8 3e
       -0.004001511 -0.2165841 0.16647613 0.36051777
000230 d4 52 4f be 5b 37 6f bc 7e ec f7 bd 9d ac ec bb
       -0.2024644 -0.0146006 -0.12105654 -0.0072227255
000240 43 f9 53 3c 3d d5 81 bd 78 a0 ab be 90 ed f8 3c
       0.012937847 -0.063395 -0.33520865 0.030386716
000250 61 83 fc 3d d5 ee 3c 3d 2f 5d 4d 3d 6e 3f 3f bb
       0.12329746 0.046126205 0.050137695 -0.0029182094
000260 f0 af 62 bc dc 52 8e 3d 2e 4d 2b 3d 9c a0 b0 3c
       -0.013835892 0.06949398 0.04182165 0.02156096
000270 b7 f1 e3 3d d9 19 2b bc 40 3a 5f 3b 44 3e d7 3c
       0.11130088 -0.010443174 0.003406182 0.026274808
000280 5f ec 08 3c 0c 5f 74 3c 5f 52 00 be 66 32 ea 3c
       0.0083571365 0.014915239 -0.12531422 0.028588485
000290 38 cd 77 bc 96 82 de bc 82 c2 57 bd 07 26 84 bc
       -0.015124612 -0.027161878 -0.05267573 -0.016131414
0002a0 29 00 25 3c db 4d da bc 2a 2d 83 bd 87 5d 0a bc
       0.010070839 -0.026648453 -0.06405099 -0.00844515
0002b0 30 6b 2e bd 0f e0 74 bd d2 33 75 be b2 92 9b be
       -0.04258269 -0.05978399 -0.23945549 -0.30385357
0002c0 af 51 29 be 95 df 62 bb 77 59 0b be 71 d6 4d 3d
       -0.16535066 -0.0034618129 -0.13608347 0.050253335
0002d0 d0 2a 5e 3d 33 83 6a 3c 66 88 ca bc a3 65 b6 3b
       0.054240048 0.014313507 -0.024723243 0.0055663153
0002e0 28 fc 30 be f9 24 da 3d 2c 82 e6 3d 00 51 94 be
       -0.1728369 0.10651583 0.11255297 -0.28968048
0002f0 b5 01 db 3c 98 27 9a bc bc 51 a1 3d e6 d6 31 bd
       0.026734212 -0.018817708 0.07876918 -0.043417834
000300 16 df 65 3b c8 76 f1 3c 60 4c 5d 3d 92 5e 9a 3e
       0.0035075597 0.029475585 0.054027915 0.30150276
000310 2e 7f 70 be ef 63 68 3d 24 c8 35 3d 57 19 20 be
       -0.23486015 0.05673593 0.044380322 -0.15634666
000320 a5 b3 39 bd 34 0c 87 be b4 81 4a be a3 e2 c3 3c
       -0.045337338 -0.26376498 -0.1977604 0.02391178
000330 fc 96 e1 3c 44 27 50 3e 9e ef 19 be 73 81 8b 3e
       0.027537815 0.20327479 -0.15032813 0.272472
000340 c7 2e ad be 5d 05 b2 bc a3 0d f4 bd 8f c9 84 bd
       -0.3382475 -0.021731073 -0.119166635 -0.06483757
000350 20 98 0d 3d b1 9b 24 3c 11 d5 c3 3e 60 e8 90 3c
       0.034568906 0.010046885 0.38248494 0.01768893
000360 9c c8 1d be 9e 2e c0 3a fc ed 79 3e bc e4 89 3d
       -0.15408558 0.001466233 0.2440719 0.06733081
000370 12 f8 51 3d 7a 5e f4 3c ce d9 90 3e 53 55 2d 3e
       0.05126197 0.029830206 0.28291172 0.1692708
000380 2d f0 a2 bd 93 36 0d 3e 8f 5f 86 3d fc 54 1a 3d
       -0.07955966 0.1379035 0.06561195 0.037678704
000390 c2 32 9b bd 7a ed 62 3e d8 b2 12 3e 10 4a ce bc
       -0.07578041 0.22160903 0.14326036 -0.0251818
0003a0 43 af 63 bd f0 26 da 3d 25 f5 5c 3e 7b 35 50 bd
       -0.055587064 0.10651958 0.2157789 -0.050832253
0003b0 09 1a b2 bc 6a 31 f0 3c 68 b0 93 3b 5d 9d 27 be
       -0.02174093 0.029320437 0.0045071132 -0.16368623
0003c0 3a 93 bc 3d a9 a6 a9 3e e7 7a 32 bd cb f9 57 3a
       0.09207769 0.33134964 -0.04357424 0.0008238821
0003d0 43 5d 3c bc 74 ba f1 3c 47 fa 74 3a 21 77 88 bd
       -0.011496845 0.029507853 0.00093451556 -0.06663347
0003e0 f8 50 5b bd 4a f3 08 bc e4 47 f2 3d bf 93 8f bd
       -0.053544015 -0.008358786 0.11830118 -0.07010602
0003f0 00 b0 5d 3d 75 1a 42 3e 02 8e 99 3d d1 ee 9f bd
       0.054122925 0.18955405 0.07497789 -0.078092225

l3.bias f4 [6]
000000 8b 79 03 3e 18 69 61 bd 18 3e 03 be cb 8d 94 bd
       0.12839334 -0.055031866 -0.12816656 -0.07253607
000010 8b 60 29 be f2 b5 3d be
       -0.16540734 -0.18526438
