average data/Average_TD3_20_Peg-in-hole-triple_assembly_seed_2/_actor.pth (torch_old, 510312 bytes, 6 tensors)

l1.weight f4 [400, 12]
0.43194294 -0.055511262 0.15731663 -0.21600237 -0.03880408 -0.2510147 -0.2485931 -0.2497416
0.08783182 -0.57636464 0.1434899 0.1681149 -0.057188205 0.2271298 0.066488825 0.119815096
0.118095264 -0.17430261 -0.08091397 0.25976348 -0.29806355 -0.034300413 -0.042056907 0.18448597
0.42246604 0.026057258 0.13205585 -0.31256646 -0.3194682 -0.4687806 -0.53164464 -0.5102094
0.071860455 -0.3946949 0.25187805 0.21472834 0.28599876 0.02518273 0.065156996 -0.11935033
-0.19421263 -0.10372601 0.2306904 0.15774785 -0.16415265 0.68692744 0.5804362 0.7711049
0.030572295 0.022043586 0.15403637 0.19391659 0.20731077 0.16731772 -0.07038173 -0.012851149
-0.058665246 0.16793153 0.03205973 0.2671795 0.50158906 -0.49269027 0.1029154 0.45212188
0.04369822 0.33555976 0.34472695 -0.34184366 -0.15975145 0.23024623 -0.1992434 0.018861571
-0.50175583 0.04147561 0.096447796 0.19485907 0.24843708 -0.544913 0.15605004 -0.15396583
0.13024738 -0.10184243 -0.903295 -0.47390872 0.6274291 0.19023052 0.09615508 -0.055162713
-0.4620928 0.1385591 0.40527618 -0.12209543 0.10971678 0.39830783 0.18217203 0.52689016
-0.69432515 -0.020663468 -0.010427271 -0.19386081 -0.10161127 -0.64189935 -0.17754102 -0.24015534
-0.019546585 0.33332217 0.064689174 -0.8497845 -0.43441218 -0.004796437 0.14877298 -0.25508994
-0.11414431 0.08846385 -0.42232248 -0.079574235 0.10343498 0.040848214 0.14619793 0.13133611
0.14184237 0.06606298 -0.017361201 0.11396233 -0.047000546 -1.414276 -0.62385136 -0.025024978
-0.3953088 -0.061106604 0.5761836 0.974835 -0.11878157 -0.2346822 0.14715293 0.14581776
0.108017296 -0.2472319 0.2797357 -0.027365068 -0.26529226 -0.04399536 0.18867679 0.13313185
-0.6099329 0.39335048 -0.01116549 0.15294243 0.4413328 -0.30770922 -0.36062694 -0.20102116
-0.09647353 -0.104019806 -0.14780292 -0.5416327 -0.3296027 0.10912938 0.28237647 -0.02104183
-0.04987071 0.35379663 -0.23052858 -0.6031171 0.11833843 0.0014975624 -0.3731572 0.047607623
-0.4586614 -0.3587854 -0.006710675 -0.06462186 0.5583709 -0.5638078 -0.6817769 -0.38559365
-0.2591601 -0.22184417 0.40190977 -0.43545863 -0.4122226 -0.26221046 0.052671798 0.30471686
-0.016628759 -0.4454297 0.030596102 0.23491228 0.14200248 -0.12254116 -0.6512143 -0.90641177
0.42055917 0.45518714 0.03475707 -0.21789786 -0.11913723 0.072563045 -0.29501316 0.053281315
-0.6456456 0.023910733 0.08687135 -0.18343283 -0.36767232 0.029656583 0.015516133 -0.024748353
0.37721857 -0.39660063 -0.29757547 -0.06933003 0.06301344 -0.47381917 -0.8128676 -0.598129
-0.014730422 -0.22753645 -0.021668712 0.44977582 0.13327453 0.22035025 0.49220803 0.34052867
-0.09298687 0.108093046 0.05312219 0.12351044 0.27971977 -0.034501012 0.07823848 -0.25758383
0.099111095 -0.18910554 -0.58169806 -0.306423 0.0031883481 -0.65660155 -0.036876395 -0.016840417
-0.9686505 0.3869181 -0.06902834 -0.1413123 0.3265167 1.5919863 0.1896658 0.3154679
-0.28435978 0.052806456 -0.422918 -0.5895838 -0.011979043 -0.20597379 0.006616363 0.24709642
00000000: a027 dd3e c75f 63bd 9c17 213e ba2f 5dbe
00000010: 07f1 1ebd 0085 80be 318f 7ebe 43bc 7fbe
00000020: 2be1 b33d a28c 13bf 04ef 123e 5026 2c3e
00000030: 2e3e 6abd b794 683e 4b2b 883d 9e61 f53d
00000040: eedb f13d 627c 32be 39b6 a5bd b8ff 843e
00000050: c99b 98be 977e 0cbd dd43 2cbd e4e9 3c3e
00000060: 784d d83e 0876 d53c a639 073e b608 a0be
00000070: 5691 a3be 0304 f0be dd19 08bf 159d 02bf
00000080: 932b 933d 7315 cabe 29f6 803e bfe1 5b3e
00000090: 6e6e 923e 034c ce3c 0871 853d f26d f4bd
000000a0: addf 46be 4d6e d4bd 1b3a 6c3e a788 213e
000000b0: a217 28be 7ada 2f3f 7897 143f 2167 453f
000000c0: c072 fa3c c094 b43c b6bb 1d3e 1292 463e
000000d0: 4649 543e 5655 2b3e 4c24 90bd a08d 52bc
000000e0: f84a 70bd 3ef6 2b3e 1051 033d c0cb 883e
000000f0: 2468 003f e641 fcbe 4fc5 d23d 857c e73e
00000100: e8fc 323d 7dce ab3e 0d80 b03e 2206 afbe
00000110: e295 23be abc5 6b3e 7606 4cbe 9583 9a3c
00000120: 1273 00bf 54e2 293d 6c86 c53d 2389 473e
00000130: 4a66 7e3e 6b7f 0bbf 95cb 1f3e 38a9 1dbe
00000140: 925f 053e c492 d0bd 573e 67bf 2aa4 f2be
00000150: 329f 203f cacb 423e f4ec c43d 4cf2 61bd
00000160: 6d97 ecbe 70e2 0d3e 5c80 cf3e 2b0d fabd
00000170: 31b3 e03d 01ef cb3e 4e8b 3a3e 46e2 063f
00000180: 4bbf 31bf 6f46 a9bc 25d7 2abc 7383 46be
00000190: 9219 d0bd 8453 24bf 50cd 35be 48eb 75be
000001a0: 2920 a0bc 34a9 aa3e c27b 843d 7a8b 59bf
000001b0: 466b debe 6e2b 9dbb f257 183e 269b 82be
000001c0: 7ec4 e9bd 892c b53d a73a d8be d1f7 a2bd
000001d0: b8d5 d33d 7550 273d e9b4 153e f97c 063e
000001e0: 203f 113e 074c 873d 1439 8ebc 1565 e93d
000001f0: a583 40bd ff06 b5bf b9b4 1fbf 2f01 cdbc
00000200: ea65 cabe eb4a 7abd c580 133f c98e 793f
00000210: c043 f3bd 8850 70be 42af 163e 4051 153e
00000220: 2c38 dd3d 5c2a 7dbe 8539 8f3e b52c e0bc
00000230: 63d4 87be 7b34 34bd 7d34 413e b753 083e
00000240: 9024 1cbf 3c65 c93e 76ef 36bc f19c 1c3e
00000250: 5ff6 e13e 108c 9dbe 18a4 b8be 7ed8 4dbe
00000260: ea93 c5bd 5608 d5bd a659 17be 71a8 0abf
00000270: afc1 a8be 397f df3d a693 903e ea5f acbc
00000280: 3b45 4cbd d524 b53e af0f 6cbe e265 1abf
00000290: 6b5b f23d db49 c43a 760e bfbe 3600 433d
000002a0: abd5 eabe b8b2 b7be 39e5 dbbb 7758 84bd
000002b0: 65f1 0e3f b555 10bf ee88 2ebf 886c c5be
000002c0: a2b0 84be 1e2b 63be 1ec7 cd3e 6ff4 debe
000002d0: d70e d3be 7340 86be 62be 573d d903 9c3e
000002e0: 0939 88bc 5d0f e4be ada4 fa3c d88c 703e
000002f0: 1969 113e dcf6 fabd fbb5 26bf 9a0a 68bf
00000300: 8853 d73e 4a0e e93e 6e5d 0e3d 9e20 5fbe
00000310: 38fe f3bd ef9b 943d f70b 97be 823d 5a3d
00000320: 0849 25bf 71e0 c33c 9be9 b13d d1d5 3bbe
00000330: 8c3f bcbe 5df2 f23c 6137 7e3c 0fbd cabc
00000340: cb22 c13e 3d0f cbbe d05b 98be e7fc 8dbd
00000350: 310d 813d 6d98 f2be 1718 50bf fb1e 19bf
00000360: de57 71bc 51ff 68be 9582 b1bc 0449 e63e
00000370: 1e79 083e 7fa3 613e b102 fc3e c659 ae3e
00000380: e66f bebd e35f dd3d a796 593d 0bf3 fc3d
00000390: 6e37 8f3e ef50 0dbd 7f3b a03d 07e2 83be
000003a0: c2fa ca3d e2a4 41be 2aea 14bf 7ae3 9cbe
000003b0: 9bf3 503b 0a17 28bf b40b 17bd eaf4 89bc
000003c0: 7bf9 77bf 211a c63e bb5e 8dbd 2cb4 10be
000003d0: 322d a73e 35c6 cb3f c037 423e 0285 a13e
000003e0: 9b97 91be 954b 583d b588 d8be f7ee 16bf
000003f0: bf43 44bc cbea 52be 13ce d83b d806 7d3e

l1.bias f4 [400]
-0.012093669 -0.2221633 -0.13671507 -0.14029889 -0.012514293 0.2870235 -0.28997922 0.29438785
-0.6608498 0.21132785 -0.8010655 0.18305126 -0.8488793 -0.06792072 -0.33864895 -0.029156398
0.09474728 0.098016135 0.49537873 -0.041919265 0.399845 0.3762907 -0.43287754 -0.32250482
0.2462119 -0.12507267 -0.12515204 -0.4036355 -0.10086679 -0.04367913 -0.06183332 0.05682646
-0.18865839 0.22232276 -0.7869102 0.11173496 -0.41994488 0.21804652 -0.519881 -0.54126525
-0.35637453 -0.6344426 -0.25691193 0.04347834 -0.101021804 0.08362802 -0.76856184 -0.036300544
-0.28862184 -0.19606732 0.4419707 -0.42803043 -0.14689158 0.07978865 -0.22981328 -0.966882
-0.29018593 -0.16569245 0.30793452 0.64609414 -0.3431705 -0.54106396 0.57092416 0.12459148
0.06815356 -0.03329638 -0.13702945 0.03311798 0.24715404 0.3867852 -0.3151185 0.51845217
-0.28134772 0.43328533 0.5524899 -0.3464698 -0.25283656 -0.6669363 0.105951816 -0.41704693
-0.5741954 0.25960255 -1.0501872 -0.35121736 0.30654567 -0.2840629 -0.3883802 0.42517218
0.6526355 -0.14216162 0.0019581683 0.09888688 -0.08756492 -0.5553414 -0.15933688 0.26168633
-0.93096894 -0.63827085 -0.35358736 -0.12218814 -0.007765711 -0.07316736 0.51150745 -0.3916104
-0.3246788 0.032509755 -0.53253615 -0.27151576 -0.0063347965 0.442071 -0.0008381915 -0.1397496
-0.17601994 -0.5306551 -0.6102762 -0.27017662 0.21616048 0.54265213 0.05882516 0.24078527
-0.5578783 -0.24343997 0.438556 0.13570613 0.087305516 0.56382763 0.26456517 0.09162616
-0.26144224 -1.064161 -0.39692837 0.19034947 -0.7353968 -0.87598056 -0.008827288 0.16166648
0.08743706 -0.98438436 -0.21367136 0.12028362 -0.010444313 -0.2896588 -0.19227433 0.15329507
-0.58966637 0.5279974 -0.2760273 -0.39576107 -0.032528494 0.741303 -0.158083 -0.22892523
0.047671746 -0.17804718 -0.06904267 0.4080876 -0.0003054966 -0.21460849 -0.29661494 0.10545745
-0.2784657 -0.068250716 0.13528045 0.5152212 0.26681274 -0.42616355 -0.44671062 -0.12724563
-1.0219959 0.046264052 -0.2475134 0.77356344 0.0839615 -0.0038465916 -0.463962 0.2666718
-0.073431656 0.08995065 -0.011123358 0.005682261 0.6638603 -0.008754981 -0.17692773 -0.81166494
-0.52501833 -0.105522305 -0.34284598 -0.0938226 0.4116751 0.5136926 0.086773306 -0.21567634
-0.1847301 0.72212106 -0.039059322 -0.8419014 -0.13690811 -0.20708162 0.27298316 -0.4605953
-0.8689489 -0.08318546 0.5491112 0.09335973 -0.22689939 -0.05404189 -0.19653785 0.023980357
0.6229489 0.13856342 -0.3897924 -0.8380612 0.2961471 0.3672196 -0.23238187 -0.6265241
-0.006756551 0.22619241 -0.19630142 -0.054314848 -0.73023444 0.45658723 0.60938656 0.5192077
-0.37455803 0.38943532 -0.5038422 -0.13466534 -0.11209741 -0.12876903 -0.91745716 0.7306717
-0.40184012 -0.67454505 0.22708508 -0.0073890984 -0.110371426 -0.16596167 0.061677556 -0.39770555
0.09373717 -0.1059759 -0.20628788 -0.21092682 -0.17995013 -0.26587862 -0.07999809 0.3728375
-0.68119687 -0.04204843 -0.15111193 -0.13100033 0.113906585 0.2845449 -0.3483733 -0.09363693
00000000: 8624 46bc c77e 63be 09ff 0bbe 83aa 0fbe
00000010: c008 4dbc bff4 923e 2878 94be 01ba 963e
00000020: 742d 29bf 5466 583e a112 4dbf ca71 3b3e
00000030: 2750 59bf 051a 8bbd 6563 adbe 66d9 eebc
00000040: dd0a c23d afbc c83d 48a2 fd3e 89b3 2bbd
00000050: 7cb8 cc3e 2da9 c03e 20a2 ddbe 5a1f a5be
00000060: f91e 7c3e 0d13 00be db27 00be 50a9 cebe
00000070: 3f93 cebd e3e8 32bd ef44 7dbd ddc2 683d
00000080: aa2f 41be 94a8 633e f272 49bf 4cd5 e43d
00000090: 0403 d7be 9647 5f3e ec16 05bf 5c90 0abf
000000a0: b976 b6be d56a 22bf f689 83be 5816 323d
000000b0: 85e4 cebd 2b45 ab3d 78c0 44bf e1af 14bd
000000c0: 3ec6 93be dfc5 48be fc49 e23e ce26 dbbe
000000d0: bf6a 16be 3b68 a33d 2c54 6bbe 9485 77bf
000000e0: 4093 94be 48ab 29be 98a9 9d3e 6d66 253f
000000f0: 0bb4 afbe 2b83 0abf 1628 123f d129 ff3d
00000100: 1894 8b3d c961 08bd 7351 0cbe b8a6 073d
00000110: f315 7d3e b608 c63e 3657 a1be 48b9 043f
00000120: cf0c 90be 93d7 dd3e fa6f 0d3f 7d64 b1be
00000130: cb73 81be 56bc 2abf 44fd d83d 2d87 d5be
00000140: 78fe 12bf a0ea 843e 896c 86bf c3d2 b3be
00000150: 8ef3 9c3e b170 91be c5d9 c6be 2bb0 d93e
00000160: 1f13 273f d192 11be 9d54 003b 3485 ca3d
00000170: 3d55 b3bd db2a 0ebf 3529 23be c0fb 853e
00000180: fb53 6ebf b865 23bf 6709 b5be c73d fabd
00000190: 8177 febb c5d8 95bd 27f2 023f 2981 c8be
000001a0: 4d3c a6be f328 053d 4a54 08bf 1d04 8bbe
000001b0: 2094 cfbb 2157 e23e 14ba 5bba 851a 0fbe
000001c0: 923e 34be 03d9 07bf 103b 1cbf 9754 8abe
000001d0: 2c59 5d3e 40eb 0a3f a7f2 703d 6a90 763e
000001e0: 1dd1 0ebf 5448 79be 698a e03e 8cf6 0a3e
000001f0: 3ccd b23d 0257 103f 1675 873e 7fa6 bb3d
00000200: c2db 85be 6d36 88bf 323a cbbe f9ea 423e
00000210: f742 3cbf 4340 60bf 54a0 10bc e68b 253e
00000220: 3412 b33d 9d00 7cbf aacc 5abe 4257 f63d
00000230: a01e 2bbc 294e 94be 90e3 44be 62f9 1c3e
00000240: 60f4 16bf d62a 073f 7353 8dbe 32a1 cabe
00000250: 993c 05bd 09c6 3d3f 83e0 21be 606b 6abe
00000260: 7343 433d 0052 36be 3e66 8dbd dcf0 d03e
00000270: 0f2b a0b9 54c2 5bbe eadd 97be 13fa d73d
00000280: 0e93 8ebe 08c7 8bbd f586 0a3e 89e5 033f
00000290: ae9b 883e 1c32 dabe 41b7 e4be ae4c 02be
000002a0: c3d0 82bf 607f 3d3d 2774 7dbe 4108 463f
000002b0: 02f4 ab3d 1917 7cbb 6d8c edbe 3589 883e
000002c0: 5663 96bd 0c38 b83d bf3e 36bc 4332 ba3b
000002d0: c0f2 293f 0d71 0fbc 8b2c 35be 46c9 4fbf
000002e0: 9a67 06bf 141c d8bd 8289 afbe 1026 c0bd
000002f0: 14c7 d23e 5c81 033f 34b6 b13d 42da 5cbe
00000300: e329 3dbe eddc 383f abfc 1fbd da86 57bf
00000310: a431 0cbe 340d 54be 73c4 8b3e 26d3 ebbe
00000320: 6f73 5ebf 235d aabd 8d92 0c3f 6333 bf3d
00000330: 5058 68be 075b 5dbd 3841 49be 7472 c43c
00000340: 9479 1f3f 92e3 0d3e df92 c7be 2e8b 56bf
00000350: 98a0 973e 3504 bc3e 83f5 6dbe e263 20bf
00000360: 0f66 ddbb fc9e 673e 3d03 49be 3f79 5ebd
00000370: a5f0 3abf cdc5 e93e c200 1c3f ccea 043f
00000380: 12c6 bfbe 1164 c73e cdfb 00bf b6e5 09be
00000390: 5493 e5bd 07dc 03be 79de 6abf 4d0d 3b3f
000003a0: fdbd cdbe fcae 2cbf fe88 683e 4020 f2bb
000003b0: 6a0a e2bd dbf1 29be 9ba1 7c3d 10a0 cbbe
000003c0: 46f9 bf3d e509 d9bd 213d 53be 33fd 57be
000003d0: d944 38be 3e21 88be 0ad6 a3bd 8fe4 be3e
000003e0: eb62 2ebf f93a 2cbd 16bd 1abe f324 06be
000003f0: db47 e93d deaf 913e fc5d b2be b8c4 bfbd

l2.weight f4 [300, 400]
0.03363491 -0.01595093 0.005294493 -0.00597567 -0.021168143 -0.04610289 -0.06352121 -0.04816584
-0.052406304 -0.03703615 -0.0069710305 0.00060114264 -0.008738864 0.005060941 0.005519229 -0.020703606
0.02714936 -0.032704063 0.042979486 0.00034430582 -0.024782447 -0.06036964 -0.023579532 -0.015311601
0.020375598 -0.008711476 -0.062038627 0.0039503067 0.01794007 -0.059577692 -0.0037180083 0.005270855
0.027823504 0.042038966 -0.05261479 -0.0075690374 -0.02109592 0.0101822205 -0.06627478 0.034645792
-0.017495418 -0.008533908 -0.028251529 -0.022496505 0.0034735713 -0.05213715 -0.030281037 -0.09186402
-0.02199305 -0.09005779 -0.038998026 -0.021221675 -0.038601387 0.030059908 0.015993375 -0.03691912
-0.10772517 -0.05806318 0.0033524316 -0.015041403 0.009419344 -0.04646475 -0.045262124 -0.014542862
-0.036509983 -0.043017376 -0.006040789 -0.010565311 -0.03903227 0.043277483 -0.00051357073 -0.001665596
-0.012402467 -0.033920567 0.030560354 0.0037663816 -0.027584316 0.015759792 0.0031312774 0.021714056
0.0010220001 -0.036701925 0.0369016 0.024134798 -0.018466413 -0.049374215 -0.03086977 -0.020014998
-0.08421764 -0.037167847 0.010138 0.019301716 -0.09089809 -0.052998926 -0.02395692 -0.013355751
-0.0695177 0.017716661 -0.031001108 -0.049299154 -0.048382714 -0.026232207 -0.05718356 0.025359632
0.019125331 -0.017497953 -0.053264204 -0.01694248 -0.081207335 -0.014392413 -0.03969488 0.00723223
0.025828537 -0.035664894 -0.08262893 -0.021126974 0.025788438 -0.05577615 -0.053453315 -0.006489955
-0.013907368 0.021693293 0.021289075 -0.0020227619 0.03656729 -0.05899407 -0.06286165 -0.018036364
-0.04509865 -0.03141491 -0.013864564 0.047153976 -0.04938829 0.022542598 -0.010216074 -0.013367664
0.00091900676 0.019962251 -0.015943456 0.022320684 -0.06901616 -0.023032015 0.007012598 -0.06452979
-0.048658893 -0.016872754 0.018003816 -0.062576845 -0.06521483 0.0051079327 0.0041038576 -0.026115706
0.02275655 0.029596878 -0.0011473596 -0.02806697 -0.015423273 0.016024683 -0.019322276 0.0464592
0.041050304 0.03724671 -0.057459135 0.028188776 0.025216518 0.019559348 0.011435547 -0.06394255
-0.0044211466 0.0052238354 -0.054412086 -0.03502525 0.0015183074 0.03241496 -0.01996355 -0.021965828
-0.029268118 -0.0043945536 -0.037060525 -0.0012928229 0.00012455863 0.074735865 0.022302367 -0.020925585
-0.08843145 0.021778967 -0.004204005 -0.01457975 0.010290114 0.033552293 -0.024818646 -0.034310807
-0.02807014 -0.015626542 -0.04103454 -0.011837338 -0.051527645 -0.021998638 0.029026719 -0.019257093
-0.013594395 -0.016109599 0.025279317 0.012279763 0.030450504 0.023254449 0.03290603 0.040599115
0.031052617 0.03633003 -0.045107048 0.023524074 -0.010499824 0.0077097146 -0.01599068 -0.028587192
0.027892387 0.018286798 -0.03353473 -0.0075017735 0.012690363 -0.055295635 -0.11862894 -0.03993996
-0.010342472 0.038067948 -0.035774805 -0.036869194 -0.011680923 -0.013428576 -0.053936068 -0.03368166
-0.057214066 -0.04719187 0.019025123 0.040811155 -0.025662798 -0.05887866 -0.048865393 0.009639575
0.0025943755 -0.00081348047 -0.0041795857 -0.021804718 0.03454799 0.034715798 -0.038591914 0.029421343
-0.033700448 -0.042853475 0.026781049 0.0038610399 -0.06413733 -0.028151387 0.042730186 0.046027254
00000000: c2c4 093d 86ab 82bc 6d7d ad3b 8ecf c3bb
00000010: d068 adbc 62d6 3cbd 6817 82bd 8b49 45bd
00000020: fea7 56bd 38b3 17bd 3e6d e4bb 0096 1d3a
00000030: 742d 0fbc 40d6 a53b a6da b43b 9c9a a9bc
00000040: 5668 de3c b2f4 05bd 420b 303d f283 b439
00000050: 8f04 cbbc 2846 77bd dd29 c1bc 82dd 7abc
00000060: baea a63c 94ba 0ebc 371c 7ebd 9371 813b
00000070: 0ef7 923c bd07 74bd d4a9 73bb 23b7 ac3b
00000080: 1eee e33c 0d31 2c3d 9b82 57bd b005 f8bb
00000090: 5ad1 acbc 54d3 263c 12bb 87bd bfe8 0d3d
000000a0: 8d52 8fbc ced1 0bbc c06f e7bc 974a b8bc
000000b0: dba4 633b c48d 55bd f00f f8bc 3423 bcbd
000000c0: c52a b4bc 3870 b8bd 65bc 1fbd 14d9 adbc
000000d0: 7d1c 1ebd 3240 f63c 8a04 833c 8138 17bd
000000e0: 049f dcbd a8d3 6dbd 78b4 5b3b 3770 76bc
000000f0: 9853 1a3c d251 3ebd c764 39bd 2f45 6ebc
00000100: 7e8b 15bd fd32 30bd d0f1 c5bb 201a 2dbc
00000110: 4de0 1fbd bb43 313d 26a1 06ba 2150 daba
00000120: b833 4bbc 4bf0 0abd b559 fa3c 66d5 763b
00000130: 81f8 e1bc ae1a 813c 1e36 4d3b ade1 b13c
00000140: a2f4 853a c254 16bd 2226 173d 57b6 c53c
00000150: e046 97bc 9e3c 4abd 9ae2 fcbc 7ef6 a3bc
00000160: 4c7a acbd 503d 18bd db19 263c a21e 9e3c
00000170: c728 babd 6715 59bd 4d41 c4bc 14d2 5abc
00000180: 4c5f 8ebd 8822 913c 09f6 fdbc e9ed 49bd
00000190: f42c 46bd ede4 d6bc 4f39 6abd 01bf cf3c
000001a0: baac 9c3c de57 8fbc 912b 5abd f5ca 8abc
000001b0: 0850 a6bd 28ce 6bbc 1997 22bd 58fc ec3b
000001c0: 5e96 d33c 5a15 12bd 5b39 a9bd 7a12 adbc
000001d0: 4642 d33c 8875 64bd ddf1 5abd b0a9 d4bb
000001e0: bbdb 63bc 22b6 b13c 6d66 ae3c 5090 04bb
000001f0: 95c7 153d c4a3 71bd 9cbd 80bd ffc0 93bc
00000200: 5db9 38bd ecac 00bd 3228 63bc 8724 413d
00000210: 604b 4abd 41ab b83c 5261 27bc 0c04 5bbc
00000220: 80e9 703a e087 a33c da9b 82bc ded9 b63c
00000230: 5858 8dbd a3ad bcbc f0c9 e53b 3228 84bd
00000240: 8c4e 47bd bb38 8abc bd7c 933c 4a28 80bd
00000250: 5a8f 85bd 7260 a73b a779 863b 9bf0 d5bc
00000260: f26b ba3c 2775 f23c 0063 96ba b4ec e5bc
00000270: e5b1 7cbc 3246 833c c049 9ebc 014c 3e3d
00000280: 5d24 283d 0290 183d 455a 6bbd 26ec e63c
00000290: df92 ce3c ed3a a03c 295c 3b3c 50f4 82bd
000002a0: 44df 90bb b52c ab3b 35df 5ebd a376 0fbd
000002b0: f101 c73a 8dc5 043d 998a a3bc aef1 b3bc
000002c0: b1c3 efbc 3000 90bb c7cc 17bd f073 a9ba
000002d0: f49b 0239 1e0f 993d 74b3 b63c 226c abbc
000002e0: 8c1b b5bd ce69 b23c c0c1 89bb e7df 6ebc
000002f0: de97 283c 216e 093d 7950 cbbc 7d89 0cbd
00000300: 5af3 e5bc 3c03 80bc d513 28bd 65f1 41bc
00000310: a70e 53bd 7d36 b4bc 71c9 ed3c 0dc1 9dbc
00000320: 06bb 5ebc 47f8 83bc 9216 cf3c 0f31 493c
00000330: 5673 f93c 1d80 be3c 79c8 063d 424b 263d
00000340: 0f62 fe3c ccce 143d 2bc2 38bd 8fb5 c03c
00000350: 7407 2cbc c6a1 fc3b e3fe 82bc b02f eabc
00000360: 937e e43c 32ce 953c b75b 09bd 70d1 f5bb
00000370: 3eeb 4f3c ad7d 62bd bbf3 f2bd 1598 23bd
00000380: 7973 29bc 23ed 1b3d 9a88 12bd 2704 17bd
00000390: 5861 3fbc 8803 5cbc 11ec 5cbd c8f5 09bd
000003a0: 4c59 6abd 434c 41bd 93da 9b3c 9929 273d
000003b0: ca3a d2bc c02a 71bd 1427 48bd 4fef 1d3c
000003c0: 6606 2a3b c03f 55ba e8f4 88bb cf9f b2bc
000003d0: 3182 0d3d 2732 0e3d 8e12 1ebd 0705 f13c
000003e0: 7b09 0abd 2087 2fbd ee63 db3c 8009 7d3b
000003f0: 6f5a 83bd bd9d e6bc d905 2f3d 1387 3c3d

l2.bias f4 [300]
-0.03669111 0.25681096 -0.032245737 -0.026447138 -0.18618216 -0.07293714 -0.061781053 -0.34483832
0.14132427 0.03609476 -0.055355173 0.10701989 0.18738638 0.01683108 -0.09135189 -0.031912718
0.2443376 0.036072787 -0.111180976 0.025332985 0.0047065145 -0.041524854 -0.021754676 0.10521852
0.10013404 -0.011069766 -0.20344591 0.3998236 -0.02503345 -0.034993295 -0.01963157 0.31431016
-0.06519911 -0.16252004 -0.265774 -0.36103332 -0.091756545 0.0005466169 -0.032710362 0.059068006
-0.017134437 -0.45867714 0.0026145214 -0.009935481 -0.08419151 -0.024882903 0.17983352 0.029853104
0.12979281 -0.16215356 0.031850714 -0.0045835464 -0.36470744 0.01743358 -0.022283942 -0.081981964
-0.0693018 0.14596309 -0.06539336 -0.029743964 0.21959582 -0.2607179 -0.042528573 -0.038793292
0.23137665 0.026268091 -0.03839497 0.20924619 -0.07924231 0.0069846674 0.08957945 0.3389899
0.015894972 -0.18999228 0.2776316 0.16714662 -0.056306377 -0.031762946 0.013626863 -0.07709653
-0.18359457 -0.05737725 -0.43720013 0.41256714 0.10192295 -0.16611 0.0070215687 0.017807117
-0.0710784 0.17128871 0.42729998 0.0932792 -0.04220354 -0.03456624 -0.061194602 -0.09621418
0.022187248 0.056954157 0.1352627 -0.06897371 -0.04031926 -0.005332114 -0.017970711 -0.055258747
0.019600974 0.0026301148 -0.0023761922 -0.46332797 -0.16099851 -0.2735305 -0.019832514 -0.027968531
0.07502779 0.0043124254 -0.29298478 -0.06091308 0.008952621 0.29358962 -0.032612164 -0.03219737
-0.050720755 -0.023815498 0.0019315482 -0.05822345 -0.0054791677 -0.022291113 -0.08109013 -0.17174682
0.29386652 -0.19904877 -0.29621682 -0.03213922 -0.006164223 -0.0010699817 -0.09754855 -0.1293994
-0.030893404 -0.04387169 0.013068246 -0.038823843 -0.04208446 0.021274315 -0.037748173 -0.007508797
-0.030434651 0.0075288187 -0.21907918 0.013086618 0.12325231 0.029206863 -0.03149686 -0.017189248
0.08604909 -0.055246666 0.063522324 0.01703045 -0.23991655 0.03999145 0.014316339 0.12027494
-0.122148626 0.18472049 -0.017940093 -0.05774432 -0.17116927 -0.06754606 0.023187714 -0.41850296
-0.0226032 -0.015437816 0.081590675 0.017743 -0.013095483 -0.05615739 -0.024662089 -0.01927969
-0.1522768 -0.03405549 0.37451765 0.3869929 0.08514546 -6.2615865e-05 -0.022644995 -0.09338322
-0.044027504 -0.07636273 -0.05441487 -0.11978741 -0.04800632 0.2988791 -0.42016798 0.0033172043
0.012568444 -0.04265483 0.11797128 -0.019332388 0.08913137 -0.14526992 0.084753685 0.4121022
-0.081661314 -0.03446115 0.024125379 0.007388864 0.010970028 -0.13430457 -0.3595004 -0.07258968
-0.05558097 -0.013927048 0.01100055 -0.36182937 0.027252352 -0.007055933 0.018899007 0.0017031331
-0.041004263 0.041214533 -0.22532675 -0.0660709 -0.05788417 -0.07130084 -0.014075861 0.012132488
-0.025593223 0.01873456 -0.105866015 0.00057649764 -0.35833752 -0.038120147 -0.048105437 0.0061799907
0.054359753 -0.0069350637 -0.03040835 -0.01810818 -0.018800568 -0.20007958 0.070059404 -0.01825237
-0.053001978 0.17470431 -0.048154067 -0.23006153 -0.06472391 -0.2641485 -0.118056834 0.020699875
-0.071463026 -0.19309123 -0.16755691 -0.07931282 -0.15004773 0.016574143 -0.22769912 0.047960814
00000000: 6b49 16bd ba7c 833e 1b14 04bd aba7 d8bc
00000010: 89a6 3ebe 1160 95bd 210e 7dbd a68e b0be
00000020: 4fb7 103e 19d8 133d 1bbc 62bd 3e2d db3d
00000030: 37e2 3f3e 55e1 893c b316 bbbd e9b6 02bd
00000040: a333 7a3e 0fc1 133d dab2 e3bd 1f87 cf3c
00000050: 1b39 9a3b f715 2abd dd36 b2bc cf7c d73d
00000060: 1313 cd3d f75d 35bc 2054 50be aeb5 cc3e
00000070: f312 cdbc 2155 0fbd 63d2 a0bc 43ed a03e
00000080: 1c87 85bd a76b 26be 8813 88be 5cd9 b8be
00000090: dbea bbbd d74a 0f3a 4dfb 05bd 4bf1 713d
000000a0: 855d 8cbc bbd7 eabe 6458 2b3b 6dc8 22bc
000000b0: 996c acbd 3bd7 cbbc 4726 383e 7f8e f43c
000000c0: 68e8 043e 950b 26be e575 023d 9331 96bb
000000d0: efba babe ded0 8e3c d08c b6bc 29e6 a7bd
000000e0: 1aee 8dbd 5977 153e f4ec 85bd 9da9 f3bc
000000f0: badd 603e d17c 85be 7132 2ebd b7e5 1ebd
00000100: 00ee 6c3e 2e30 d73c 0b44 1dbd a244 563e
00000110: cb49 a2bd a3df e43b 6e75 b73d 1690 ad3e
00000120: 2c36 823c 568d 42be bb25 8e3e 7c28 2b3e
00000130: 84a1 66bd dd19 02bd 3543 5f3c c9e4 9dbd
00000140: 3700 3cbe 6804 6bbd b2d8 dfbe 003c d33e
00000150: fbbc d03d bd18 2abe 3015 e63b 3be0 913c
00000160: 8d91 91bd 4f66 2f3e 10c7 da3e 2a09 bf3d
00000170: 9fdd 2cbd 5495 0dbd 31a7 7abd f10b c5bd
00000180: 08c2 b53c c348 693d 4e82 0a3e 1742 8dbd
00000190: cf25 25bd 04b9 aebb 5037 93bc ff56 62bd
000001a0: 3992 a03c 015e 2c3b e4b9 1bbb 5339 edbe
000001b0: cbdc 24be 310c 8cbe cc77 a2bc 431e e5bc
000001c0: 2ca8 993d 3f4f 8d3b 1a02 96be fe7f 79bd
000001d0: 04ae 123c 6151 963e 5594 05bd 64e1 03bd
000001e0: 91c0 4fbd b818 c3bc 012c fd3a b67b 6ebd
000001f0: 978a b3bb da9b b6bc 9512 a6bd 66de 2fbe
00000200: ac75 963e 71d3 4bbe bba9 97be 6aa4 03bd
00000210: 40fd c9bb a13e 8cba 89c7 c7bd 4781 04be
00000220: 2a14 fdbc cdb2 33bd 321c 563c c005 1fbd
00000230: c160 2cbd 7947 ae3c d49d 1abd 5b0c f6bb
00000240: 1752 f9bc 4fb4 f63b 4b56 60be 4169 563c
00000250: b56b fc3d 3b43 ef3c da02 01bd 77d0 8cbc
00000260: 813a b03d 544a 62bd fe17 823d 7183 8b3c
00000270: afac 75be 13ce 233d 148f 6a3c b552 f63d
00000280: 0f29 fabd 5e27 3d3e 1af7 92bc 4f85 6cbd
00000290: ff46 2fbe 9755 8abd 29f4 bd3c 0546 d6be
000002a0: 592a b9bc e5ee 7cbc 0319 a73d c559 913c
000002b0: 708e 56bc 4b05 66bd 2608 cabc 71f0 9dbc
000002c0: 73ee 1bbe c57d 0bbd c7c0 bf3e ef23 c63e
000002d0: be60 ae3d a350 83b8 ff81 b9bc b43f bfbd
000002e0: 2f56 34bd 1064 9cbd 20e2 5ebd 1a53 f5bd
000002f0: 46a2 44bd ae06 993e 4220 d7be 7465 593b
00000300: e0eb 4d3c d5b6 2ebd ed9a f13d f55e 9ebc
00000310: 828a b63d a3c1 14be 5793 ad3d 0fff d23e
00000320: 0c3e a7bd 2327 0dbd 96a2 c53c 491e f23b
00000330: a2bb 333c 2387 09be 7010 b8be e6a9 94bd
00000340: dfa8 63bd 462e 64bc a73b 343c b341 b9be
00000350: 5340 df3c 7535 e7bb 17d2 9a3c aa3b df3a
00000360: 16f4 27bd 92d0 283d 0ebc 66be 2e50 87bd
00000370: f417 6dbd 2d06 92bd 719e 66bc 58c7 463c
00000380: e1a8 d1bc 3879 993c 48d0 d8bd 1a20 173a
00000390: 0478 b7be df23 1cbd 350a 45bd 8581 ca3b
000003a0: 55a8 5e3d 883f e3bb ef1a f9bc 9b57 94bc
000003b0: a603 9abc a9e1 4cbe 4e7b 8f3d ff85 95bc
000003c0: 9a18 59bd b0e5 323e 333d 45bd 4095 6bbe
000003d0: f88d 84bd 793e 87be c8c7 f1bd c992 a93c
000003e0: 355b 92bd b5b9 45be 0a94 2bbe c36e a2bd
000003f0: 1da6 19be 7fc6 873c f529 69be 8f72 443d

l3.weight f4 [6, 300]
0.0050745327 -0.21318819 -0.025917822 -0.006239777 -0.24218857 -0.053438086 -0.05298689 0.0105284415
0.17117245 -0.09757244 0.04301958 -0.17017514 0.28423795 -0.050043207 0.2927167 0.02072527
-0.08747893 0.0027228196 0.03440905 -0.01972181 -0.031284496 0.0053498326 0.079676785 0.26965985
-0.17829226 -0.026777327 0.09811762 0.0048761684 -0.042290736 -0.015342459 -0.042866446 0.08562361
-0.039951697 0.015997846 0.03929685 -0.13921055 -0.027650964 -0.0039617266 0.035881806 -0.04760103
-0.013269465 -0.25378245 0.093388274 -0.051818106 0.02994655 0.03520301 0.20629068 -0.056845892
-0.14093828 0.15055467 0.019606605 -0.03356024 -0.031406946 0.11881962 0.028186122 -0.20544638
-0.03424325 0.32794264 -0.049069636 -0.021073747 -0.3380594 -0.16378307 -0.023896284 -0.028360674
0.106203154 0.029569367 0.05149659 0.050889187 -0.09207335 0.056591604 0.30473205 0.067195944
0.02136668 -0.22964509 0.10150675 0.17622007 -0.04125819 0.038226046 0.020450106 0.18856868
0.031538356 0.023219679 0.007486533 0.34675625 -0.09564266 -0.06199943 -0.0073480387 -0.06735324
0.31421795 0.22371449 0.003316195 0.4222345 -0.037254024 -0.008908798 -0.0827608 -0.24983674
0.04467863 0.0522334 0.0066383784 0.0077556497 0.024669923 -0.014225411 0.007839839 -0.012496537
0.0021551591 -0.059376046 0.00501615 -0.048211757 -0.042821433 -0.19349411 -0.016457062 0.03679014
0.29311687 0.0054529887 0.022503858 0.033333506 0.00448233 -0.2514895 -0.044418145 -0.12891291
-0.028546913 0.0025705216 -0.039008588 0.026719747 0.058610007 0.030736225 -0.011450358 -0.12770213
0.20289882 -0.37288168 0.009836412 0.026520088 0.39371145 0.006552387 0.03877283 -0.053774893
0.12281509 0.023922333 -0.09534753 -0.021847071 -0.024072936 -0.025856989 0.012037736 0.18335621
0.04414582 -0.028118134 0.17495339 -0.07005165 0.012095509 0.04482931 -0.04430759 0.24678782
0.01490776 -0.0045492784 0.06934883 -0.00014037789 0.027273629 -0.109667405 -0.049360115 0.34750617
0.11995825 -0.09670007 0.036070578 0.04917315 0.19251165 -0.07172419 -0.022997068 -0.18710603
-0.036282282 -0.0022718287 0.16606836 -0.1500535 -0.020677546 0.009007287 -0.18188344 -0.051242094
0.0505232 0.05677889 -0.14606427 -0.18045105 -0.09640129 0.01560063 0.019570947 -0.07735985
0.0028124433 -0.035490997 -0.21951702 -0.022810373 0.16167296 0.37680966 -0.15218765 -0.0392744
0.051585343 0.06223246 -0.022034496 0.015072902 0.32722983 0.03335189 -0.024464332 0.15253942
-0.04970779 0.046737816 -0.24239326 -0.0074708746 -0.04648907 -0.03604257 -0.028236967 0.021055795
-0.0040165144 0.0008466979 0.03931096 -0.14041139 -0.04665422 -0.02260573 -0.013500556 -0.01928174
-0.012065575 -0.25757095 -0.17557052 0.031116266 0.0054773022 -0.09493539 -0.02202344 0.0054872483
0.1289186 -0.016015623 -0.03924041 -0.0036466229 -0.20700589 -0.001425119 -0.2104697 -0.052937645
-0.050006554 -0.051552173 -0.06508419 -0.0303313 -0.06264971 -0.1634476 0.012132862 -0.007825242
-0.31411693 0.39682898 0.01774542 0.07957286 -0.004577185 0.18326606 -0.07940012 -0.055506278
-0.00221716 0.087997034 0.2885007 -0.015557328 0.0668316 -0.019028604 -0.014316273 0.08894624
00000000: 4448 a63b 014e 5abe 9d51 d4bc 0b77 ccbb
00000010: 4800 78be e5e1 5abd c808 59bd 7c7f 2c3c
00000020: d547 2f3e 0fd4 c7bd 4d35 303d 6442 2ebe
00000030: a387 913e 1bfa 4cbd f7de 953e 0bc8 a93c
00000040: 2728 b3bd 5571 323b 81f0 0c3d a28f a1bc
00000050: 2c24 00bd a64d af3b 952d a33d db10 8a3e
00000060: 3f92 36be 205c dbbc e4f1 c83d 44c8 9f3b
00000070: 0d39 2dbd f05e 7bbc ba94 2fbd 6e5b af3d
00000080: 64a4 23bd ea0d 833c bcf5 203d 368d 0ebe
00000090: 4684 e2bc 5fd1 81bb cdf8 123d 4cf9 42bd
000000a0: 2c68 59bc c6ef 81be 5a42 bf3d 393f 54bd
000000b0: 7852 f53c 0831 103d dd3d 533e 3dd7 68bd
000000c0: 2052 10be 012b 1a3e 089e a03c 7676 09bd
000000d0: 92a4 00bd b357 f33d 95e6 e63c 8960 52be
000000e0: a642 0cbd 19e8 a73e 3efd 48bd daa2 acbc
000000f0: 1f16 adbe c0b6 27be 24c2 c3bc a554 e8bc
00000100: 0a81 d93d 753b f23c 17ee 523d 2e71 503d
00000110: f490 bcbd 99cc 673d d705 9c3e 079e 893d
00000120: 2d09 af3c 1528 6bbe c5e2 cf3d 0973 343e
00000130: 59fe 28bd ea92 1c3d fb86 a73c 2618 413e
00000140: 5d2e 013d 3237 be3c 9751 f53b 098a b13e
00000150: 4de0 c3bd 1df3 7dbd d1c7 f0bb 7ff0 89bd
00000160: 2de1 a03e 6915 653e 8554 593b 1f2f d83e
00000170: ad97 18bd 35f6 11bc 7f7e a9bd 34d5 7fbe
00000180: f000 373d b1f2 553d c186 d93b 1b23 fe3b
00000190: 9418 ca3c b311 69bc ab72 003c 46be 4cbc
000001a0: 923d 0d3b 4c34 73bd 845e a43b b179 45bd
000001b0: 8765 2fbd 5223 46be f6d0 86bc 42b1 163d
000001c0: 6a13 963e fcae b23b 035a b83c b788 083d
000001d0: 82e0 923b 3bc3 80be cdef 35bd bf01 04be
000001e0: 37db e9bc 3276 283b 78c7 1fbd 5fe3 da3c
000001f0: 0c11 703d 89ca fb3c 489a 3bbc 59c4 02be
00000200: b5c4 4f3e 59ea bebe e728 213c a840 d93c
00000210: 8c94 c93e 68b5 d63b 42d0 1e3d 1043 5cbd
00000220: 7a86 fb3d c5f8 c33c 9145 c3bd a1f8 b2bc
00000230: 9b34 c5bc 09d2 d3bc ed39 453c bbc1 3b3e
00000240: 3fd2 343d 0058 e6bc fb26 333e 3d77 8fbd
00000250: 3e2c 463c f09e 373d e07b 35bd f2b5 7c3e
00000260: ad3f 743c 1d12 95bb c206 8e3d 6732 13b9
00000270: f26c df3c 4e99 e0bd d52d 4abd 54ec b13e
00000280: acac f53d b00a c6bd bebe 133d c969 493d
00000290: c621 453e 22e4 92bd 5964 bcbc b998 3fbe
000002a0: bb9c 14bd f6e2 14bb d30d 2a3e a0a7 19be
000002b0: f563 a9bc 4d93 133c a73f 3abe 3be3 51bd
000002c0: 6af1 4e3d fb90 683d df91 15be 29c8 38be
000002d0: 0a6e c5bd c999 7f3c 4053 a03c d76e 9ebd
000002e0: f850 383b 025f 11bd 12c9 60be d2dc babc
000002f0: 998d 253e 32ed c03e 14d7 1bbe 31de 20bd
00000300: 274b 533d 77e7 7e3d b081 b4bc 55f4 763c
00000310: ab8a a73e fe9b 083d 6c69 c8bc 4b33 1c3e
00000320: 659a 4bbd 2770 3f3d f035 78be 3dce f4bb
00000330: 536b 3ebd 60a1 13bd 3651 e7bc 347d ac3c
00000340: f79c 83bb eff4 5d3a 8704 213d 01c8 0fbe
00000350: 7f18 3fbd a72f b9bc 7031 5dbc bdf4 9dbc
00000360: b1ae 45bc 57e0 83be c2c8 33be 8ae7 fe3c
00000370: f17a b33b 7c6d c2bd 806a b4bc 60ce b33b
00000380: 3d03 043e 3233 83bc 8dba 20bd 2efc 6ebb
00000390: 5af9 53be 0fcb baba 5e85 57be 25d5 58bd
000003a0: acd3 4cbd 5f28 53bd dc4a 85bd 5979 f8bc
000003b0: 7e4e 80bd cf5e 27be e9c8 463c 7235 00bc
000003c0: efd3 a0be 2b2d cb3e d85e 913c 18f7 a23d
000003d0: 36fc 95bb 19aa 3b3e 889c a2bd 8d5a 63bd
000003e0: c64d 11bb ca37 b43d 5db6 933e 2ae4 7ebc
000003f0: 02df 883d e0e1 9bbc cd8e 6abc 7229 b63d

l3.bias f4 [6]
0.10459219 -0.2478864 -0.03982634 -0.018932931 0.054749135 -0.091572665
00000000: 6e34 d63d efd5 7dbe f220 23bd 3c19 9bbc
00000010: a140 603d 738a bbbd
