average data/Average_TD3_20_Peg-in-hole-triple_assembly_seed_1/_actor.pth (torch_old, 510312 bytes, 6 tensors)

l1.weight f4 [400, 12]
0	0x3faf544a	1.3697598
1	0xbccb8be4	-0.024846978
2	0x3e814877	0.252506
3	0x3f18116c	0.59401584
4	0xbf3f0653	-0.74619025
5	0x3eec74d8	0.46182895
6	0xbdd4a8f7	-0.1038379
7	0x3ec8a37b	0.39187226
8	0x3dbc6baa	0.09200223
9	0xbf8fd079	-1.1235496
10	0xbf90b889	-1.1306316
11	0xbf27c3bd	-0.6553305
12	0x3f1a08e2	0.60169804
13	0x3da133e6	0.07871227
14	0x3e01895b	0.12650053
15	0x3d87a99a	0.06624146
16	0xbdf5aedc	-0.119962424
17	0x3f365ada	0.7123238
18	0x3f0b730b	0.54472417
19	0x3f23800f	0.63867277
20	0xbdd4baaf	-0.103871696
21	0xbf0f6c58	-0.56024694
22	0xbea9a073	-0.33130226
23	0x3c6fbd31	0.014632509
24	0xbf45c4a6	-0.77253187
25	0xbe6605ee	-0.224632
26	0x3ee8ac42	0.45443922
27	0x3eb9bf56	0.3627879
28	0xbe0ddaa8	-0.13852942
29	0xbeb28602	-0.34867865
30	0xbcc5e694	-0.0241578
31	0x3e742263	0.23841242
32	0x3e6bffaa	0.23046747
33	0xbf9bb54c	-1.2164702
34	0xbe73fb36	-0.23826298
35	0xbf244ffe	-0.6418456
36	0x3ef18101	0.47168735
37	0xbdc252a2	-0.09488417
38	0x3e2ddded	0.16979189
39	0xbe883f14	-0.26610625
40	0x3d558436	0.05212804
41	0xbe9d7b45	-0.3075811
42	0x3ed4f73c	0.41594875
43	0xbef1c4f8	-0.47220588
44	0x3de7af91	0.113127835
45	0x3eb807f6	0.35943574
46	0xbdbc1246	-0.09183173
47	0x3f38ba2a	0.72159064
48	0xbed7d1a6	-0.42152137
49	0x3ef47513	0.4774557
50	0xbcf02a0d	-0.029316926
51	0xbd05ac3a	-0.03263495
52	0xbf479744	-0.7796519
53	0xbeb6f753	-0.35735568
54	0x3cb41024	0.021980353
55	0x3f02e6c5	0.51133376
56	0xbe075f4d	-0.13219948
57	0xbf7245fe	-0.9463805
58	0x3ee37c0b	0.44430575
59	0x3f64505d	0.89185125
60	0xbe3f1576	-0.1866053
61	0x3e4001ee	0.18750736
62	0x3e337618	0.17525518
63	0x3e8315a6	0.25602454
64	0xbe25b40b	-0.16181962
65	0xbd42a1e0	-0.047517657
66	0xbbb73e80	-0.0055921674
67	0x3d2cb348	0.042163163
68	0xbe6056ba	-0.21908084
69	0xbe51c449	-0.20485033
70	0x3e20cf40	0.1570406
71	0xbd8aa21a	-0.067692
72	0x3f7a5408	0.9778447
73	0xbe48341d	-0.1955113
74	0x3e0f1123	0.13971381
75	0xbda45263	-0.080235265
76	0x3e955b44	0.29171193
77	0x3fc2efcb	1.5229429
78	0xbe9af88e	-0.30267757
79	0x3ed53e0a	0.41648895
80	0xbec40441	-0.38284495
81	0x3edd6110	0.43238115
82	0xbe6cf08b	-0.23138635
83	0xbf91831a	-1.1368134
84	0x3e838aeb	0.25691923
85	0x3ef3220c	0.47486913
86	0x3e18042c	0.14845341
87	0xbf115e41	-0.56784445
88	0x3e3d719a	0.18500367
89	0x3f85d0d5	1.0454355
90	0xbed43162	-0.41443926
91	0xbebe3d58	-0.37156177
92	0x3de0d62b	0.10978349
93	0xbf0b50f4	-0.544204
94	0xbf911d86	-1.1337135
95	0xbed353bc	-0.41274822
96	0xbfc8cf82	-1.5688326
97	0xbd6d6743	-0.057959806
98	0x3d0f9ace	0.035059743
99	0xbe5dd8de	-0.2166476
100	0x3f8823ee	1.0635965
101	0xbe002bc3	-0.12516694
102	0x3f3452a8	0.70438623
103	0xbdfc488f	-0.12318527
104	0xbf1e7521	-0.61897475
105	0xbf69f205	-0.9138492
106	0x3f66fbe4	0.90228105
107	0xbd104d44	-0.035229936
108	0xbeca8c2c	-0.39560068
109	0xbe758901	-0.23978044
110	0x3ede578d	0.4342617
111	0x3f0347d1	0.5128146
112	0x3f3ff712	0.74986374
113	0xbee80460	-0.45315838
114	0xbe66200e	-0.22473165
115	0x3e024f3a	0.12725535
116	0x3d3bd064	0.045853034
117	0x3f9a0b99	1.2034789
118	0xbed66f3b	-0.41881737
119	0x3e7dcca1	0.24785091
120	0xbf0117f0	-0.5042715
121	0x3efce133	0.49390563
122	0x3ef84369	0.4848893
123	0xbf1e474d	-0.61827546
124	0xbeb66860	-0.35626507
125	0xbe16a4b2	-0.14711264
126	0xbf169d8c	-0.5883415
127	0x3d40640f	0.046970423
128	0x3e12616e	0.14294979
129	0x3afcf69b	0.0019299568
130	0x3e638504	0.2221871
131	0x3ea50bfc	0.32235706
132	0x3ea5bcb5	0.32370535
133	0x3f25190e	0.64491355
134	0xbbe22e3b	-0.0069024838
135	0xbea08dd6	-0.31358212
136	0x3eb2b77e	0.34905618
137	0x3ef8f396	0.4862334
138	0xbe9b4057	-0.30322525
139	0xbf54208d	-0.8286217
140	0x3c1e0249	0.0096440995
141	0xbeaf4808	-0.34234643
142	0xbe9834ea	-0.2972787
143	0xbd9ff5e6	-0.07810573
144	0xbf1c6c4d	-0.61102754
145	0xbe1ca26e	-0.15296337
146	0x3e9d06a1	0.3066912
147	0x3ea0e568	0.31425023
148	0x3f703ef8	0.9384608
149	0x3f3b3692	0.7313014
150	0xbd3b1225	-0.0456716
151	0x3e2f7625	0.17134912
152	0x3df3351b	0.118753634
153	0x3fc893a9	1.5670062
154	0xbfc01ede	-1.500942
155	0xbf67fbaa	-0.90618384
156	0xbe2cb148	-0.16864502
157	0xbdfcdf66	-0.12347297
158	0x3e522a3c	0.20523924
159	0xbdc131f4	-0.09433356
160	0xbe5ce618	-0.21572149
161	0x3de37778	0.11106771
162	0x3dbd4950	0.09242499
163	0x3e3f75a2	0.18697217
164	0xbe18f76c	-0.14938134
165	0x3d802eb8	0.06258911
166	0xbdd73aaa	-0.10509236
167	0xbd84d446	-0.064858004
168	0xbf62e364	-0.8862822
169	0x3e2ab366	0.16669998
170	0x3df29207	0.11844259
171	0x3e3711cc	0.17877883
172	0xbefbecae	-0.4920401
173	0xbf5b170f	-0.8558206
174	0x3e83f87e	0.25775522
175	0x3edbef2b	0.42955908
176	0x3e2dcd9e	0.16972968
177	0xbec75062	-0.38928515
178	0xbf11bc3b	-0.5692784
179	0x3f53d9f9	0.82754475
180	0xbf85ff79	-1.0468589
181	0x3e8eda39	0.27900866
182	0x3e884598	0.26615596
183	0xbe957899	-0.2919357
184	0xbd2ac582	-0.041692264
185	0x3dc2a67a	0.09504409
186	0xbee5d07a	-0.44885617
187	0xbefbe478	-0.49197745
188	0xbda3c8da	-0.07997294
189	0x3d7b33d3	0.06132872
190	0x3daa2dfd	0.08309553
191	0xbe39b57a	-0.18135634
192	0xbf1cc85b	-0.6124322
193	0xbe647671	-0.22310807
194	0x3f0bb774	0.545768
195	0x3c74c474	0.014939416
196	0xbd04d21d	-0.032426942
197	0xbdf01d6e	-0.11724363
198	0x3edb4966	0.42829436
199	0x3d878b4a	0.06618364
200	0x3e152cb7	0.14567839
201	0xbf174417	-0.5908827
202	0x3e90c910	0.282784
203	0xbeeb4cbc	-0.4595698
204	0x3f937120	1.1518898
205	0x3eab26b3	0.33427963
206	0x3d4a9994	0.04946287
207	0xbec822cd	-0.3908905
208	0xbb8f1191	-0.0043661078
209	0x3f4f4dcb	0.8097808
210	0xbe28051c	-0.16408199
211	0x3f467bba	0.7753254
212	0xbeaf33f6	-0.3421933
213	0x3f03bc99	0.5145965
214	0x3f55d3b8	0.8352618
215	0x3f7e8017	0.994142
216	0x3f7ee20b	0.99563664
217	0xbc34952d	-0.011021894
218	0x3c72a8a0	0.014810711
219	0xbe8f6cd1	-0.28012708
220	0xbe8500e5	-0.25977245
221	0x3d021a3e	0.031763308
222	0xbf105afe	-0.56388843
223	0xbf62c8cb	-0.88587636
224	0x3c96accf	0.018392948
225	0x3ecd2cba	0.40073186
226	0x3c3296c7	0.010900206
227	0xbf045ce1	-0.5170422
228	0x3d1b47ac	0.03791015
229	0x3fa2da2d	1.2722832
230	0xbd192916	-0.0373927
231	0xbfe68a73	-1.8011001
232	0xbeea1dbf	-0.4572582
233	0x3f8ee4b2	1.1163542
234	0x3e8c3410	0.2738347
235	0xbf29d392	-0.66338456
236	0xbf4886f5	-0.7833093
237	0xbe730a51	-0.23734404
238	0x3d1fca58	0.03901133
239	0xbf1ab763	-0.60436076
240	0xbe787c36	-0.24266133
241	0xbee3e336	-0.44509286
242	0x3c7376b2	0.014859842
243	0x3e9e8bef	0.30966136
244	0xbd0c60d8	-0.034272045
245	0xbf2e97cf	-0.6820039
246	0xbeab3032	-0.33435208
247	0xbe947b64	-0.2900039
248	0xbe30946b	-0.17244117
249	0xbe17caa5	-0.14823397
250	0x3f03539a	0.5129944
251	0x3ea5073b	0.3223208
252	0x3f438b57	0.7638449
253	0x3ea94a4e	0.33064502
254	0x3e2140f3	0.15747432
255	0xbe32f882	-0.1747761

l1.bias f4 [400]
0	0x3ec361b9	0.38160494
1	0x3df27850	0.11839354
2	0x393b6ba4	0.00017873809
3	0xbe8b0e0a	-0.27159148
4	0xbfa70ef7	-1.3051442
5	0x3dc1f900	0.09471321
6	0x3f2c9c89	0.67426354
7	0xbd719ac7	-0.058985498
8	0x3f2c9e42	0.6742898
9	0x3de10acd	0.10988388
10	0xbe3a8494	-0.18214637
11	0xbb3f9def	-0.0029238423
12	0x3e1c8166	0.15283737
13	0x3d18c1c8	0.03729418
14	0xbf89567b	-1.0729517
15	0xbed7a2c8	-0.4211638
16	0xbe621ca0	-0.22081232
17	0x3eef0a45	0.46687523
18	0xbe029cda	-0.12755147
19	0xbd9d0070	-0.07666099
20	0x3e81a22e	0.25319046
21	0xbee1b86e	-0.4408602
22	0x3e070291	0.13184573
23	0xbde707be	-0.112807736
24	0xbdfa30b0	-0.12216318
25	0x3e839eb7	0.25707027
26	0xbe2afd7c	-0.16698259
27	0xbe6244dd	-0.22096582
28	0x3e90e2be	0.2829799
29	0xbf0f5b58	-0.55998755
30	0x3e8747ca	0.26421958
31	0x3e296abc	0.16544622
32	0x3df84590	0.12122643
33	0x3e5fdab8	0.21860778
34	0xbf277ac2	-0.6542169
35	0xbec1816b	-0.3779405
36	0xbe7ceab8	-0.24698913
37	0xbe889c06	-0.26681536
38	0x3d5d8862	0.054085143
39	0x3ddb3a71	0.10704506
40	0x3e2e5d53	0.17027788
41	0xbdea20fe	-0.11432074
42	0x3f0ea8b7	0.5572619
43	0x3edc490e	0.43024486
44	0x3d85b223	0.065281175
45	0x3e86d205	0.26332107
46	0xbe67fed4	-0.22655803
47	0xbfc6103d	-1.5473706
48	0x3e62e7ba	0.22158709
49	0x3ef2e763	0.4744216
50	0x3da67818	0.08128375
51	0xbef81dea	-0.48460323
52	0xbf36c99a	-0.7140137
53	0xbede40d5	-0.43408838
54	0x3c2ffb67	0.010741091
55	0x3e93a55b	0.28837094
56	0xbee1f578	-0.4413259
57	0x3d46ba04	0.048517242
58	0x3e21cd39	0.15800942
59	0x3f6ffbdb	0.93743676
60	0xbdd32ef9	-0.10311694
61	0x3e10337a	0.14082137
62	0xbdfc8548	-0.12330109
63	0x3fbbfdae	1.4686792
64	0xbf13c79b	-0.5772645
65	0xbeccec0f	-0.40023848
66	0xbe2f090c	-0.17093295
67	0x3e955f83	0.29174432
68	0x3e70287c	0.23452944
69	0xbeb71cd9	-0.35764197
70	0xbf38e37f	-0.7222213
71	0xbecede2e	-0.40403885
72	0xbeea11f5	-0.45716825
73	0xbf4926c2	-0.78574765
74	0xbe382936	-0.1798447
75	0x3f5c0795	0.8594907
76	0xbeedb2a9	-0.4642537
77	0x3eab0bf8	0.3340757
78	0xbefc04b3	-0.49222335
79	0xbee3c0e4	-0.444831
80	0xbed8d6cd	-0.4235138
81	0xbf528cac	-0.822459
82	0xbf3d8e73	-0.74045485
83	0x3f15023c	0.58206534
84	0xbe8a5c90	-0.27023745
85	0x3f3d49d4	0.7394078
86	0xbc067e20	-0.0082087815
87	0xbee19a49	-0.44063023
88	0x3e621bdc	0.2208094
89	0xbdce1f43	-0.100645564
90	0x3d98c3ad	0.07459197
91	0xbc48ea53	-0.0122628985
92	0x3d8d6245	0.06903509
93	0xbeaf1a41	-0.34199718
94	0x3d999df4	0.0750083
95	0x3c2fe376	0.010735383
96	0xbe25f623	-0.16207175
97	0xbe93e1d4	-0.2888323
98	0xbf1b2f88	-0.606194
99	0x3eae60ac	0.3405813
100	0xbd7bf21c	-0.06151019
101	0x3e38e767	0.18057023
102	0xbf3f97a1	-0.7484074
103	0x3f12b936	0.5731386
104	0xbe8073f2	-0.2508846
105	0xbeda2a66	-0.42610472
106	0x3edf331d	0.43593684
107	0xbee2c1d4	-0.44288504
108	0xbe6731b8	-0.2257756
109	0x3e8f44c5	0.27982154
110	0x3ed6b49e	0.41934675
111	0x3e9de161	0.30836013
112	0xbe1f2727	-0.15542279
113	0xbecbb76d	-0.3978838
114	0xbfc095f9	-1.5045768
115	0xbf6c5906	-0.9232334
116	0xbf0d7309	-0.55253655
117	0xbd616570	-0.05502838
118	0x3e768d4c	0.24077338
119	0x3ecfd277	0.4059026
120	0x3ccd4d30	0.02506122
121	0x3f5059f3	0.8138725
122	0xbea6f527	-0.3260891
123	0xbf413c30	-0.75482464
124	0x3e8132f9	0.25234202
125	0xbef804cd	-0.48441163
126	0x3db4db66	0.088309094
127	0x3e777c8f	0.24168609
128	0x3e8913b4	0.26772845
129	0xbea59e33	-0.3234726
130	0xbea309d6	-0.31843442
131	0xbf662e8e	-0.89914787
132	0xbf3053a1	-0.6887761
133	0x3b38b8ad	0.0028186247
134	0x3e118bff	0.1421356
135	0xbedac3f8	-0.42727637
136	0xbf85340e	-1.0406511
137	0xbf49dd2b	-0.788531
138	0xbf32dedc	-0.69871306
139	0xbed34014	-0.41259825
140	0xbe08766f	-0.13326429
141	0x3e2b7b4c	0.16746253
142	0x3df00cab	0.11721166
143	0xbda7bb90	-0.081900716
144	0xbf3c9f5b	-0.7368066
145	0xbe376b54	-0.17912036
146	0xbed56733	-0.41680297
147	0xbe7bcfbb	-0.24590962
148	0xbe497f87	-0.19677554
149	0xbf6ab339	-0.9167972
150	0x3f7962ba	0.9741627
151	0x3d749b21	0.059718255
152	0xbea46d9f	-0.32114884
153	0x3e7a1994	0.2442382
154	0xbe93c316	-0.28859776
155	0xbf3c6dca	-0.73605025
156	0xbf2618a0	-0.64881325
157	0xbf80c740	-1.0060806
158	0xbf154006	-0.58300817
159	0xbf1e8448	-0.61920595
160	0x3eb108f4	0.34577143
161	0xbdc354f4	-0.09537688
162	0x3f3d34b0	0.7390852
163	0xbe996dd2	-0.299666
164	0xbe9351d0	-0.28773355
165	0xbe9f01b1	-0.31055978
166	0x3d882294	0.0664722
167	0xbf463884	-0.77429986
168	0x3d02c16a	0.031922735
169	0xbf2f379d	-0.68444234
170	0xbeaa8db6	-0.33311242
171	0x3d313b00	0.043269157
172	0xbe60ccfc	-0.21953195
173	0x3e2e5f17	0.17028461
174	0xbf036401	-0.5132447
175	0x3e0ac849	0.13552965
176	0xbe1f5468	-0.15559542
177	0xbf2a6f23	-0.6657583
178	0xbe5fa70f	-0.21841072
179	0xbf4592c3	-0.77177066
180	0xbe90f317	-0.28310463
181	0x3f166a1c	0.5875566
182	0xbeaa672d	-0.33281842
183	0xbef7d00e	-0.4840092
184	0xbed4a98f	-0.41535613
185	0xbe1c453c	-0.15260786
186	0xbef5defd	-0.4802169
187	0xbe595e36	-0.21227345
188	0x3ef0b87b	0.47015747
189	0x3ed3c3d9	0.41360357
190	0xbefae1b8	-0.49000335
191	0xbe323bb4	-0.17405587
192	0xbdb446be	-0.088025555
193	0xbef10389	-0.4707301
194	0xbed1a298	-0.40944362
195	0xbf621fcc	-0.8832977
196	0x3e75ac28	0.23991454
197	0xbe89e55b	-0.26932797
198	0x3d907faa	0.070556
199	0xbd85bd9a	-0.06530304
200	0xbe8bdfb4	-0.2731911
201	0xbd2907cf	-0.041267212
202	0xbe641ee1	-0.22277404
203	0xbd39ad75	-0.045331437
204	0xbea1b2d9	-0.31581762
205	0xbda4902a	-0.080353096
206	0x3f41ceb1	0.7570601
207	0xbd7db629	-0.0619413
208	0xbf8b9b7c	-1.0906825
209	0x3ed7b1a5	0.4212772
210	0x3f23a02c	0.6391628
211	0xbf1d1d46	-0.6137279
212	0xbf8e2032	-1.1103575
213	0x3ee58c50	0.44833612
214	0x3db4047a	0.08789916
215	0xbe383444	-0.17988688
216	0xbea0add0	-0.31382608
217	0x3ed9a66d	0.42509785
218	0x3ed517e5	0.41619793
219	0x3d0a23e8	0.03372565
220	0x3f4b9ef2	0.79539406
221	0xbf746a1c	-0.9547441
222	0xbf1a9646	-0.6038555
223	0xbf642cb2	-0.891307
224	0xbf09a842	-0.53772366
225	0xbd870f53	-0.0659472
226	0x3f074946	0.5284618
227	0x3e952818	0.29132152
228	0xbf3293c9	-0.6975675
229	0x3e1365e8	0.14394343
230	0x3deb9a60	0.11504054
231	0xbd488b5a	-0.04896102
232	0x3e419476	0.1890429
233	0xbe702330	-0.23450923
234	0x3ed7ff90	0.42187166
235	0xbd57b730	-0.052664936
236	0x3e1cf180	0.153265
237	0x3f410906	0.75404394
238	0x3e022c05	0.12712105
239	0x3e868c6e	0.26279014
240	0xbe66bfd7	-0.22534119
241	0x3dce5ff4	0.10076895
242	0xbf2465c6	-0.64217794
243	0xbe8f8744	-0.28032887
244	0xbf3ac603	-0.7295839
245	0x3b740894	0.0037236558
246	0xbf7793f4	-0.96710134
247	0xbef91fca	-0.48657066
248	0x3d998c34	0.07497445
249	0x3e88a0c1	0.26685145
250	0x3e3c5bee	0.18394443
251	0x3f220366	0.63286436
252	0xbe1bdb24	-0.15220314
253	0xbf0fb22a	-0.5613123
254	0xbf23d7b5	-0.6400102
255	0x3f234f3f	0.63792795

l2.weight f4 [300, 400]
0	0x3d283b84	0.041072384
1	0x3ceab7b1	0.028652044
2	0xbcfd293b	-0.03090345
3	0x3d049bf1	0.03237528
4	0x3c42be7e	0.011886237
5	0xbcca58a7	-0.024700476
6	0xbd4b99a7	-0.04970708
7	0x3c40e2e6	0.011772847
8	0x3b055c4d	0.0020349205
9	0x3b3a2dfb	0.0028408754
10	0xbb244140	-0.0025063306
11	0xbc81f510	-0.015863925
12	0xbd4f41de	-0.050599925
13	0x3c07ca28	0.008287944
14	0xbd729ac1	-0.059229616
15	0xbd1ba257	-0.037996616
16	0xbd7139d4	-0.05889304
17	0xbd478843	-0.048713934
18	0xbc6b904b	-0.014377664
19	0x3c9387f6	0.018009167
20	0xbd011768	-0.031516463
21	0xbcf95a49	-0.03043856
22	0x3c8992e2	0.016793672
23	0x39ecddab	0.00045178583
24	0xbd2066be	-0.039160483
25	0xbb9127ce	-0.004429794
26	0xbd42e5d8	-0.047582477
27	0x3d08645a	0.033298828
28	0x3c138417	0.009003661
29	0x3b16fa65	0.002303743
30	0x3ce4fab9	0.027951585
31	0xbb58bcd0	-0.0033071525
32	0xbd48569b	-0.04891072
33	0xbd013a5d	-0.0315498
34	0xbd4c0a22	-0.04981435
35	0xbdb199bd	-0.086719014
36	0xbd367f30	-0.04455489
37	0xbb8e7abd	-0.0043481276
38	0x3cb29692	0.021800313
39	0xbceb5e75	-0.028731564
40	0xbc1c9a59	-0.009558284
41	0x3ba04028	0.0048904605
42	0xbc2f0bdc	-0.01068398
43	0x3cb7b785	0.022426376
44	0xb9154d09	-0.00014238445
45	0xbd3a29ef	-0.045450147
46	0x3d1f5332	0.0388977
47	0xbcddfb87	-0.027097477
48	0xbcf6cf82	-0.030128244
49	0x3c295bfb	0.010336871
50	0xbcfe6ce3	-0.03105778
51	0xbc7ff31c	-0.015621927
52	0xbc879df6	-0.016554814
53	0xbd58ba7a	-0.052912213
54	0x3ceb0d97	0.028693004
55	0x3cd188e4	0.02557797
56	0xbd844ee1	-0.064603575
57	0xbbf84758	-0.007576864
58	0x3c113f38	0.00886517
59	0x3cacd35a	0.021096874
60	0x3c4593aa	0.012059132
61	0xbb974c90	-0.0046172813
62	0x3d0d7a70	0.034540594
63	0xbc94f06c	-0.018181048
64	0xbb9c49e9	-0.004769553
65	0xbd4159c9	-0.047204766
66	0xbceb860a	-0.028750438
67	0xbd39975b	-0.04531036
68	0xbd5afb3b	-0.05346225
69	0xbc82ae05	-0.01595212
70	0xbcbbe8db	-0.022938183
71	0xbd3176a7	-0.043326046
72	0xbda1dfc7	-0.0790401
73	0x3bac3e5b	0.005256457
74	0xbcb28c2a	-0.021795351
75	0xbd351fef	-0.044219907
76	0xbd873733	-0.06602325
77	0xbcc09ab7	-0.023511274
78	0xbd698b33	-0.057017516
79	0xbc82959a	-0.015940476
80	0xbcfbe529	-0.03074892
81	0xbd4e1f93	-0.05032308
82	0xbc8d4783	-0.017246014
83	0xbcc39000	-0.023872375
84	0x3d056c83	0.032574188
85	0xbd634c4e	-0.05549269
86	0x3d334b87	0.0437732
87	0x3c94e60c	0.018176101
88	0xbcaf19a7	-0.021374537
89	0x3d0da9f3	0.034585904
90	0x3d3fc68f	0.04682022
91	0xbb8aeced	-0.0042396695
92	0x3c639a84	0.01389182
93	0xbcad6ea2	-0.021170918
94	0xbc549686	-0.012975341
95	0xbb1d01a0	-0.0023957267
96	0xbd04f489	-0.03245977
97	0x3937ada4	0.00017516926
98	0xbceefcce	-0.029173281
99	0x3c8575ff	0.016291616
100	0x3bfb7fa8	0.00767513
101	0xbd1eb6ad	-0.038748432
102	0xbb2a4cab	-0.002598564
103	0xbc6e9129	-0.014560976
104	0x3cc3296e	0.023823466
105	0xbd67c1d6	-0.05658134
106	0x3d1213c1	0.03566337
107	0x3bc0aaff	0.0058797593
108	0xbb808880	-0.003922522
109	0xbd8b5376	-0.06803028
110	0xbbc5184f	-0.0060148607
111	0x3c391e29	0.011298695
112	0x3bf7bf00	0.007560611
113	0xbb91c7c0	-0.004448861
114	0xbd5b8ad0	-0.05359918
115	0xbdba47be	-0.09095715
116	0x3c3d016e	0.011535985
117	0x3d2cf00b	0.04222111
118	0xbb92fd29	-0.0044857454
119	0x3c63cca6	0.013903772
120	0x3d126b3b	0.035746794
121	0x3c167aac	0.009184521
122	0xbd0db117	-0.034592714
123	0xbcd34464	-0.025789447
124	0xbcd60c5d	-0.026128942
125	0xbcbd15e7	-0.023081733
126	0x3d4097b5	0.04701968
127	0xbd130515	-0.03589352
128	0xbd23ae46	-0.039961122
129	0x3cee6f0a	0.029105682
130	0xbcab50a0	-0.020912468
131	0xbd054eaf	-0.03254574
132	0xbd317251	-0.04332191
133	0x3cdc6e61	0.026908102
134	0xbd4c3966	-0.049859427
135	0xbc8e7bc1	-0.017392995
136	0xbc567cc6	-0.013091272
137	0xbd6e0904	-0.058114067
138	0xbd560f6e	-0.05226081
139	0xba6c5bb1	-0.00090163486
140	0xbd066cc9	-0.03281859
141	0xbcdc3a1b	-0.026883176
142	0x3c9bf50f	0.019037751
143	0xbdbb5ee1	-0.09148956
144	0x3cea629d	0.028611476
145	0x3c001005	0.007816319
146	0x3cde4bdf	0.027135788
147	0xbb09efd9	-0.0021047501
148	0xbd9d4f78	-0.07681173
149	0xbcdbb915	-0.026821652
150	0xbd02ae5b	-0.03190456
151	0xbbe64d70	-0.0070282742
152	0xbdaa5880	-0.08317661
153	0xbcfbbfed	-0.030731166
154	0xbc924fe6	-0.017860364
155	0xbc097565	-0.008389805
156	0xbcafa3ac	-0.02144035
157	0x3b21876a	0.0024647363
158	0xbd0c7af5	-0.03429695
159	0xbd3df061	-0.04637182
160	0xbd15533b	-0.036456328
161	0x3d15e692	0.036596842
162	0x3c59e4de	0.013299195
163	0xbd5a86c1	-0.053351168
164	0xbd515261	-0.051103953
165	0xbd2f1c7c	-0.042751774
166	0xbd104ec4	-0.035231367
167	0x3c1a923f	0.009434282
168	0xbd6f63f7	-0.058444943
169	0x3c00bd1d	0.007857588
170	0xbd743683	-0.0596223
171	0xbd1f22fa	-0.038851716
172	0xbb99b718	-0.004691016
173	0x3d1d75d7	0.03844246
174	0x3cfbd8d8	0.030743048
175	0xbd318113	-0.043335985
176	0xbd3b95c6	-0.045797132
177	0x3b3959c6	0.002828227
178	0x3b4252e0	0.0029651448
179	0xbd3af65a	-0.045645095
180	0x3ba11fbe	0.004917114
181	0x3a3cfd80	0.00072094053
182	0xbc8357c5	-0.016033063
183	0x3d172f1e	0.03691017
184	0xbc839beb	-0.016065558
185	0xbd1f0217	-0.038820352
186	0xbb4ff480	-0.0031731427
187	0x3d032d50	0.032025635
188	0xbcc2687f	-0.023731468
189	0xbcfb9d2e	-0.030714598
190	0xbce22f56	-0.027610462
191	0x3c81119b	0.015755465
192	0x3d18b029	0.037277374
193	0xbd2eee22	-0.04270757
194	0x3d04a41d	0.032383073
195	0xbc4fc893	-0.012682098
196	0x3c75587c	0.01497471
197	0xbcc2b28e	-0.023766782
198	0xbc816730	-0.015796274
199	0x3cae87f7	0.021305067
200	0xba85c464	-0.0010205624
201	0x3cf92a85	0.030415783
202	0xbd24b8a5	-0.040215153
203	0xbd663073	-0.05619855
204	0xbc75965c	-0.014989462
205	0x3ca5f278	0.02025722
206	0xbbfd9b9c	-0.0077394973
207	0xbc3c4032	-0.011489915
208	0xbd49e649	-0.049291883
209	0xbd131a52	-0.035913773
210	0x3c317dc7	0.01083321
211	0xbd004362	-0.03131426
212	0x3c5849a7	0.013201154
213	0x3b8f927d	0.0043814764
214	0x3ce2f666	0.027705383
215	0x3c8ec9ab	0.017430147
216	0x3cbba485	0.022905597
217	0xbdaba91d	-0.08381865
218	0xbcedd94b	-0.029034277
219	0x3d197c45	0.03747203
220	0xbce3a729	-0.02778967
221	0xbd15be6b	-0.03655855
222	0xbcca0dfe	-0.024664875
223	0xbc46ef7a	-0.012142057
224	0xbd37bc96	-0.044857584
225	0xbcc18a45	-0.023625502
226	0xbcb4a991	-0.022053512
227	0x3d3c1897	0.04592189
228	0xbbc7c5ef	-0.0060965936
229	0xbc6b4820	-0.014360458
230	0x3d0192d5	0.03163417
231	0xbcf4f399	-0.029901313
232	0x3bbd102d	0.0057697506
233	0xbc232dfb	-0.009959693
234	0xbd16f288	-0.03685239
235	0x3cefbb6a	0.02926417
236	0xbd89d59d	-0.067301966
237	0xbc386022	-0.011253389
238	0x3cafa0b2	0.02143893
239	0xbc8e0d29	-0.01734026
240	0xbc9dcad7	-0.01926176
241	0x3acee2ce	0.0015784146
242	0xbd43d5f1	-0.047811452
243	0xbb9c83e0	-0.004776463
244	0xbd77eca4	-0.060528412
245	0x3cb87bd2	0.02251998
246	0x3d295258	0.041338295
247	0xbd476a54	-0.048685387
248	0xbd5b1454	-0.053486183
249	0xbbb37618	-0.0054767244
250	0xbcd35137	-0.025795562
251	0x3b793189	0.003802391
252	0xbb117cbb	-0.002219959
253	0xbd5fdddc	-0.05465494
254	0xbd15cdcb	-0.036573213
255	0xbce73cf5	-0.028227309

l2.bias f4 [300]
0	0xbdcaac1e	-0.0989611
1	0xbe094efa	-0.13409033
2	0xbd93aba7	-0.072104745
3	0xbe38d0e7	-0.1804844
4	0xbdf6abc7	-0.12044483
5	0xbd5b7033	-0.0535738
6	0xbda78a9f	-0.08180737
7	0xbe7b79f5	-0.24558242
8	0xbd271c21	-0.04079831
9	0x3cb402c5	0.021973977
10	0x3d8e49dd	0.06947682
11	0xbb4651a8	-0.0030261073
12	0xbd5b141e	-0.053485982
13	0xbe87946a	-0.26480418
14	0x3e804de4	0.25059426
15	0xbda3e687	-0.08002954
16	0xbe492e3f	-0.19646548
17	0xbdfbe9de	-0.12300466
18	0xbf545d07	-0.8295445
19	0x3ede720f	0.43446395
20	0x3e1c6136	0.15271458
21	0xbd80af4a	-0.06283434
22	0xbda75252	-0.08169998
23	0xbe4e39c5	-0.20139225
24	0xbb167c58	-0.0022962298
25	0x3ead75f4	0.33879054
26	0xbcec724b	-0.028863093
27	0xbd05d99b	-0.032678228
28	0x3e2900e8	0.16504252
29	0xbd79b968	-0.060967833
30	0xbd8e9840	-0.06962633
31	0x3e23f0fd	0.16009898
32	0xbb1534f7	-0.0022767165
33	0x3e8915c3	0.26774415
34	0xbe4f6a2e	-0.20255348
35	0xbc316238	-0.01082664
36	0xbdc8deb7	-0.098081045
37	0xbd2318e2	-0.039818652
38	0xbd8210bc	-0.06350848
39	0xbb92bdf1	-0.004478209
40	0xbd882680	-0.06647968
41	0xbcb0e92c	-0.02159556
42	0xbccdee4b	-0.025138041
43	0x3e842fe7	0.25817797
44	0xbd3d558c	-0.046224162
45	0xbc925b0d	-0.017865682
46	0x3bb5ace0	0.00554429
47	0xbd68f382	-0.056872852
48	0xbce90e04	-0.028449066
49	0xbf0c0285	-0.54691344
50	0xbe698afb	-0.22806923
51	0xbd83dfbb	-0.064391576
52	0xbd0662e9	-0.03280917
53	0xbe85782e	-0.26068252
54	0x3d49931a	0.049212553
55	0xbe8c6634	-0.27421725
56	0xbd4498a5	-0.047997136
57	0xbec6294d	-0.38703385
58	0xbe832dd5	-0.25620905
59	0xbcdfcf82	-0.027320627
60	0xbddd39c9	-0.10802037
61	0xbd346650	-0.044042885
62	0x3e9aef4f	0.30260703
63	0xbd55cae1	-0.052195434
64	0xbc832590	-0.016009122
65	0xbc35ef2b	-0.011104385
66	0x3dabea81	0.083943374
67	0xbee1b512	-0.44083458
68	0xbe7b2e7d	-0.24529453
69	0xbb046831	-0.0020203704
70	0xbd374489	-0.044743095
71	0xbe59aa5e	-0.21256396
72	0xbd355804	-0.04427339
73	0xbe44928f	-0.19196533
74	0xbe1ee252	-0.15516022
75	0xbd8b5834	-0.06803933
76	0xbd098022	-0.033569463
77	0x3d407e1a	0.04699526
78	0xbd8ec65e	-0.06971429
79	0xbd8b285d	-0.06794808
80	0xbd223b8a	-0.039607562
81	0xbdd720b9	-0.10504288
82	0xbd8cef3a	-0.06881566
83	0xbddab4c9	-0.10679013
84	0xbd801faf	-0.06256043
85	0xbe1d966e	-0.15389416
86	0xbe6bd5c7	-0.23030768
87	0xbf29cdac	-0.66329455
88	0xbf67d549	-0.9055982
89	0xbd915f7d	-0.07098291
90	0x3ced4734	0.028964616
91	0xbc94c404	-0.018159874
92	0xbde018b5	-0.109422125
93	0xbc6a4b27	-0.014300144
94	0xbd9460f7	-0.07245057
95	0x3d0f8c04	0.03504564
96	0xbd6751c3	-0.05647446
97	0x3d962894	0.073319584
98	0xbdf43ca1	-0.119256265
99	0xbd430b4d	-0.0476182
100	0xbcace946	-0.021107327
101	0xbe0fb53e	-0.14033982
102	0x3dfced04	0.12349895
103	0xbdc3fa6c	-0.095692486
104	0xbeb47b24	-0.352502
105	0x3e0f0dcc	0.13970107
106	0xbe82212a	-0.25415927
107	0xbe523ab5	-0.20530207
108	0xbe8d94f3	-0.27652702
109	0xbccc3b1d	-0.024930531
110	0x3e229a16	0.15879092
111	0x3e58d811	0.21176173
112	0xbd770df8	-0.060316056
113	0xbdb6d606	-0.089275405
114	0xbd8c34ce	-0.06846009
115	0x3dce47c9	0.10072286
116	0xbda5924d	-0.08084545
117	0x3e4c0d34	0.19926912
118	0xbe5ab97d	-0.2135982
119	0xbe64d28a	-0.2234594
120	0xbdec9ee1	-0.11553741
121	0xbea81b92	-0.32833534
122	0xba37bcfb	-0.0007009056
123	0x3d13220b	0.035921138
124	0x3e05befa	0.13061133
125	0x3dac1621	0.08402658
126	0x3cbc6071	0.022995206
127	0xbd95eaf5	-0.07320205
128	0x3d024411	0.031803194
129	0xbe0a05f9	-0.13478841
130	0xb9a17613	-0.00030796285
131	0x3db1837d	0.086676575
132	0xbece38fe	-0.40277857
133	0xbd1ce3dd	-0.038303245
134	0xbd0f2442	-0.034946688
135	0xbd46c1ba	-0.048524596
136	0xbcdd81de	-0.027039465
137	0xbd71ad24	-0.05900301
138	0x3dc464f4	0.09589568
139	0xbcbef699	-0.023310946
140	0xbea360a5	-0.3190967
141	0xbd064650	-0.0327819
142	0xbd217776	-0.039420567
143	0xbd480cf1	-0.048840467
144	0xbd4152a3	-0.04719795
145	0x3e69639d	0.22791906
146	0xbcf3d04c	-0.02976241
147	0xbdfbac7d	-0.12288759
148	0xbda0230a	-0.07819183
149	0xbd8d2ed6	-0.06893699
150	0xbcc0afe6	-0.023521375
151	0xbd491fc5	-0.049102563
152	0x3ea10a8c	0.3145336
153	0xbe650792	-0.22366169
154	0x3e963258	0.29335284
155	0x3bf9309d	0.007604672
156	0xbc64adfb	-0.013957496
157	0xbf17fa3e	-0.59366214
158	0x3e066ae0	0.13126707
159	0xbe9d3aef	-0.30709025
160	0xbebcff9e	-0.3691377
161	0xbd4ad9f6	-0.04952427
162	0x3e555a24	0.20835167
163	0xbd1d63ce	-0.03842526
164	0xbeeaedd6	-0.4588458
165	0xbe65c8d7	-0.22439896
166	0xbe9aadbe	-0.3021068
167	0xbd2fa93e	-0.04288601
168	0xbdb85334	-0.09000245
169	0x3e88038b	0.26565203
170	0xbdff951e	-0.12479614
171	0xbdca4fdc	-0.09878513
172	0x3d5363cb	0.051608842
173	0x3d6cefbc	0.057845816
174	0xbd90d736	-0.07072298
175	0xbbe111ef	-0.006868593
176	0xbe217e6c	-0.15770882
177	0xbca8bf61	-0.02059907
178	0x3e424f68	0.18975604
179	0xbda404ef	-0.080087535
180	0x3d63b268	0.055590063
181	0x3ecbaae2	0.3977881
182	0xbdad7785	-0.08470062
183	0xbdc2532c	-0.0948852
184	0xbee9f700	-0.4569626
185	0xbcdd469a	-0.027011205
186	0xbdb2c6df	-0.08729338
187	0xbd8a57eb	-0.0675505
188	0xbeff5b33	-0.49874267
189	0xbdf37a90	-0.11888611
190	0xbca7eb54	-0.020497955
191	0x3d3556c4	0.0442722
192	0xbdaac38a	-0.08338077
193	0xbdca082a	-0.098648384
194	0xbe8f1118	-0.2794273
195	0x3cc34057	0.02383439
196	0x3e3991ec	0.18122071
197	0x3c74fbd3	0.014952618
198	0xbd82b24b	-0.06381663
199	0xbe9a4e14	-0.30137694
200	0xbe1f2f7e	-0.1554546
201	0xbd44b65b	-0.04802547
202	0x3de955c0	0.11393309
203	0xbe6350ce	-0.22198793
204	0x3e96e87c	0.29474247
205	0xbe8ebb30	-0.27877188
206	0x3d20426e	0.039125852
207	0xbd11fd94	-0.03564222
208	0xbdca90b8	-0.09890884
209	0xbd8641db	-0.0655553
210	0xbd9f6b60	-0.07784152
211	0xbece8cfe	-0.40341944
212	0x3e9d7981	0.30756763
213	0xbea0fa7c	-0.31441104
214	0xbd1d05c9	-0.038335595
215	0xbea47186	-0.32117862
216	0xbd64351a	-0.055714704
217	0xbe4735c4	-0.19454104
218	0x3ddcd93b	0.10783621
219	0x3db096f1	0.0862254
220	0x3cbd2034	0.023086645
221	0x3c49a369	0.012307026
222	0xbdf6a807	-0.120437674
223	0xbd916a80	-0.071003914
224	0x3df9d00f	0.12197887
225	0xbde08cbb	-0.10964342
226	0xbd3f99a1	-0.04677737
227	0x3d93ca53	0.07216325
228	0xbc19e88c	-0.009393822
229	0xbe9d940b	-0.3077701
230	0xbcfd4e8c	-0.030921243
231	0x3a464c86	0.00075645035
232	0xbda96525	-0.08271245
233	0xbd7f793d	-0.06237148
234	0x3e70cf36	0.23516545
235	0x3e50bc7f	0.20384406
236	0x3de414c2	0.11136772
237	0xbe65e2af	-0.22449754
238	0x3e100612	0.14064816
239	0xbcb2a9d5	-0.021809498
240	0xbec440ba	-0.38330632
241	0xbd14faf4	-0.03637214
242	0xbd10e745	-0.035376806
243	0xbe34049f	-0.17579888
244	0x3d5aae87	0.0533891
245	0xbd974dae	-0.07387863
246	0xbdd6b9fc	-0.104846925
247	0xbeb6765f	-0.35637185
248	0xbe62634a	-0.22108188
249	0x3c0a4c0d	0.0084409835
250	0xbdb8d8e0	-0.090257406
251	0xbc8000d8	-0.015625402
252	0xbe90dcc5	-0.28293434
253	0xbc1fcd21	-0.009753496
254	0xbdb3b70c	-0.08775148
255	0xba2d17dd	-0.0006602982

l3.weight f4 [6, 300]
0	0x3cb0454e	0.021517422
1	0xbf7b4785	-0.98156005
2	0x3dd4cb54	0.10390344
3	0xbd9be10b	-0.07611283
4	0x3df395f0	0.11893833
5	0x3d079202	0.03309823
6	0xbc1bc711	-0.00950791
7	0xbecdb953	-0.40180454
8	0xbd28308e	-0.04106193
9	0x3caf7463	0.021417802
10	0x3d9128fc	0.07087895
11	0xbbb4e88b	-0.0055208853
12	0x3c86f3bf	0.01647365
13	0xbe81f02c	-0.2537855
14	0x3d850be8	0.064964116
15	0xbd1a4606	-0.037664436
16	0xbe5ddd91	-0.21666552
17	0x3e8a7db8	0.2704904
18	0x3e8ca9f7	0.27473423
19	0x3c435595	0.01192226
20	0x3f04b79c	0.51842666
21	0x3cb42560	0.021990478
22	0x3c581898	0.013189457
23	0x3e79061d	0.24318738
24	0x3d4e77e4	0.050407305
25	0x3e85c810	0.26129198
26	0x3c89e2d0	0.016831785
27	0xbd546c2e	-0.05186098
28	0xbe8ce720	-0.27520084
29	0x3c1b759c	0.0094884895
30	0x3ce17d3b	0.027525535
31	0x3da2375d	0.07920716
32	0x3d291408	0.04127887
33	0xbeec2470	-0.4612155
34	0x3d8477f8	0.06468195
35	0x3cec6323	0.028855866
36	0xbc8919a2	-0.016735855
37	0x3cdb352c	0.026758753
38	0x3f04c13f	0.5185737
39	0xbe4a8758	-0.19778192
40	0x3b9f7f4a	0.004867469
41	0x3dd45035	0.10366861
42	0xbe33d65a	-0.17562237
43	0xbdb1539e	-0.08658527
44	0xbc3ae900	-0.011408091
45	0xbea06571	-0.31327394
46	0xbd659847	-0.056053426
47	0xbc8dcda5	-0.017309973
48	0x3c09e5c1	0.008416594
49	0xbe8fcf9d	-0.28088084
50	0x3dfb6cbe	0.122766
51	0xbe1830c6	-0.14862356
52	0xbd52fabd	-0.051508654
53	0x3ebda2d7	0.370383
54	0x3d5ed8fb	0.054406147
55	0xbc098f92	-0.008396046
56	0xbcc841e3	-0.02444548
57	0x3e0ad400	0.13557434
58	0xbe035e43	-0.12828927
59	0xbe7d7d38	-0.24754798
60	0xbce52fe6	-0.027976941
61	0xbcdb02b4	-0.026734687
62	0xbe8172ac	-0.252828
63	0xbc01443f	-0.007889806
64	0x3cac3d4d	0.021025324
65	0x3d17606c	0.03695719
66	0x3eded799	0.43523863
67	0x3e2a5889	0.16635336
68	0x3f068b2c	0.5255611
69	0xbd43ed01	-0.047833446
70	0xbc430dca	-0.011905143
71	0xbe4864e0	-0.19569731
72	0xbcd9b5bc	-0.026575916
73	0xbdb5a69a	-0.08869667
74	0xbe3fe4bc	-0.18739599
75	0x3d80e9b6	0.06294577
76	0xbc662264	-0.014046285
77	0x3cb7c191	0.022431167
78	0x3cee4191	0.029083999
79	0x3c272119	0.010200762
80	0x3d0486b5	0.03235503
81	0xbf3c9b09	-0.73674065
82	0x3c2165fb	0.009850974
83	0x3bfca6bb	0.0077103055
84	0x3d439a8b	0.047754806
85	0x3dc7a5a0	0.09748387
86	0xbb79161c	-0.0038007563
87	0xbe2a74bf	-0.16646098
88	0xbeff44ca	-0.4985717
89	0x3db1d30b	0.086828314
90	0xbecc76a7	-0.39934275
91	0xbe905991	-0.28193334
92	0x3d00c0fc	0.031434044
93	0x3bf32db7	0.007421221
94	0x3cad0522	0.021120612
95	0xbe5629a5	-0.20914324
96	0xbbd7b393	-0.006582686
97	0x3e8aaf8b	0.27087054
98	0x3db01ea1	0.08599592
99	0xbd345502	-0.044026382
100	0xbe27bb0f	-0.16379951
101	0xbe67b494	-0.22627479
102	0xbebcad5b	-0.3685101
103	0x3e082b67	0.13297807
104	0x3e6ce55f	0.23134373
105	0xbeca495e	-0.395091
106	0x3ebbe607	0.36698934
107	0xbc4760eb	-0.012169103
108	0xbe829209	-0.2550204
109	0xbdcd2994	-0.10017696
110	0xbf158af4	-0.5841515
111	0x3eeb87d4	0.46002066
112	0xbb0bc90a	-0.0021329545
113	0xbe46faba	-0.19431582
114	0xba009cc2	-0.0004906171
115	0x3daf2956	0.08552806
116	0xbd1d8d7e	-0.038465016
117	0xbe67205d	-0.2257094
118	0xbebf6d3a	-0.3738802
119	0x3dcd3f23	0.10021808
120	0xbd8fcbc8	-0.0702129
121	0xbd998a37	-0.074970655
122	0x3e25aca2	0.16179135
123	0x3ba08eff	0.004899859
124	0x3f1613a8	0.58623743
125	0x3e695597	0.22786556
126	0x3ee26642	0.44218642
127	0x3bd2f9b1	0.006438457
128	0x3e97926b	0.29603896
129	0x3e251ee8	0.16125071
130	0xbe8c9065	-0.27453914
131	0x3db5dbf6	0.08879845
132	0x3f1c7c32	0.61127007
133	0x3e3c5c61	0.18394615
134	0xbd701e11	-0.058622424
135	0xbc3ffc7b	-0.011717911
136	0xbd1b1a69	-0.037866984
137	0xbdf34936	-0.11879198
138	0xbdfb5d57	-0.122736625
139	0xbd709843	-0.058738958
140	0xbddb98ea	-0.107225254
141	0xbb849224	-0.0040457416
142	0x3d552aec	0.052042887
143	0x3d34f139	0.04417536
144	0xbd1ce2a6	-0.038302086
145	0xbf29bb59	-0.66301495
146	0x3d01af00	0.031661034
147	0xbe72310a	-0.2365152
148	0xbd3b8b1b	-0.04578696
149	0xbc943147	-0.018089904
150	0xbc8b5dcb	-0.017012497
151	0xbd39669a	-0.045263864
152	0x3e6fd221	0.23420002
153	0x3b8fda18	0.0043900125
154	0xbb6cf28c	-0.0036155311
155	0xbd39fc91	-0.04540688
156	0x3c8bdcd3	0.01707307
157	0xbf0ba575	-0.5454934
158	0x3d845213	0.06460967
159	0x3dcb66b3	0.09931698
160	0x3eabb856	0.33539075
161	0xbbd83b1b	-0.006598843
162	0xbe8951b9	-0.26820162
163	0x3c69f24a	0.014278958
164	0xbea459c7	-0.32099745
165	0x3e0b4e4d	0.13604088
166	0xbf0b61e6	-0.54446256
167	0x3c0bca71	0.0085321525
168	0xbde82d7e	-0.11336802
169	0xbeb8b467	-0.36075136
170	0x3e000a4e	0.12503931
171	0xbd4f0b14	-0.050547674
172	0x3dacff82	0.08447172
173	0xbdca411c	-0.098757
174	0x3bfa7d67	0.0076443437
175	0x3b67503c	0.0035295626
176	0xbed3134f	-0.4122567
177	0xbd57a20a	-0.052644767
178	0x3f01979c	0.5062196
179	0xbaea36c7	-0.0017869108
180	0xbe02d842	-0.12777808
181	0x3e23efc1	0.16009428
182	0xbccc27a0	-0.024921238
183	0x3d00b826	0.031425618
184	0xbbf6e8fe	-0.007535099
185	0x3b12d829	0.0022406674
186	0xbb923816	-0.0044622524
187	0x3ba8a08f	0.005146093
188	0x3ebbdc7c	0.36691654
189	0xbe8d70a4	-0.27625
190	0x3cb776de	0.022395547
191	0xbdf1cabf	-0.11806249
192	0x3d4e98e7	0.050438788
193	0xbe8d6a7a	-0.27620298
194	0xbd159f8c	-0.03652911
195	0xbebae517	-0.36502907
196	0x3ea8f556	0.32999676
197	0x3e4ac2aa	0.19800821
198	0x3d49d14d	0.04927187
199	0xbf0b4197	-0.5439696
200	0x3eaefff4	0.34179652
201	0xba155c07	-0.0005697612
202	0x3cecf875	0.028927067
203	0x3e95e914	0.29279387
204	0x3f69b680	0.912941
205	0xbc6e4f01	-0.014545203
206	0x3e477e48	0.19481766
207	0xbd97b031	-0.07406653
208	0x3cb88be0	0.022527635
209	0x3cc2c315	0.023774663
210	0x3bad687e	0.0052919975
211	0xbe127dda	-0.14305821
212	0xbf0dfe6c	-0.5546634
213	0x3f073da0	0.5282841
214	0xbc590e7d	-0.013248083
215	0x3dbd6294	0.09247318
216	0xbd25296e	-0.040322714
217	0xbedf393d	-0.43598357
218	0x3d9a0fc2	0.07522537
219	0x3e9efc2f	0.31051776
220	0x3cb6db47	0.022321356
221	0x3ca1e74b	0.01976361
222	0x3d8e35c2	0.06943847
223	0x3c172da7	0.009227193
224	0x3e894990	0.26813936
225	0xbd686eca	-0.05674628
226	0x3d8d5532	0.06901015
227	0x3f2266a0	0.63437843
228	0x3dfef32c	0.12448725
229	0xbbc19af3	-0.005908364
230	0xbcb095e9	-0.021555858
231	0x3cb37e28	0.021910742
232	0xbe9d6da6	-0.30747718
233	0x3c12bdfd	0.00895643
234	0x3def99a2	0.11699225
235	0xbf0fdc7b	-0.561958
236	0x3e4277f6	0.18991074
237	0x3d91a372	0.07111253
238	0xbde30b2c	-0.11086115
239	0x3cd9f7e6	0.026607465
240	0xbdb152fd	-0.08658407
241	0xba0b195b	-0.00053062075
242	0x3d555254	0.052080467
243	0x3de8d622	0.113689676
244	0xbf0d3ff9	-0.5517574
245	0xbed65f86	-0.41869754
246	0xbb18cae4	-0.0023314292
247	0x3d7030b4	0.058640197
248	0x3d8a0aaa	0.06740315
249	0x3d91a104	0.071107894
250	0x3e8c951a	0.27457505
251	0x3c9c3f26	0.01907308
252	0xbe1313cb	-0.14363019
253	0x3a2e6f17	0.0006654127
254	0xbeab0390	-0.33401155
255	0xbd2beddb	-0.041974884

l3.bias f4 [6]
0	0x3da3a431	0.079903014
1	0x3e495865	0.19662626
2	0xbe81f6fb	-0.25383744
3	0x3e96a305	0.2942125
4	0xbe185dca	-0.14879528
5	0xbe0dd8c9	-0.13852228
