average data/Average_TD3_20_Peg-in-hole-triple_assembly_seed_4/_actor.pth (torch_old, 510312 bytes, 6 tensors)

l1.weight f4 [400, 12]
-0.003617641 0.32157794 0.031397533 -0.16439375 -0.43957573 -1.2332574 0.5894843 0.27066553
0.028162347 1.3112754 -0.23583807 1.1019111 -0.2880199 -0.07998676 0.14379686 0.09491609
0.23865218 -0.46329015 -0.34653807 -0.33997357 0.05108044 -0.03437511 0.6106331 -0.13898627
0.21648501 0.04949596 0.19014011 0.09067236 0.25669727 -0.12012963 0.20537695 0.17621565
-0.14196338 0.17597355 0.2703283 -0.16293678 -0.11259848 0.19748347 0.23276411 0.07615179
0.088647544 0.21381229 0.25298947 -0.18257402 -0.11874237 0.2430554 0.15591925 -0.13544905
-0.7106091 0.7526555 0.0039908346 -0.068474375 0.03848928 -0.62479675 -0.39826727 0.35280928
-0.025854552 0.89139223 0.061221518 0.22178529 -1.1163031 0.14667156 -0.0027485562 0.64073324
0.7501986 0.114845075 -0.41051233 -0.08234688 -0.10457151 0.33783445 0.03067666 -0.5361212
-0.9034525 0.1661287 -0.024530938 0.3006716 0.65895736 0.19976528 -0.358446 -0.3892481
-0.11224128 0.6014537 -0.045607068 -0.50589454 0.43194425 -0.17635806 0.31811553 0.28343776
-0.53667766 -0.11127901 0.52912635 0.282953 0.06965004 -0.17383008 -0.07432584 -0.40065038
-0.28078777 0.14136994 0.27845466 -0.21026707 -0.14532056 0.24716574 0.22546607 -0.027609736
-0.1647703 0.05292213 -0.2827398 -0.114023715 0.01475347 -0.45863068 0.022977801 0.4106951
0.15594774 0.89238274 -0.27133733 0.66739506 -0.1332184 -0.48455456 -0.44744202 -0.2349099
0.60809743 0.03848512 0.0120004425 -0.15323763 0.15911108 -0.3595949 0.09879247 0.5740804
-0.041072275 0.2916893 -0.82878405 -0.04234035 0.117561124 -0.64031565 0.007917596 0.4089644
0.7208807 0.22784518 0.5778418 -0.12744889 -0.3401484 0.045895975 -0.27121943 -0.06428018
0.4832848 0.18505628 0.10426833 -0.414898 -0.58638173 0.53787863 0.10410063 0.043149356
-0.7768419 -0.19139512 -0.024177818 -0.3457249 -0.32937515 0.7433124 -0.0027326413 -0.20250389
0.04779161 -0.33709583 -0.7418244 -0.01940028 -0.09944433 -0.25365037 0.0855927 0.9112161
-0.2844134 -0.34141776 0.23053518 0.3182734 0.50370264 0.20953847 0.03180695 0.050619364
0.20157681 0.006976281 -0.54695326 0.60155094 0.083973 0.57108027 -0.04711448 -0.23301446
-0.7231581 -0.8164835 0.2926409 -0.6446973 -0.08552482 0.11670302 0.2582038 -0.18205765
1.0124532 -0.63074434 0.0021315378 0.49150926 -0.29249462 -0.81317717 0.056321207 -0.9046075
-0.071532406 0.31685376 0.35259262 -0.21843006 -1.2887236 -0.052746307 -0.0013221992 0.37731335
1.0144731 0.5356016 -0.36149383 -0.018272957 -0.18140924 0.6079109 -0.33826074 0.400048
-0.3115614 -0.17817454 0.15220647 0.34889463 0.50077945 -0.09658187 -0.646922 0.044384204
0.011999404 -0.10348872 0.94634944 -0.65325606 -0.0694795 1.1406214 -0.013542546 -0.5098633
0.069794305 -0.46230567 -0.21108782 -0.45745933 -0.09956697 0.18215375 -0.61253375 0.25250605
0.12009175 0.78723985 0.027514268 -0.39477095 -0.22391245 0.6127138 -0.5881031 -0.0018999391
-0.5646819 0.22526173 0.04066171 -0.18374883 -1.3789661 0.15500171 -0.032859776 -0.15455255
00000000: f215 6dbb dda5 a43e b39a 003d d656 28be
00000010: 1210 e1be 61db 9dbf 71e8 163f ac94 8a3e
00000020: b9b4 e63c dfd7 a73f 897f 71be 6c0b 8d3f
00000030: 5877 93be 19d0 a3bd 7c3f 133e 5e63 c23d
00000040: 3d61 743e 5e34 edbe 706d b1be 0411 aebe
00000050: b939 513d eacc 0cbd 7352 1c3f 6b52 0ebe
00000060: 3fae 5d3e 47bc 4a3d 17b4 423e 6eb2 b93d
00000070: d36d 833e 8606 f6bd 564e 523e e071 343e
00000080: d95e 11be 6932 343e 7968 8a3e e6d8 26be
00000090: 089a e6bd 1b39 4a3e b759 6e3e 78f5 9b3d
000000a0: d88c b53d 9cf1 5a3e d687 813e aff4 3abe
000000b0: 332f f3bd 84e3 783e 4ca9 1f3e 28b3 0abe
000000c0: 7aea 35bf 08ae 403f 8cc5 823b 4b3c 8cbd
000000d0: efa6 1d3d aef2 1fbf b0e9 cbbe 6ba3 b43e
000000e0: edcc d3bc 4832 643f 6ac3 7a3d af1b 633e
000000f0: 05e3 8ebf 1231 163e 1f21 34bb 1807 243f
00000100: 040d 403f e533 eb3d ac2e d2be 7ba5 a8bd
00000110: 9629 d6bd a3f8 ac3e 9e4d fb3c 3d3f 09bf
00000120: aa48 67bf a41d 2a3e 1bf5 c8bc a1f1 993e
00000130: 6eb1 283f 458f 4c3e 3c86 b7be 874b c7be
00000140: c2de e5bd dff8 193f 7ace 3abd 4e82 01bf
00000150: cc27 dd3e 3597 34be 0ae0 a23e c11e 913e
00000160: b563 09bf 40e6 e3bd d374 073f 37df 903e
00000170: aea4 8e3d 8300 32be 2538 98bd 0c22 cdbe
00000180: 6ac3 8fbe 48c3 103e 9c91 8e3e 4050 57be
00000190: eace 14be 0419 7d3e 94e0 663e d02d e2bc
000001a0: 8cb9 28be e0c4 583d 45c3 90be 4485 e9bd
000001b0: 8ab8 713c a4d1 eabe f13b bc3c a146 d23e
000001c0: c4b0 1f3e 3273 643f baec 8abe 67da 2a3f
000001d0: 676a 08be 8917 f8be 1f17 e5be 398c 70be
000001e0: 46ac 1b3f 93a2 1d3d 819d 443c 53ea 1cbe
000001f0: 04ee 223e d31c b8be b553 ca3d eff6 123f
00000200: 673b 28bd 4d58 953e 312b 54bf 136d 2dbd
00000210: e3c3 f03d baeb 23bf ceb8 013c c863 d13e
00000220: a38b 383f 3f50 693e 71ed 133f f681 02be
00000230: ee27 aebe 6bfd 3b3d 46dd 8abe 54a5 83bd
00000240: 1b71 f73e 657f 3d3e a28a d53d 836d d4be
00000250: 1d1d 16bf 6ab2 093f b632 d53d 61bd 303d
00000260: 1cdf 46bf 15fd 43be 8f10 c6bc db02 b1be
00000270: dca3 a8be b949 3e3f 1d16 33bb 2e5d 4fbe
00000280: 23c1 433d d397 acbe 34e8 3dbf 56ed 9ebc
00000290: 78a9 cbbd 76de 81be 3a4b af3d 7545 693f
000002a0: a29e 91be 4fce aebe 6a11 6c3e bbf4 a23e
000002b0: a8f2 003f 4191 563e 0148 023d 4056 4f3d
000002c0: 276a 4e3e 4999 e43b 2105 0cbf 3eff 193f
000002d0: 09fa ab3d 5132 123f 1dfb 40bd 589b 6ebe
000002e0: e420 39bf 1005 51bf 07d5 953e e20a 25bf
000002f0: a327 afbd fe01 ef3d 4a33 843e 526d 3abe
00000300: 1198 813f 7678 21bf 45b1 0b3b 1aa7 fb3e
00000310: dbc1 95be 612c 50bf 11b1 663d 5b94 67bf
00000320: 957f 92bd a83a a23e 0587 b43e 21ac 5fbe
00000330: e5f4 a4bf 830c 58bd a54d adba 372f c13e
00000340: 41da 813f 301d 093f b815 b9be 2bb1 95bc
00000350: 58c3 39be 0ca0 1b3f 8330 adbe 17d3 cc3e
00000360: fa84 9fbe 6373 36be 03dc 1b3e 51a2 b23e
00000370: 1533 003f b7cc c5bd ae9c 25bf 36cc 353d
00000380: 2699 443c e5f1 d3bd f543 723f ca3b 27bf
00000390: 454b 8ebd e2ff 913f 8ee1 5dbc 6786 02bf
000003a0: 51f0 8e3d 54b3 ecbe 6827 58be 1c38 eabe
000003b0: c4e9 cbbd 8386 3a3e 03cf 1cbf 7948 813e
000003c0: aaf2 f53d 8d88 493f 9a65 e13c 6b1f cabe
000003d0: 4e49 65be d0da 1c3f ed8d 16bf 6107 f9ba
000003e0: fe8e 10bf 03ab 663e e58c 263d a728 3cbe
000003f0: f681 b0bf c5b8 1e3e f997 06bd 0643 1ebe

l1.bias f4 [400]
-0.2586655 0.07751142 0.11071018 -0.23449183 -0.1880969 -0.7625528 0.0016450869 0.23447074
0.04255593 0.17057085 -0.32609555 0.5709058 0.38754162 -0.101734765 0.3121218 -0.6793041
0.0023678285 -0.38715783 0.034670435 -0.7083238 -0.07369417 -0.642018 -0.13746211 -0.09641515
0.0177178 -0.14030166 -0.49912387 -0.13200314 -0.12323736 0.04214014 -0.61481494 0.16268645
0.37015295 -0.1364197 -0.33668566 -0.1926016 0.32017976 0.591115 -0.0576953 -0.5027374
0.16240428 -0.3078423 -0.20029575 -0.7721364 -0.6190872 -0.12535435 0.58865005 -0.10240849
0.036905337 -0.38854972 -0.2873107 0.09897056 0.200934 -0.5907359 -0.4295112 -0.5328769
-0.29994255 -0.45034468 0.21343347 -0.21389493 -0.31475356 0.6049705 0.11349997 -0.30602768
0.19397947 0.24494591 0.0055379365 -0.21392341 -0.26108724 0.15270312 0.5761241 -0.062094014
0.09408408 0.30193806 -0.43644124 -0.29658505 0.17241594 -0.2296053 -0.42774084 -0.0556696
0.042812232 0.17499405 -0.6593547 0.49845335 -0.12559503 0.41922995 -0.10331862 -0.50051886
-0.5236486 0.3887235 -0.2460785 -0.10859036 -0.27495956 0.024617467 -0.1197875 -0.038782675
-0.28426272 -0.27765995 -0.002715975 -0.49918613 0.18468955 0.29236513 0.037886836 -0.099080615
-0.4748611 -0.37481302 -0.014299585 -0.47252288 0.35708106 -0.19731201 -0.35448483 0.19978902
0.15885583 0.68399537 -0.2984982 0.31251487 -0.085741825 0.37890935 0.3979327 -0.4673647
-0.343053 0.20241188 -0.07432948 -0.14322813 -0.09723286 -0.36038774 -0.55805147 -0.20490938
-0.12611422 -0.53164834 -0.24740502 0.19431819 -0.6464695 -0.40938345 0.09510096 0.03708736
0.30640358 -0.1773715 0.4451479 -0.31824735 -0.31112796 0.1596941 -0.32807037 -0.06985881
-0.41281605 -0.42493573 0.040047616 -0.2430261 0.31456822 -0.4871533 -0.5617253 0.18107854
-0.40990844 -0.5859824 -0.4081678 0.026417837 -0.08223578 -0.5284026 -0.3322412 0.07527763
0.26716298 -0.45706055 0.13410927 -0.46931443 -0.52900255 -0.773975 -0.089465395 -0.09809828
0.46901792 0.19147508 -0.18386795 9.195182e-05 0.11941478 0.16196194 -0.5988589 0.014807929
0.57177395 0.14501998 -0.44076878 0.0047559496 0.020749876 -0.10747872 -0.6037105 -0.8000729
-0.052010413 -0.42620566 0.25733733 0.29557645 -0.69471467 -0.21818256 -0.24313635 0.47466716
-0.758404 0.63188785 -0.4171157 -0.016138325 -0.12620938 -0.37505475 -0.20154394 -0.6044639
0.11552021 0.21729217 0.08629073 -0.24493782 -0.30586994 -0.16899258 0.20691039 -0.1840374
-0.22788602 -0.5042327 -0.2539361 0.038962934 -0.47883078 0.33238217 -0.40434232 -0.56126577
0.38834375 -0.23914592 -0.32645723 -0.19265962 0.3553483 -0.432744 -0.21443029 0.113605104
0.31259322 -0.15399122 -0.2352107 -0.7881561 -0.4976445 0.28676623 -0.03465188 -0.117595516
-0.049304917 0.028292507 -0.14407207 -0.06385833 0.094694495 0.32420644 0.393059 -0.4531363
0.24281608 0.574382 -0.25048026 -0.06925165 0.062363867 -0.43479824 -0.6190276 -0.59158057
0.04706183 0.2814471 -0.57927775 -0.20427145 -0.6302331 0.8463163 -0.13989915 0.23795755
00000000: ce6f 84be 4fbe 9e3d 05bc e23d a01e 70be
00000010: 799c 40be a936 43bf f59f d73a 1919 703e
00000020: 204f 2e3d 20aa 2e3e fff5 a6be e226 123f
00000030: db6b c63e 515a d0bd 6ece 9f3e e0e6 2dbf
00000040: 922d 1b3b 8d39 c6be 9602 0e3d b554 35bf
00000050: f8ec 96bd 4b5b 24bf dec2 0cbe 4e75 c5bd
00000060: eb24 913c 3dab 0fbe 2a8d ffbe d52b 07be
00000070: de63 fcbd 249b 2c3d 8364 1dbf 4797 263e
00000080: b084 bd3e 9bb1 0bbe 1062 acbe 5b39 45be
00000090: 9aee a33e 5053 173f e851 6cbd 66b3 00bf
000000a0: 4f4d 263e 829d 9dbe 541a 4dbe bbaa 45bf
000000b0: 807c 1ebf e45c 00be c5b1 163f 8bbb d1bd
000000c0: 0d2a 173d fdef c6be 631a 93be 14b1 ca3d
000000d0: a4c1 4d3e 783a 17bf e4e8 dbbe 9f6a 08bf
000000e0: 1292 99be 9493 e6be 4e8e 5a3e 4607 5bbe
000000f0: 6127 a1be 59df 1a3f ac72 e83d a9af 9cbe
00000100: 8ea2 463e 1ad3 7a3e 9477 b53b bd0e 5bbe
00000110: 3aad 85be 355e 1c3e de7c 133f 4b56 7ebd
00000120: 27af c03d a097 9a3e 3a75 dfbe ffd9 97be
00000130: ce8d 303e a71d 6bbe d900 dbbe ce05 64bd
00000140: e15b 2f3d a431 333e 78cb 28bf 4735 ff3e
00000150: fc9b 00be 4fa5 d63e b698 d3bd 0122 00bf
00000160: d60d 06bf c406 c73e 01fc 7bbe 9f64 debd
00000170: 80c7 8cbe 92aa c93c 2653 f5bd 95da 1ebd
00000180: e28a 91be 7229 8ebe 80fe 31bb 5395 ffbe
00000190: 421f 3d3e e2b0 953e 3a2f 1b3d c7ea cabd
000001a0: fe20 f3be 7ee7 bfbe ce48 6abc 85ee f1be
000001b0: 54d3 b63e 290c 4abe 097f b5be 7e95 4c3e
000001c0: 1aab 223e 521a 2f3f c2d4 98be f301 a03e
000001d0: 6999 afbd 6800 c23e d6bd cb3e 6d4a efbe
000001e0: a5a4 afbe 0f45 4f3e 0e3a 98bd 65aa 12be
000001f0: 0622 c7bd be84 b8be 76dc 0ebf c4d3 51be
00000200: 1624 01be 1b1a 08bf be57 7dbe 59fb 463e
00000210: 067f 25bf b59a d1be 4bc4 c23d eae8 173d
00000220: eee0 9c3e e0a0 35be 6dea e33e 51f1 a2be
00000230: 2a4c 9fbe da86 233e d7f8 a7be 2312 8fbd
00000240: a05c d3be 2d91 d9be f808 243d d5db 78be
00000250: 160f a13e 286c f9be 3bcd 0fbf a76c 393e
00000260: 85df d1be f102 16bf 5ffb d0be 386a d83c
00000270: 3c6b a8bd 6545 07bf 851b aabe 282b 9a3d
00000280: 96c9 883e d703 eabe f153 093e fb49 f0be
00000290: b66c 07bf 3a23 46bf a239 b7bd c0e7 c8bd
000002a0: 1e23 f03e 0b12 443e e147 3cbe 42d6 c038
000002b0: bc8f f43d 5ad9 253e d14e 19bf f59c 723c
000002c0: c75f 123f 1e80 143e 72ac e1be ccd7 9b3b
000002d0: a5fb a93c ce1d dcbd c58c 1abf 94d1 4cbf
000002e0: df08 55bd a137 dabe b8c1 833e cc55 973e
000002f0: d2d8 31bf 406b 5fbe bcf8 78be 9307 f33e
00000300: c426 42bf 67c3 213f 3090 d5be 8534 84bc
00000310: 083d 01be 2d07 c0be 8961 4ebe 25be 1abf
00000320: dc95 ec3d d781 5e3e 32b9 b03d fbd0 7abe
00000330: fc9a 9cbe 640c 2dbe 51e0 533e 4d74 3cbe
00000340: f45a 69be 6515 01bf ea03 82be 9997 1f3d
00000350: 4f29 f5be ff2d aa3e f505 cfbe 1daf 0fbf
00000360: fed4 c63e abe2 74be 6725 a7be 9048 45be
00000370: 36f0 b53e 9f90 ddbe 9d93 5bbe cba9 e83d
00000380: 380c a03e e0af 1dbe 13db 70be 99c4 49bf
00000390: 43cb febe 06d3 923e 21ef 0dbd ebd5 f0bd
000003a0: f4f3 49bd b0c5 e73c a187 13be 28c8 82bd
000003b0: 30ef c13d 63fe a53e 073f c93e 7b01 e8be
000003c0: c7a4 783e b30a 133f f33e 80be cfd3 8dbd
000003d0: 4171 7f3d e09d debe 9878 1ebf d371 17bf
000003e0: e8c3 403d d619 903e 8c4b 14bf 892c 51be
000003f0: f556 21bf 2fa8 583f b941 0fbe 25ab 733e

l2.weight f4 [300, 400]
-0.027916158 -0.0022611155 0.01979037 -0.013615448 0.001274586 0.0005297013 -0.073024556 -0.017230952
0.047142837 0.010176623 0.0043524853 -0.05743814 -0.025067262 0.03396196 0.036951214 -0.102829166
-0.07901303 -0.028886849 -0.024457052 -0.011150295 -0.04204805 -0.084662326 -0.003623316 0.05287383
0.052605197 -0.025908796 -0.08351603 -0.046272494 -0.082672276 -0.02426229 -0.022373797 0.04621043
0.03919901 -0.021438213 -0.028064154 -0.030778218 0.014407286 0.0105763 0.020444874 0.02345376
-0.038225446 -0.017556824 0.007291695 0.008901706 -0.07285005 -0.021555424 -0.064834915 -0.013336683
-0.014483498 -0.06830492 0.014898393 -0.065723374 -0.0025209903 -0.06620486 0.01752916 -0.001991877
0.022083344 -0.07441729 -0.016659029 -0.016279796 -0.025392046 -0.044880763 -0.030035034 -0.029464541
0.008814569 -0.028872002 -0.02972219 -0.09067655 0.034231458 -0.048273113 0.03503541 -0.056767486
-0.030036831 0.013412526 -0.076084286 0.01014835 -0.049817074 -0.016500931 -0.037640292 0.015823018
0.030220332 0.045507472 0.021332294 -0.04689283 -0.04956644 0.022746716 0.00038533934 0.041129652
-0.0675484 0.033210836 0.020186424 0.025711026 -0.012546495 -0.021694291 0.010226458 -0.011332594
0.026241438 -0.024384141 0.011518626 -0.039758697 -0.03888779 -0.013228766 0.029953316 -0.029222785
0.00031451337 -0.033254776 -0.108533986 -0.009550125 -0.11216275 0.0005853772 0.024234412 0.011349879
-0.0036550658 -0.03673594 -0.04640925 0.0066332975 0.029355004 -0.115338914 0.01417395 0.026388653
0.052860063 0.029381769 -0.015774805 -0.05098868 0.04221906 -0.0487308 -0.025613187 -0.0109561505
0.0014920443 -0.063587844 0.043075923 -0.04837513 -0.0220666 0.04791217 0.0066955504 -0.0558635
-0.0006749743 0.016629498 -0.011395004 -0.045282096 -0.040097717 0.035937328 -0.03425369 -0.015880004
-0.03182099 0.03182058 0.03976759 0.020055998 -0.08582989 -0.01893466 -0.040251523 -0.015639002
-0.0713519 -0.060937446 0.0046347957 0.045340605 -0.0047760545 -0.023866387 -0.054031204 -0.003566304
-0.03970351 -0.054906357 -0.072665945 -0.017763797 -0.027825039 0.0154119795 0.0013922191 0.03560308
-0.041306745 -0.083059065 -0.003629677 0.008398473 0.007285051 -0.034240827 -0.016365968 -0.08366932
0.012383135 0.04531916 -0.08229928 0.0072922977 -0.030035382 -0.060156405 -0.03850028 0.013603463
-0.02640708 -0.021734443 0.0065766387 0.056062933 -0.063642725 0.021082494 -0.0071470924 -0.0021604232
-0.071386196 0.022125809 0.00831607 -0.035994284 -0.0030557923 0.011877351 -0.029219033 -0.086131826
-0.04484278 -0.03526577 0.047902096 0.020093616 -0.019067138 0.008604477 -0.0027134728 -0.0063076145
-0.048079632 0.010746596 -0.04369247 0.025099732 0.018992476 -0.08040513 -0.068868496 0.069440976
-0.009298044 -0.04225171 -0.094246164 -0.018769912 -0.0005848422 0.02800746 -0.05148931 -0.018697133
-0.040586874 0.021243358 0.016220585 0.03183161 -0.066167496 -0.026206857 -0.0050195754 0.010718656
0.0020086654 -0.03310736 -0.036059335 0.024689877 -0.10665191 -0.042848267 0.027444463 -0.04134215
-0.058503214 0.005132037 -0.006516086 -0.03908875 -0.05398668 -0.025370315 0.008195154 -0.033114962
-0.048779007 0.002800215 -0.04158375 -0.06367432 -0.07201069 0.0011693191 -0.106669314 -0.053013038
00000000: 6db0 e4bc 392f 14bb 6a1f a23c 5413 5fbc
00000010: 0210 a73a a7db 0a3a e68d 95bd ed27 8dbc
00000020: d918 413d dabb 263c 4b9f 8e3b 4144 6bbd
00000030: dc59 cdbc b21b 0b3d 285a 173d 1998 d2bd
00000040: 95d1 a1bd 1da4 ecbc 285a c8bc baaf 36bc
00000050: 933a 2cbd 7163 adbd 2875 6dbb 3b92 583d
00000060: 8c78 573d af3e d4bc 740a abbd 3a88 3dbd
00000070: 1550 a9bd b6c1 c6bc 4149 b7bc 2647 3d3d
00000080: 248f 203d 319f afbc cce6 e5bc 9a22 fcbc
00000090: 8a0c 6c3c 3848 2d3c 027c a73c 1a22 c03c
000000a0: 4992 1cbd 54d3 8fbc 2cef ee3b 76d8 113c
000000b0: 6832 95bd 0095 b0bc 2bc8 84bd 1a82 5abc
000000c0: 324c 6dbc 73e3 8bbd 6418 743c fa99 86bd
000000d0: 3337 25bb 6a96 87bd 5099 8f3c 278a 02bb
000000e0: 21e8 b43c 1868 98bd 8478 88bc 355d 85bc
000000f0: fb02 d0bc e4d4 37bd 080c f6bc 9f5f f1bc
00000100: fb6a 103c fa84 ecbc f37b f3bc a1b4 b9bd
00000110: 4936 0c3d 07ba 45bd 4a81 0f3d 0685 68bd
00000120: cd0f f6bc 36c0 5b3c 14d2 9bbd 4445 263c
00000130: fd0c 4cbd f62c 87bc b52c 1abd 469f 813c
00000140: a190 f73c 0b66 3a3d 10c1 ae3c b212 40bd
00000150: 2e06 4bbd 5257 ba3c 5f07 ca39 9177 283d
00000160: d156 8abd 1608 083d 005e a53c ee9f d23c
00000170: d08f 4dbc 3ab8 b1bc e08c 273c 58ac 39bc
00000180: 49f8 d63c 40c1 c7bc 9eb8 3c3c 04da 22bd
00000190: ce48 1fbd 77bd 58bc a860 f53c 9f64 efbc
000001a0: 45e5 a439 2936 08bd 1147 debd 2178 1cbc
000001b0: 95b5 e5bd 0074 193a 3f87 c63c d8f4 393c
000001c0: d489 6fbb 6d78 16bd a017 3ebd 225c d93b
000001d0: e879 f03c cf36 ecbd db39 683c 042d d83c
000001e0: cb83 583d 09b2 f03c 2a3a 81bc 82d9 50bd
000001f0: e5ed 2c3d f399 47bd bfd2 d1bc 6d81 33bc
00000200: b390 c33a 583a 82bd 6170 303d 0025 46bd
00000210: 04c5 b4bc 8d3f 443d 5966 db3b 20d1 64bd
00000220: c2f0 30ba 963a 883c 1cb2 3abc b879 39bd
00000230: 813d 24bd 0533 133d 994d 0cbd c816 82bc
00000240: ba56 02bd 4c56 023d 57e3 223d 7a4c a43c
00000250: 95c7 afbd dc1c 9bbc c8de 24bd 5d1d 80bc
00000260: f220 92bd 8b99 79bd 7cdf 973b 12b7 393d
00000270: 7380 9cbb 7183 c3bc d34f 5dbd a7b8 69bb
00000280: 26a0 22bd 7de5 60bd e2d1 94bd 6285 91bc
00000290: 56f1 e3bc 8782 7c3c 1f7b b63a 89d4 113d
000002a0: 4331 29bd df1a aabd e0df 6dbb c099 093c
000002b0: 70b7 ee3b 1c40 0cbd ec11 86bc d25a abbd
000002c0: a2e2 4a3c 95a0 393d 868c a8bd 3af4 ee3b
000002d0: c30c f6bc 9066 76bd 78b2 1dbd 0fe1 5e3c
000002e0: a953 d8bc 6e0c b2bc d880 d73b 3fa2 653d
000002f0: 1e57 82bd 32b5 ac3c 2832 eabb e395 0dbb
00000300: ed32 92bd 2f41 b53c 2040 083c be6e 13bd
00000310: b043 48bb 3999 423c c15c efbc e265 b0bd
00000320: 10ad 37bd d772 10bd fd34 443d 5e9b a43c
00000330: b032 9cbc cbf9 0c3c 85d4 31bb 1bb0 cebb
00000340: 26ef 44bd 7e12 303c e0f6 32bd f49d cd3c
00000350: 1c96 9b3c 72ab a4bd ed0a 8dbd 1237 8e3d
00000360: d356 18bc 2110 2dbd 2204 c1bd 5cc3 99bc
00000370: 1850 19ba e76f e53c 74e6 52bd bb2a 99bc
00000380: 6c3e 26bd 8d06 ae3c 08e1 843c dd61 023d
00000390: d382 87bd c3af d6bc 407b a4bb 4d9d 2f3c
000003a0: d0a3 033b 959b 07bd f4b2 13bd 6d42 ca3c
000003b0: 516c dabd aa81 2fbd 36d3 e03c 6356 29bd
000003c0: 11a1 6fbd a62a a83b e484 d5bb 861b 20bd
000003d0: 2321 5dbd 68d5 cfbc f844 063c 8ea3 07bd
000003e0: 7fcc 47bd d083 373b b953 2abd af67 82bd
000003f0: 577a 93bd d743 993a 7175 dabd 3324 59bd

l2.bias f4 [300]
-0.00030972683 -0.026233139 0.34513646 0.10633822 -0.0056110164 -0.02128798 0.010440041 -0.038598105
-0.072436936 -0.039038982 -0.014507917 -0.1554353 -0.07926327 -0.065450296 -0.029807167 0.017550832
-0.12724009 -0.04920237 0.0103106955 -0.07825092 -0.05998934 -0.18811056 -0.05213967 -0.025125114
-0.060805768 -0.04761824 -0.048583373 -0.0029023557 -0.1357574 0.022693964 -0.0036542122 -0.09325715
-0.055438854 -0.1775855 -0.1462145 -0.002079808 -0.10426636 -0.057331607 0.03916744 -0.09789223
0.0016508076 -0.024701104 0.04894475 -0.03578674 0.22577877 -0.019303927 -0.026376376 0.006595089
-0.12800516 0.11137041 -0.09531085 -0.047800522 -0.056049053 0.23960975 -0.19444002 -0.22340743
-0.088332064 -0.005308008 0.026125856 -0.043245498 -0.04309725 -0.011904257 0.13981846 -0.016234053
0.26815954 -0.12239983 -0.15113178 -0.0019991905 -0.0150194215 0.06379015 0.055911284 -0.048632987
0.028981445 -0.039612748 -0.06882043 -0.18883564 -0.078510985 -0.007072017 -0.21301158 0.06195312
-0.009370377 -0.15239482 0.01756768 -0.012749408 -0.15468846 -0.04034226 0.035119426 -0.030625392
-0.099020526 0.20910178 0.012551296 0.2742951 0.1956234 -0.086874925 -0.039228085 -0.071371965
0.04355367 -0.021574343 -0.1082535 -0.05795694 -0.045875862 -0.0036327352 -0.22506107 0.03256772
-0.08317743 -0.0507476 -0.080028236 -0.06024802 -0.06697625 -0.0059314882 -0.084822156 -0.06971817
-0.053568654 -0.09464783 0.105529994 0.05073581 0.047960356 -0.033323865 0.2944191 -0.22972022
0.02135993 -0.08120789 -0.060851987 -0.06543106 -0.07994024 -0.04258873 -0.12839624 -0.04519821
-0.048968818 0.023721952 -0.09273083 -0.023197139 -0.0247326 0.014919723 -0.0136751905 0.23118973
-0.016661605 -0.21350655 -0.29877323 -0.066044204 -0.020765437 0.0898572 -0.068837896 -0.047407296
-0.08601086 -0.054378636 0.018436192 -0.011522176 -0.039530005 -0.03323802 0.026245868 0.036048397
-0.02837124 -0.08236103 0.07846263 -0.10577804 -0.08541474 0.24034421 -0.061219882 -0.07426508
-0.021585317 0.024202399 -0.29453844 -0.16078617 -0.052738182 -0.2824079 -0.025887938 -0.036274806
-0.04976596 0.35627446 0.028207868 -0.15120293 0.021161443 -0.10335852 -0.015135424 0.00517405
0.037533704 -0.26808926 -0.09487222 0.022510093 0.22518016 0.1331164 -0.007720912 -0.076516226
-0.10960396 -0.04619797 0.22528982 0.1307763 -0.070168585 -0.050354574 -0.038269464 -0.013155977
0.028491974 -0.010967322 -0.026066996 -0.23074123 -0.006236746 -0.0014632205 -0.011385809 -0.28093785
-0.0673736 -0.18409106 -0.043779135 -0.046528272 -0.06495309 -0.18264094 0.17610921 -0.0035222152
-0.023566263 -0.028639648 -0.056386963 -0.03134663 0.18907923 -0.04681274 -0.032010283 0.061051153
-0.21886353 -0.06747431 -0.11291182 -0.06999118 -0.10345182 -0.05433026 -0.08838863 -0.11659927
0.31758893 0.019835845 -0.10945951 0.06899667 -0.42838553 -0.06019985 0.007880736 -0.04028998
-0.05147925 -0.12698284 -0.05506397 -0.06986716 -0.044133462 -0.0100870645 0.3669577 0.03516369
0.015608048 -0.1550241 -0.026384847 0.012165185 -0.10888158 0.027314002 -0.017701646 -0.14756037
-0.045165714 -0.024319284 0.093601786 -0.048960444 -0.048327703 0.028681418 0.08754748 -0.06558969
00000000: d562 a2b9 e1e6 d6bc bab5 b03e dac7 d93d
00000010: 9edc b7bb 2164 aebc b50c 2b3c 0c19 1ebd
00000020: d159 94bd 57e7 1fbd 9db2 6dbc 6e2a 1fbe
00000030: c854 a2bd ce0a 86bd 292e f4bc c3c6 8f3c
00000040: 3a4b 02be 6d88 49bd 31ee 283c 0542 a0bd
00000050: 62b7 75bd 0ea0 40be 6890 55bd 2fd3 cdbc
00000060: 780f 79bd 580b 43bd 5cff 46bd 7335 3ebb
00000070: fd03 0bbe b1e8 b93c 827b 6fbb 9bfd bebd
00000080: da13 63bd f9d8 35be 41b9 15be 634d 08bb
00000090: 9a89 d5bd 8cd4 6abd 0a6e 203d b97b c8bd
000000a0: e95f d83a f859 cabc 4a7a 483d 1e95 12bd
000000b0: 8d32 673e 4523 9ebc 4513 d8bc 9e1b d83b
000000c0: c913 03be 2b16 e43d 5632 c3bd 7bca 43bd
000000d0: b193 65bd 425c 753e 491b 47be ebc4 64be
000000e0: 71e7 b4bd ccee adbb e405 d63c 3122 31bd
000000f0: be86 30bd 130a 43bc 922c 0f3e 47fd 84bc
00000100: 354c 893e c3ac fabd 4ac2 1abe da04 03bb
00000110: 0514 76bc 69a4 823d 3b03 653d 6233 47bd
00000120: 7f6a ed3c fa40 22bd baf1 8cbd 215e 41be
00000130: 5eca a0bd 61bc e7bb b51f 5abe 8ec2 7d3d
00000140: 3686 19bc 630d 1cbe 18ea 8f3c e5e2 50bc
00000150: a766 1ebe ed3d 25bd 63d9 0f3d 1ae2 fabc
00000160: 46cb cabd c71e 563e f3a3 4d3c 6870 8c3e
00000170: 8051 483e 7beb b1bd a1ad 20bd 772b 92bd
00000180: 5565 323d adbc b0bc 03b4 ddbd 4264 6dbd
00000190: 54e8 3bbd 2f13 6ebb 6976 66be bb65 053d
000001a0: ee58 aabd b7dc 4fbd d8e5 a3bd a1c6 76bd
000001b0: d82a 89bd ee5c c2bb 3db7 adbd 66c8 8ebd
000001c0: ce6a 5bbd b9d6 c1bd 1c20 d83d 5ad0 4f3d
000001d0: 1472 443d 9b7e 08bd 1abe 963e c73b 6bbe
000001e0: 05fb ae3c 5250 a6bd ef3f 79bd b800 86bd
000001f0: b5b7 a3bd 8571 2ebd 4e7a 03be c221 39bd
00000200: 8793 48bd 8a54 c23c a9e9 bdbd ed07 bebc
00000210: 069c cabc db71 743c e80d 60bc 00bd 6c3e
00000220: eb7d 88bc 76a1 5abe cef8 98be 2f42 87bd
00000230: 471c aabc 0d07 b83d e2fa 8cbd 272e 42bd
00000240: 7626 b0bd 22bc 5ebd 7f07 973c 82c7 3cbc
00000250: 37ea 21bd 9724 08bd 9301 d73c 7ca7 133d
00000260: cd6a e8bc e6ac a8bd 04b1 a03d 28a2 d8bd
00000270: eced aebd cb1c 763e b3c1 7abd 4a18 98bd
00000280: b1d3 b0bc 1c44 c63c becd 96be 21a5 24be
00000290: fe03 58bd c597 90be f112 d4bc e494 14bd
000002a0: 64d7 4bbd 9b69 b63e 3014 e73c f1d4 1abe
000002b0: c35a ad3c a2ad d3bd 92fa 77bc 148b a93b
000002c0: f1bc 193d ff42 89be 5e4c c2bd 1667 b83c
000002d0: a195 663e aa4f 083e b4ff fcbb 8ab4 9cbd
000002e0: 0a78 e0bd 153a 3dbd 60b2 663e 39ea 053e
000002f0: 8cb4 8fbd 9940 4ebd 71c0 1cbd 2b8c 57bc
00000300: 0068 e93c 48b0 33bc 748a d5bc 6e47 6cbe
00000310: 9e5d ccbb 88c9 bfba 8b8b 3abc 16d7 8fbe
00000320: 2cfb 89bd 5e82 3cbe c051 33bd 6e94 3ebd
00000330: 2006 85bd 3a06 3bbe f955 343e f7d4 66bb
00000340: 090e c1bc b29d eabc 04f6 66bd 5365 00bd
00000350: fc9d 413e b7be 3fbd 371d 03bd c610 7a3d
00000360: c31d 60be f92f 8abd 503e e7bd 8957 8fbd
00000370: 8cde d3bd 6889 5ebd 1905 b5bd 99cb eebd
00000380: 049b a23e c87e a23c 4f2c e0bd 204e 8d3d
00000390: 5955 dbbe 1e94 76bd 341e 013c 1b07 25bd
000003a0: e8db 52bd ca07 02be c28a 61bd 8316 8fbd
000003b0: 4ac5 34bd 3744 25bc e1e1 bb3e cd07 103d
000003c0: e6b8 7f3c a3be 1ebe 0925 d8bc 7c50 473c
000003d0: 4efd debd 9dc1 df3c 0b03 91bc 111a 17be
000003e0: afff 38bd 3c39 c7bc 4bb2 bf3d bf8a 48bd
000003f0: 45f3 45bd 4bf5 ea3c 184c b33d e353 86bd

l3.weight f4 [6, 300]
-0.0910085 -0.018442621 0.43790185 0.087018274 0.14752965 -0.057598684 -0.00017250677 0.029633468
0.04076248 0.04928676 0.07530838 -0.100153245 -0.01727651 0.009569525 -0.044290304 -0.00019512697
-0.15732208 0.02242117 0.050879948 -0.051761735 -0.035600778 -0.013967583 -0.017280944 -0.008569511
-0.010722797 -0.01648282 -0.06026767 0.012840417 -0.2598152 -0.018564163 0.019416519 0.0378769
-0.01712301 0.16669802 -0.030403858 0.04257964 -0.014615618 -0.035601605 0.055576246 0.057453312
0.047775038 0.024428697 0.14441492 0.03300454 0.07459464 -0.1136393 0.11185789 0.026034929
0.07424683 0.013156128 -0.080979526 0.09355778 0.016104732 0.03532873 -0.3295646 -0.29890564
0.0034110625 -0.022476675 -0.06824601 0.017363241 -0.012073361 -0.04563578 0.2960571 -0.009223009
0.5691734 -0.1182324 0.17036116 0.04956555 -0.034097448 0.051358055 0.11938427 0.021268502
-0.052994344 0.008055143 -0.38314885 -0.15413252 -0.043614596 -0.025936896 -0.021325978 0.07176201
0.02557073 0.16229525 0.037994575 -0.3870815 0.04806299 0.047621116 -0.40713733 -0.0368294
-0.16243418 0.28257516 -0.044946585 -0.04340851 0.036661834 0.0032876725 0.04377628 0.040827654
0.050227534 0.053829618 -0.059615202 0.028462468 0.037272528 -0.42439982 0.012079516 -0.060284168
0.08695585 0.18138379 0.040221047 0.24365221 -0.03798305 -0.0100730555 -0.045329433 -0.0076057645
0.025173426 -0.20392336 0.01966797 -0.014782447 0.027382081 0.037315708 0.37820655 0.045946766
0.1906342 0.005433944 0.033360153 -0.15616842 0.014335562 -0.022024935 0.15015711 -0.00048618994
0.010896754 -0.015802253 -0.028370388 0.024294049 -0.123835556 0.049715787 0.024518976 0.19597098
-0.017174006 0.06536354 0.051247645 0.02057919 -0.008210853 -0.15807463 0.012305489 0.040187206
0.02333539 -0.020027278 0.18047626 0.0033219845 -0.007205903 -0.0026341474 0.04518137 -0.011891362
0.022118049 0.014859754 0.26627117 -0.01180685 0.08151901 0.19600268 -0.032965098 -0.124290876
-0.053854045 0.28661883 -0.30803877 0.044927027 -0.014998337 -0.30351555 -0.035177533 -0.016924929
0.008901015 0.16112289 0.020530446 0.027998818 -0.013563447 0.060309544 0.0113625 -0.017080678
-0.09346151 -0.3753003 -0.0056285905 0.021511942 -0.07927764 -0.14432488 -0.04687776 -0.006250728
-0.3596095 0.039176684 0.28469953 0.12786876 0.1030012 -0.018904148 0.047613 0.054501493
0.07121225 0.00028112237 0.10292634 -0.21374421 -0.01125431 0.020640256 0.044370875 -0.18997349
-0.00073215266 0.16070853 0.01151064 0.014000392 0.031014727 0.13307871 0.07105098 -0.016466111
-0.031197965 0.013960605 0.008441397 -0.056114126 0.026738448 0.006118997 -0.003574714 -0.17282157
-0.30151194 0.027994178 -0.20139836 -0.008312212 -0.34210658 0.029830592 -0.33370465 0.0437403
0.045477297 -0.052891217 -0.037429787 -0.19220546 -0.16273543 0.03236144 0.022180974 -0.08341834
-0.055587064 -0.081018575 0.004619438 -0.026033806 -0.016837757 0.009055292 0.43164173 0.15842408
0.003695857 0.20283543 -0.04357324 0.0012990399 -0.014904181 0.037051894 -0.034989942 -0.015788363
-0.05140033 0.04512956 0.020660706 -0.036227234 0.0075778705 -0.020223645 -0.43848062 -0.0024840946
00000000: aa62 babd fb14 97bc ac34 e03e a336 b23d
00000010: 0312 173e 99ec 6bbd efe2 34b9 e3c1 f23c
00000020: 8ff6 263d eae0 493d 483b 9a3d 251d cdbd
00000030: 7887 8dbc 7fc9 1c3c c069 35bd ff9a 4cb9
00000040: 0a19 21be 9aac b73c 7e67 503d 1d04 54bd
00000050: 1fd2 11bd 4ad8 64bc c490 8dbc 2267 0cbc
00000060: acae 2fbc fb06 87bc 3bdb 76bd 9d60 523c
00000070: 7f06 85be df13 98bc 640f 9f3c cf24 1b3d
00000080: 8e45 8cbc e3b2 2a3e 8311 f9bc fd67 2e3d
00000090: 5876 6fbc fdd2 11bd eba3 633d 2a54 6b3d
000000a0: c2af 433d b11e c83c 81e1 133e c52f 073d
000000b0: 13c5 983d b9bb e8bd c015 e53d 3447 d53c
000000c0: b90e 983d cd8c 573c 98d8 a5bd 399b bf3d
000000d0: 12ee 833c dcb4 103d b1bc a8be 290a 99be
000000e0: 228c 5f3b 0121 b8bc 90c4 8bbd 5b3d 8e3c
000000f0: 59cf 45bc 95ec 3abd cc94 973e 1b1c 17bc
00000100: 59b5 113f d423 f2bd 2873 2e3e 3f05 4b3d
00000110: c4a9 0bbd d35c 523d bd7f f43d 483b ae3c
00000120: 9910 59bd b8f9 033c 162c c4be ead4 1dbe
00000130: 38a5 32bd 9d79 d4bc d1b3 aebc f6f7 923d
00000140: b579 d13c ba30 263e 33a0 1b3d 8c2f c6be
00000150: b3dd 443d 5c0e 433d 4e74 d0be 6dda 16bd
00000160: 2555 26be b1ad 903e e919 38bd 1fcd 31bd
00000170: b82a 163d fe75 573b c24e 333d e63a 273d
00000180: 63bb 4d3d 727c 5c3d 122f 74bd 1f2a e93c
00000190: 14ab 183d ef4a d9be 2ae9 453c 88ec 76bd
000001a0: e915 b23d acbc 393e d3be 243d f77f 793e
000001b0: 1d94 1bbd 7509 25bc 5bab 39bd c739 f9bb
000001c0: 8038 ce3c 49d1 50be b91e a13c 1432 72bc
000001d0: 6350 e03c 5bd8 183d 4aa4 c13e ad32 3c3d
000001e0: 9d35 433e 3a0f b23b a8a4 083d 9dea 1fbe
000001f0: b4df 6a3c a36d b4bc c9c2 193e 4fe7 feb9
00000200: 4d88 323c ba73 81bc 0469 e8bc 5004 c73c
00000210: 7f9d fdbd c8a2 4b3d 05dc c83c 9eac 483e
00000220: 80b0 8cbc 52dd 853d 0de9 513d b195 a83c
00000230: d086 06bc 51de 21be f69c 493c 579b 243d
00000240: dc29 bf3c 3f10 a4bc c5ce 383e a7b5 593b
00000250: 7f1f ecbb a9a1 2cbb 1a10 393d fdd3 42bc
00000260: e930 b53c 5376 733c b254 883e 8571 41bc
00000270: 70f3 a63d edb4 483e 6906 07bd 378c febd
00000280: 0f96 5cbd b4bf 923e 42b7 9dbe 6705 383d
00000290: 96bb 75bc 6466 9bbe 5116 10bd 26a6 8abc
000002a0: 90d5 113c 66fd 243e 772f a83c c75d e53c
000002b0: 3839 5ebc 2407 773d c729 3a3c c7ec 8bbc
000002c0: c068 bfbd 5c27 c0be 0a70 b8bb d039 b03c
000002d0: 515c a2bd e7c9 13be e502 40bd e8d2 ccbb
000002e0: bd1e b8be bb77 203d 23c4 913e 07f0 023e
000002f0: 4bf2 d23d dfdc 9abc d905 433d f53c 5f3d
00000300: bad7 913d 9b63 9339 0ccb d23d c3df 5abe
00000310: ff63 38bc c115 a93c 3cbe 353d 6988 42be
00000320: efed 3fba c790 243e 2097 3c3c e661 653c
00000330: 9912 fe3c c945 083e 2d83 913d f0e3 86bc
00000340: e092 ffbc 05bb 643c c94d 0a3c edd7 65bd
00000350: 970a db3c de81 c83b c045 6abb 23f8 30be
00000360: c65f 9abe 0c54 e53c 5f3b 4ebe f22f 08bc
00000370: 9828 afbe 495f f43c 56db aabe 0729 333d
00000380: 6746 3a3d 76a4 58bd fa4f 19bd 82d1 44be
00000390: 1ea4 26be 6e8d 043d e0b4 b53c 3cd7 aabd
000003a0: 43af 63bd 11ed a5bd a85e 973b d944 d5bc
000003b0: 56ef 89bc a65c 143c 2500 dd3e ec39 223e
000003c0: 3136 723b 17b4 4f3e db79 32bd 8c44 aa3a
000003d0: aa30 74bc bac3 173d 9d51 0fbd 9956 81bc
000003e0: 2789 52bd c6d9 383d a440 a93c 0263 14bd
000003f0: c94f f83b 0fac a5bc 8880 e0be 31cc 22bb

l3.bias f4 [6]
0.20287359 0.080450326 0.0090444945 -0.027622141 0.19014432 -0.109428555
00000000: 18be 4f3e 24c3 a43d 5c2f 143c d447 e2bc
00000010: 31b5 423e 141c e0bd
