average data/Average_TD3_40_Peg-in-hole-triple_assembly_seed_3/_actor.pth (torch_old, 510312 bytes, 6 tensors)

l1.weight f4 [400, 12]
00000000: 62a1 55be 8b5e 89be 3d5c 04be 1aff 75be
00000010: 226d 5d3b 371d 94be 8012 693e c467 563e
00000020: a83f d53d 951a 383e f5ee 24bd 4270 353e
00000030: 3d42 14be 83e4 9abd 5c49 84be 0399 8dbc
00000040: 0b68 33be d4d9 733e 5c04 813e b0d7 753e
00000050: 8dc7 dd3d f240 29be b031 863e 14c9 74be
00000060: 404a 38be cd78 1ebe 53f6 cebd e35e 823d
00000070: 713b 6abe 7e70 62be 09ca 0cbe 58d3 273e
00000080: 9ca2 5ebe 5a7c 93be 6705 92be 5787 3cbe
00000090: 327d 7bbc 5f73 aabe 4211 17be cd9a 133d
000000a0: 466e 743d a9b4 8cbd a6ab f3bc 232d 1bbe
000000b0: 39e1 143e 9c94 92bd e24c 35be ab5b 98bd
000000c0: 9030 25bd 84a8 883e 5a0e 1a3e d0b8 eebd
000000d0: 48c0 27bd 9a9b 823e 0ce8 3d3e 8068 933d
000000e0: 5413 d4bd f8f6 753e 744a fd3d 82a7 03be
000000f0: 0548 813e fc6c 5b3b b55e 47be 267b aabd
00000100: 8276 56be 865a 8abe e06e 86bc 24e4 5fbe
00000110: 19ae 203e 13af d73d 97a7 803d 6cf4 583e
00000120: 7417 06be 400f 8d3b c4a3 353e b05b cc3d
00000130: 7842 0f3d 9c2e 773e 3cbd 863d 22e4 463e
00000140: 6ec0 7ebe 7cb9 7ebe aa67 85be 00de 853c
00000150: a4da 7a3e f1fb 80be bc3d eb3d a46e 82be
00000160: 8772 44be 849a c9bd 1868 f0bd a89f ae3d
00000170: 1dde 77be da28 923e b060 2c3d ec19 ce3d
00000180: 75fc 81be e10a 483e f6be 5cbd 9b3a 1dbe
00000190: 4a1e 393d 9959 0d3e e407 4d3c 3705 0bbe
000001a0: d263 b53c fa5a 9bbd 4ec1 d8bd 7b88 f9bd
000001b0: 60c4 343e 6ebe 60be 1460 fd3d 0ce8 1f3e
000001c0: a845 47be d15e 69be 4910 83be 4233 80be
000001d0: 5522 6e3e 97ef 873e b192 96bb eabc 8d3e
000001e0: 2620 0e3d a94f 79be 5cca 77be 6b26 13be
000001f0: 9cd1 97be e882 ffbd 6f98 673d 71ca f1bc
00000200: d83d a4bd c95c 4d3d 5163 803e adf3 efbb
00000210: 7d0d f43d 300c 99bd d46a 69be 565d 123d
00000220: f38d 053e 38c1 3d3e 3fe4 8ebe f047 2ebd
00000230: 6e21 8bbe 1fc2 c73c e845 f43c 6873 053e
00000240: bbb9 91bd 08ae 7fbd c7ec 543d 1d23 8ebe
00000250: e602 193e 125c 913e e2c2 76be d70f 973e
00000260: 4dfd 463d 9e63 943e f10b 853e a379 7fbe
00000270: dc89 5e3e 60cb 213c 78d3 953d 288a d6bd
00000280: 42f0 6cbe 904d e23c 0879 a43d 40a8 143e
00000290: 75f4 77be 9404 8fbe bea8 0c3e 60b8 6cbd
000002a0: 7f1b d33c 9489 bbbd bc1c 993a f6d6 663d
000002b0: 6965 84be 4f11 ab3d c3c7 6d3d 5c77 013e
000002c0: 896e 09be b9b2 573e e89c 543e 575b fabd
000002d0: a269 813e e02c 183d d07c 823e f259 863e
000002e0: c870 393d 5836 3f3d e428 b93d 96d6 3d3e
000002f0: 9bf6 86be 00f4 ed3a 3233 8d3e 60b7 50be
00000300: b02e 25be 885a 923c bedf a73d aae4 1e3e
00000310: 0420 863c e17a 8b3d 7dae 18be 28a2 943e
00000320: 43b5 31be 4df7 413e 0300 223e 99be 803e
00000330: e4bc 513e 0fd1 c9bd d835 4e3e 6f38 57be
00000340: 223e 4d3e a77b 2abe ac79 54be 1b5c 3abe
00000350: 1ad3 923e 6c39 9b3d 8556 49be af37 5bbe
00000360: 5bf5 493d 37cc 6dbd c42c b23d bb64 2d3e
00000370: 7e75 3fbe 6164 7ebe f17c 2f3d fa71 483e
00000380: f240 2b3e 5188 17ba 8952 9dbd 99d7 173e
00000390: 78be 113e d44e 60be fb3b 0abd 036e 413e
000003a0: 8b37 593e 6802 973e a78f 7e3d c9b6 853e
000003b0: ce22 97be 6c2e 8c3d ecd9 563d 3934 413e
000003c0: c944 d0bb 1cad 5f3e 24d6 72be b861 27bd
000003d0: b722 c23d 8976 4e3e 58ed 263d 8657 1a3e
000003e0: dced d9bd 8afc 43bc ed5e 843e c0ed 1d3e
000003f0: 8212 5b3e 6192 81be b613 bcbb ff5d 79be
-0.20862344 -0.26829943 -0.12925811 -0.24023095 0.0033786972 -0.2892854 0.22760963 0.20938021
0.10412532 0.1797889 -0.04026695 0.17718604 -0.14478393 -0.075631164 -0.2583722 -0.017284876
-0.17520158 0.23813564 0.25198638 0.2400806 0.10829077 -0.16528681 0.26209784 -0.2390483
-0.17997074 -0.1547577 -0.10105576 0.063657545 -0.22874238 -0.22113225 -0.13748945 0.16389215
-0.21741718 -0.2880581 -0.28519747 -0.18411003 -0.015349673 -0.33291146 -0.14752677 0.0360363
0.059675477 -0.06870396 -0.029744934 -0.15153937 0.1453904 -0.07157251 -0.1770511 -0.07439359
-0.040329516 0.26691067 0.15044537 -0.11656344 -0.040954858 0.2550934 0.1854555 0.07197666
-0.10355249 0.24019992 0.123677164 -0.12856868 0.2525026 0.0033481708 -0.19469722 -0.0832427
-0.20943645 -0.2702219 -0.016410291 -0.21864372 0.15691413 0.1053144 0.06281965 0.2118699
-0.13094884 0.0043047965 0.17738253 0.099784255 0.0349755 0.24138874 0.06579062 0.19422963
-0.24878094 -0.24875444 -0.26055652 0.01634121 0.24497467 -0.25192216 0.11486384 -0.25475037
-0.19184314 -0.09843925 -0.11738604 0.08526546 -0.24205823 0.28546792 0.042084396 0.10063538
-0.25387922 0.195354 -0.053893052 -0.15354387 0.0451949 0.1380371 0.012514088 -0.13576208
0.022142325 -0.07585712 -0.10583745 -0.12184235 0.17653036 -0.21947643 0.12371841 0.15615863
-0.19460166 -0.22790076 -0.25598362 -0.25039107 0.23255284 0.2654998 -0.0045951237 0.27683192
0.034698628 -0.24346794 -0.24198288 -0.14370124 -0.29652107 -0.1247614 0.056541856 -0.029515477
-0.08019608 0.050137315 0.25075772 -0.0073227496 0.11916635 -0.07473028 -0.22794658 0.035733543
0.1304243 0.18530738 -0.27908513 -0.042549074 -0.27173942 0.024384556 0.02981849 0.13032305
-0.071155034 -0.06242183 0.05198362 -0.27761164 0.14942512 0.28390557 -0.2409778 0.29504272
0.04858141 0.28982252 0.25985673 -0.24948744 0.21732277 0.009875149 0.07315725 -0.1047557
-0.23138526 0.027624875 0.080308974 0.14517307 -0.24214347 -0.2793318 0.13736245 -0.05779302
0.025769947 -0.091571 0.0011681537 0.056357346 -0.2585862 0.08352911 0.058051836 0.12643188
-0.13421072 0.21064271 0.2076298 -0.12224453 0.25275904 0.03715217 0.2548585 0.26240498
0.045273572 0.046682686 0.090410024 0.1853889 -0.2636002 0.0018154383 0.2757812 -0.20382452
-0.16131091 0.017865434 0.08196972 0.15516916 0.016372688 0.06810547 -0.14910312 0.29029965
-0.17354302 0.18941994 0.15820317 0.25145414 0.20482212 -0.09854328 0.20137727 -0.21017621
0.20043233 -0.16648732 -0.20749539 -0.18199198 0.28676683 0.07579312 -0.19661911 -0.2140796
0.049306255 -0.058056083 0.086999446 0.16932957 -0.18697163 -0.24842979 0.042843763 0.19574729
0.16723993 -0.00057805056 -0.07681758 0.14828338 0.14232814 -0.2190507 -0.033748608 0.18889622
0.21212594 0.29494023 0.062148716 0.26116017 -0.2951874 0.06844792 0.05245392 0.18867578
-0.006355856 0.2184338 -0.237145 -0.040864676 0.094792776 0.20162405 0.040753692 0.1507245
-0.10641071 -0.0119620655 0.25853673 0.15422726 0.21393779 -0.2530699 -0.0057396544 -0.24352263

l1.bias f4 [400]
00000000: 1972 ffbd a289 ac3d aad8 7bbe 384d 70bd
00000010: 1055 ebbc 7b57 603e 9058 cabc 6310 03be
00000020: 8d52 febd 5985 443e 455f 8dbe c47b 2f3e
00000030: 1017 e13d 107a b8bd f265 963e 4e59 1d3e
00000040: 0d8a 203e 60fb 17be 701f 1c3e 934f e73d
00000050: e75a 3cbe 71fc f13d ace1 d6bd 6041 993e
00000060: b302 893e 7da1 1fbe e385 88be ec25 663e
00000070: 9de5 0bbe 243f f2bd 1af9 04be 79fd 923a
00000080: 74d6 66bd a868 9a3e a1af 9b3e 24fe 263e
00000090: 661d d8bd b021 5abe 1495 3bbe ac66 473e
000000a0: f058 873e 2009 9abc b4b3 603e c33f 5cbe
000000b0: 8163 963c 5027 23be 24bc 873d de6f d1bd
000000c0: e45b 05be 0882 213e 93a5 33be b6eb d73d
000000d0: 9713 82be d888 413d b2d7 3cbe d1df 0d3e
000000e0: a02c a1be ace6 8c3c 1670 6cbe cc29 6b3e
000000f0: 28f4 99bd 32bb 203e 59bf 7d3e 96f6 cfbd
00000100: 488b b13d 6432 67be 7428 873e c219 8abd
00000110: 8f7b acbd 011d 3c3e 2a85 7c3e 4d51 47be
00000120: d9d5 f4bc 80d8 bebd 2b31 623e 4262 973e
00000130: 87c6 9b3e a490 463e 62b2 3cbe f489 a23d
00000140: 97ee ddba f535 a43c 970a 4abe 8051 cdbb
00000150: bccb 893e b49c e63d 1aff 12be 2f67 ac3d
00000160: d72c 933c a19f 71be 66c6 1dbe 490c 3dbe
00000170: 9b24 213e 1c02 fbbd fe38 e23d f948 8c3e
00000180: 0352 883e 75bc 5fbd b2e3 9d3e 2da8 f1bd
00000190: 80bd ad3d e6f0 113e a2cf 12be 5709 7abe
000001a0: 8098 eebc 01ea 493e 1c51 94be 55e9 07bd
000001b0: b007 0fbd d4a3 efbd cb50 ca3b 6c93 3abe
000001c0: 4a44 453e e622 963e 4d21 913e 4cf7 da3d
000001d0: 8539 82bd 09b2 66be f120 39be 59eb 803d
000001e0: 00b9 013e 108a 38be 9957 233d cb77 46be
000001f0: 8e08 fcbd 3304 e1bd 313a 5cbe 2555 403e
00000200: b9f5 04be cbd6 7a3e 62c9 f0bc dec7 ad3c
00000210: a47d f5bd f559 6dbe 5558 7a3e 9893 aa3d
00000220: d495 313e a4ab b3bc 96d1 01bd 6468 123d
00000230: 427f 303d c0a5 563c fa2c b43e 9f65 523d
00000240: 9f73 0f3e 2f5c 7ebe 96ca 7ebe 6026 5c3d
00000250: 6f19 633e d2d4 4dbe d859 813c 6ac9 513e
00000260: 2e71 86be 3348 3c3e 901f 763c 1b88 cbbd
00000270: accc 04be 7026 4a3e 069d 32be 465a 7fbe
00000280: 8a6c 003e c0b4 833e ca00 a33e 67b6 34be
00000290: eee6 22bc ecb3 353e 7da4 053c 10ba 42be
000002a0: 9446 6f3e 63f0 363e 73b3 1dbe 2fd1 0b3e
000002b0: 621f fe3d 0c05 943c 7f21 b63d 98ad 88be
000002c0: e9d2 9bbd e5d9 e0bd 0f8f 1f3e a2f7 593e
000002d0: 2a98 2bbb 0493 683d aace 683d 108c 933e
000002e0: c746 03bd 1622 62be 5c53 363e f780 913e
000002f0: 3d0f 1c3e 75ff 8cbe 8db7 463d 0115 283e
00000300: f56d b4bc 0098 0d3b 01b5 97bd 3025 03bc
00000310: 1c83 5ebd 144e 963c 8047 823d 3ef7 45bd
00000320: a09f b5bc 79f1 81be 0a1b 26be 359b 813e
00000330: 7c63 8c3d 177a d1bc ce4b 9bbe c212 e0bd
00000340: 3ac0 d33d 6ee9 043e f022 ab3d 67a4 853e
00000350: 2e45 b63d 44fd b7bd 5492 42be 3250 59bd
00000360: f307 423b cda5 563e 488f 08be a40d e5bd
00000370: 522e 6f3e 941d 4a3d 9122 f63c 9377 8ebd
00000380: 8fc1 92be 9af5 f0bd 98ed 793e 4f0d 8c3e
00000390: 5e83 b23c 93c9 cdbc b27a f43d d1e1 233d
000003a0: 4ea0 68bd 39a5 00be 2eba 83be 4689 a5bd
000003b0: f595 153e 7ab9 593e ce35 2a3e 17e9 88be
000003c0: a7d4 8a3e ce31 84be 62cf cd3d f3e9 813e
000003d0: 3016 6d3d 08a0 56be c95b 373e e8c0 aabd
000003e0: ac1c fabd ecd2 81be 7da4 9b3d 64c2 3a3e
000003f0: cfc5 ba3d 90ac 6e3d 416f 92be 143d 673e
-0.12472934 0.08424689 -0.2459437 -0.05866739 -0.028727084 0.21908371 -0.024700433 -0.1279922
-0.12418089 0.19191493 -0.27611747 0.17137057 0.10990727 -0.090076566 0.29374653 0.15366098
0.15677662 -0.14841986 0.15246367 0.112944745 -0.18394051 0.118157275 -0.10492262 0.2993269
0.26759872 -0.15588947 -0.26664647 0.22475404 -0.1366181 -0.11828449 -0.1298565 0.0011214457
-0.056356862 0.3015797 0.30407432 0.16307884 -0.10552482 -0.21301913 -0.18318588 0.1947276
0.2643504 -0.01880318 0.21943551 -0.21508698 0.018357994 -0.15932965 0.06627682 -0.10226415
-0.13023335 0.15772259 -0.1754363 0.10543005 -0.2540557 0.047249645 -0.18441656 0.1385491
-0.3147936 0.017199837 -0.23089632 0.22965163 -0.07517272 0.1569641 0.24780025 -0.101544544
0.08669144 -0.22577816 0.2639805 -0.06743194 -0.084220044 0.18370439 0.24660173 -0.19464608
-0.029887127 -0.09318638 0.22089069 0.29567152 0.30424902 0.19391114 -0.18427423 0.07936469
-0.0016932067 0.02004526 -0.19730602 -0.006265819 0.2691325 0.112603575 -0.14355126 0.08418118
0.017965717 -0.2359605 -0.15407714 -0.18461718 0.1573662 -0.12256262 0.11046027 0.27399424
0.2662507 -0.054623086 0.3083778 -0.11799655 0.0848341 0.14252052 -0.14337018 -0.24417625
-0.029125452 0.19718172 -0.28968132 -0.033181507 -0.03491944 -0.117011696 0.006174182 -0.182203
0.19264331 0.293235 0.2834572 0.106916994 -0.06358627 -0.22528853 -0.18078972 0.06294889
0.12668228 -0.18021417 0.03987846 -0.19381635 -0.12306319 -0.10987129 -0.21506573 0.1878248
-0.12984361 0.24496 -0.029392902 0.021213468 -0.11986855 -0.23178847 0.24447758 0.083289325
0.17342311 -0.02193243 -0.031694017 0.035744086 0.043090113 0.013101041 0.35190564 0.051366445
0.1400895 -0.24839853 -0.24881968 0.053747535 0.22177671 -0.20100716 0.015789911 0.2048699
-0.26258224 0.18386917 0.0150221735 -0.099380694 -0.12968701 0.19741225 -0.17442712 -0.2493678
0.12541404 0.2572384 0.3183654 -0.17647706 -0.009942753 0.17744416 0.008156893 -0.1901629
0.23366767 0.17865138 -0.15400486 0.13654016 0.124083295 0.018068813 0.088931076 -0.26694942
-0.07608587 -0.1097906 0.15581916 0.2128587 -0.0026183226 0.05678083 0.056837715 0.28817797
-0.03204992 -0.22083315 0.17805237 0.28418705 0.15240188 -0.27538648 0.04851489 0.16414262
-0.022025088 0.0021605492 -0.07407571 -0.008004472 -0.054324254 0.018347777 0.06361294 -0.04833149
-0.022170842 -0.25379542 -0.16221252 0.25313726 0.06854913 -0.025570912 -0.30331272 -0.10941078
0.10339399 0.12979671 0.08356273 0.26101992 0.08899914 -0.089838535 -0.19001132 -0.053054996
0.002960679 0.20961685 -0.13335907 -0.11184242 0.23357514 0.049344614 0.03004578 -0.06956401
-0.28663298 -0.11765595 0.24407041 0.27353904 0.021791156 -0.025120532 0.11937465 0.040010277
-0.056793503 -0.12563027 -0.2572798 -0.080828235 0.14607985 0.2126216 0.16622087 -0.26740333
0.27115366 -0.25819248 0.10049321 0.25373802 0.057882488 -0.20959485 0.17906107 -0.08337575
-0.122125 -0.25356233 0.07599733 0.18238217 0.0911976 0.058270037 -0.28600505 0.22581893

l2.weight f4 [300, 400]
00000000: a2b4 3abd 7e49 99bc c6da 4bbd 5f59 47bd
00000010: c693 8a3c 6035 13bc 33f1 49bd ebe8 0d3d
00000020: 8e52 313d 321f a93c 023c ca3c 2d6d 53bd
00000030: 492e 383d c745 ecbc 7518 013d b3b9 d6bc
00000040: b00b a1bc e740 1c3d 999c 0a3d 29ba 0a3d
00000050: 4f29 4fbb cd9b 3dbd 6745 e7bc f5e8 9a3b
00000060: 7208 dcba a499 3b3d cfaa 323d 88ab 253d
00000070: 2396 dfbc bd37 c1bb fc93 573c bcb5 2a3d
00000080: 63fa e0bc d82b e7bc 6282 32bd efaf cabc
00000090: 6c13 42bc 83f6 0cbd 5607 fabb 0435 023c
000000a0: ed86 8d3c 2380 13bd c9ca 143d e2c3 04bd
000000b0: 19f5 203d 931e 7fbc 6152 54bd 40d7 e7bb
000000c0: d6d4 c73c 03f0 32bd 5347 dabc ce56 30bc
000000d0: 1d69 b7bc 651f 1b3d 5634 e13c 09bd 353d
000000e0: b0df 313a 58fa 44bd a30b 21bd f09d d4bb
000000f0: a003 c1ba 5117 2d3d 50d3 113d 9c2d 8fbc
00000100: eca9 29bc 1d66 48bc be43 953c c0ae 54bc
00000110: 11bb 663b 9261 ca3c 9b13 1a3d 7028 c1bb
00000120: a079 0dbd 6f9b 3fbd 8e5e cd3c c0d7 90bc
00000130: cb01 3a3d 80db 0cbb 42b4 fb3c 5030 46bd
00000140: 2bd9 25bd 5c74 a03c d09b bbbb 06a6 22bd
00000150: 5100 0ebc 502f 87bc 9b26 2fbd 801a 0a3b
00000160: 9116 0dbc 9ed9 f03c 3076 213b 6cce 743c
00000170: 5c46 35bd 0b7e 44bd b172 0a3d ccca b03c
00000180: 66c7 4ebd db6a 383d 3296 fc3c b713 ecbc
00000190: b8b0 143c 7758 cfbc 38ab 373d 157c 143b
000001a0: 7b6a 003d 8b03 3abd 14ca cd3c 242a 78bc
000001b0: a128 3b3d 599f 383d d4af 43bb d0b3 1b3d
000001c0: 7e41 e93c a7d7 b4bc e83c b7bb d493 423c
000001d0: 8aef d4bc ed06 333d 5074 82bb e9a9 c93c
000001e0: abc0 03bd 426b 383b a0cb 013c 5a49 af3b
000001f0: f0f9 43bd 76b1 11bd f247 dc3c 511d 99bc
00000200: acc5 14bd 9d53 80bc d4d7 533c 6b26 38bd
00000210: d038 f5bb 6313 f8bc 6eba a9bc f2eb d13c
00000220: d1e4 463d 7a54 2a3d 5053 6dbb aabd debc
00000230: 065d 2b3c 3025 acbc a631 8d3c 2ab3 bf3c
00000240: 278e 3e3d 8321 31bd c2a9 d13c 5f98 423d
00000250: d091 f3bc 1eed 0abd 8ccb 07bd a414 a3bc
00000260: 1527 20bd 848b 45bd 4a77 9f3c d6d7 af3c
00000270: fd6f 013d a877 f83b 7661 e3bc beac c83c
00000280: 9d2d afbc 2694 283b c016 6dba 0530 33bd
00000290: 0fe3 2a3d 5785 3e3a 425a 933c 807e 83bc
000002a0: 285c 48bb 432b 3bbd 2bb7 053d 0873 9cbc
000002b0: e01a 94bc 1a87 5838 9baa 8c3c bdab abbc
000002c0: e7ea 2dbd e413 bfbc ebdb 0b3d ac5d 22bd
000002d0: c8da febb d76d b0bc ae96 c4bc 05c2 42bd
000002e0: e0eb 2d3c a007 e6bc 682c b83b a3bc ef3c
000002f0: 41d8 efbb a540 35bd 7b3b 073d 0ecb e43c
00000300: 61aa a43c 605b 2b3b 74b3 42bc e496 37bc
00000310: a0de 12bb bb25 36bd ff05 2a3c c9ee 083d
00000320: f2c5 9a3c 0ada 193d dbda 5f3b e0ac 18bd
00000330: a003 b43a af71 e83a e23a 01bc 3478 7bbc
00000340: d2bf 40bd 087a 0c3c 70f6 80bc e781 42bd
00000350: c4c1 133d c1ed 0b3d 171c 1e3d c3f7 f0bc
00000360: 7c8e 96bc 6ab2 45bd 69ba 373d 4a6e 9c3c
00000370: 0e02 8b3c a7f7 2c3d 55f6 35bd ddc6 32bd
00000380: 034a 10bd 1887 16bd 3433 5a3c d837 15bd
00000390: 4139 98bb dbd0 42bb a1de 813c 5633 26bd
000003a0: 4c8a 39bc acde 49bd 4178 18bd d96d 2f3d
000003b0: 80c7 53bd 9b48 013d d892 e6bb 24db 8ebc
000003c0: dffe 203d 15b9 33bd 1a2a acbc c01b 263d
000003d0: 2aaa 903c 80ee a339 0dce a2bc 8e72 24bd
000003e0: 0adc 0b3d 1763 223c 8ca1 48bc 559d 373d
000003f0: 9713 3fbd 1dc8 2e3d 00bd 02bc 527a 203d
-0.04558242 -0.018711802 -0.049769185 -0.048669215 0.016916167 -0.008984894 -0.04930229 0.034645956
0.04329162 0.020644758 0.024686817 -0.05161779 0.044966016 -0.028841866 0.031517465 -0.026211595
-0.019658893 0.038147833 0.03384075 0.033868942 -0.0031610315 -0.04629116 -0.028231336 0.0047274777
-0.0016787185 0.04580082 0.043619927 0.040446788 -0.02729327 -0.005896537 0.013157841 0.04167722
-0.027463144 -0.028219149 -0.043581374 -0.024742095 -0.011845451 -0.03441478 -0.007630269 0.00794721
0.017276252 -0.036010873 0.036326203 -0.03241337 0.039296243 -0.015571254 -0.051836375 -0.0070752203
0.02439348 -0.043685924 -0.026645338 -0.010762883 -0.02238899 0.037871737 0.027490776 0.04436973
0.0006785346 -0.04809031 -0.03931774 -0.006488554 -0.0014725812 0.042258564 0.035601914 -0.017477803
-0.010355454 -0.012231377 0.018220779 -0.012981117 0.0035206715 0.024704728 0.037616353 -0.005894713
-0.03453982 -0.046779092 0.025069501 -0.017681003 0.045411866 -0.0021493137 0.030725602 -0.04838592
-0.04049031 0.019586734 -0.0057253614 -0.039709114 -0.008667068 -0.016502053 -0.042761426 0.0021072924
-0.008611337 0.029400643 0.0024637096 0.014941793 -0.044256553 -0.047971766 0.033800784 0.021581076
-0.05048313 0.04502378 0.030833337 -0.028817995 0.009075336 -0.025310738 0.04484102 0.0022656966
0.031351548 -0.045413535 0.025120772 -0.015146766 0.045693044 0.04507384 -0.002985944 0.03801328
0.028473612 -0.022075487 -0.0055919774 0.011876065 -0.025993127 0.043707777 -0.0039811507 0.024617152
-0.032166164 0.0028140103 0.007922083 0.0053493204 -0.04784578 -0.03556963 0.026889775 -0.018690737
-0.036321327 -0.01566487 0.012929875 -0.044958513 -0.007483579 -0.030282682 -0.02071878 0.025625203
0.04855806 0.04158447 -0.0036212988 -0.027190048 0.01045919 -0.021013826 0.017235588 0.023400862
0.046522286 -0.04324485 0.025593642 0.047508594 -0.029732615 -0.03391754 -0.0331531 -0.019907303
-0.03909977 -0.048228756 0.019466061 0.021465223 0.03160094 0.0075826235 -0.027756434 0.024496432
-0.021384055 0.002572307 -0.00090442225 -0.043746967 0.041720446 0.0007267794 0.017987374 -0.01605153
-0.0030572508 -0.045695554 0.032645386 -0.01909782 -0.018079221 5.1624236e-05 0.017171195 -0.020955915
-0.04246035 -0.023324914 0.034145277 -0.039640114 -0.0077775456 -0.02153675 -0.02399763 -0.047548313
0.010615319 -0.028079808 0.005620528 0.029264754 -0.0073194806 -0.044251103 0.03301571 0.027928855
0.020100774 0.0026146993 -0.011883605 -0.011205409 -0.0022410527 -0.044469576 0.010377406 0.03343085
0.018893216 0.037561454 0.0034157548 -0.03727424 0.001373399 0.0017734076 -0.007887574 -0.015348483
-0.047057934 0.008574016 -0.01574251 -0.047487166 0.03607346 0.034162287 0.038601007 -0.029415017
-0.018378489 -0.048265852 0.04485551 0.019095559 0.016968753 0.042228367 -0.044424374 -0.043646682
-0.035226833 -0.03674993 0.013317872 -0.03643021 -0.004645497 -0.0029726538 0.015853228 -0.0405763
-0.011324476 -0.049284622 -0.037224058 0.04282937 -0.05170393 0.031563383 -0.007036548 -0.017438479
0.039305564 -0.04387768 -0.02101617 0.04055381 0.017659266 0.0003126748 -0.019873643 -0.04014831
0.034145392 0.00991132 -0.012245547 0.044827778 -0.04664954 0.04267131 -0.007979631 0.039179154

l2.bias f4 [300]
00000000: 5b2a 7cbc d9ee 203d a492 5cbd 46ae bfbc
00000010: 0e84 273d b555 c53c 0007 8dbc 2685 973c
00000020: c6d3 bf3a 6bd2 6abc ba69 d0bc b26e 40bc
00000030: d453 e2bc a8c3 96bb f435 843c e937 013d
00000040: 9064 57bd 5588 41bd 9aaf 8bbc 1b28 133d
00000050: 6c3a c5bc e6e3 a33d 7c2c 673d 6e11 21bd
00000060: 27e8 74bd 6cc2 dd3c 621b 5fbd 7770 1cbc
00000070: 9e30 11bd dfc5 a73c aae6 d3bc 0618 04bd
00000080: 0c8a 5dbc 2925 ae3b f505 993c 4405 0e3d
00000090: d87a 4dbc d3d8 233d 55aa 8fbd 3fa6 8a3c
000000a0: feab 9f3a 90c3 a8bb 3468 a5bb d19d b13c
000000b0: 60c7 f13c b5b2 0abd c258 2bbd 63d6 febc
000000c0: 5284 3a3d 99bf 07bd 0e79 3d3d 2148 453d
000000d0: bcf9 873c 08f3 273c 8549 97bc a269 ccbc
000000e0: 1cca c83d 113c 84bc 67b0 ecbb a7bc 913d
000000f0: 434b cdbc c682 8dbc bffa 3d3d 001a 95b9
00000100: b069 89bc 1572 253d 4d94 9a3c ea10 4cbd
00000110: 00ba 353c 047a 3abd 3abd e63c 4839 53bc
00000120: a0b4 673d a070 1b3c aeac 02bd fd9a 0ebd
00000130: ea86 46bd 2f5a 9c3c 4615 ec3c 8901 37bc
00000140: 6002 eebc 1f3c 16bd 90ba 80bb 0ff0 1cbd
00000150: 432c debc a28a 36bd 00c2 88bc f9ae 37bd
00000160: 4305 2cbd ee57 423c a255 cf3c c789 033d
00000170: 084d 9dba da96 873d 104f a73d 0c5a 39bd
00000180: 9a78 2cbd 85c9 d3bb 9b73 b03c c05d aabc
00000190: 1368 ddbc 4aee 643c adea 543d fbc4 403d
000001a0: c980 d83c f98d 773d e0ef 483d 8973 c0bc
000001b0: 3d52 ca3b 0268 12bb 3607 de3d 818d 2c3d
000001c0: a8d2 503d 625a 3bbd 0c9a 4dbc 60a8 563c
000001d0: c836 e5bc fc51 adbb 8619 1fbd f4a8 22bd
000001e0: 3486 5dbd ca0b ed3c 7840 66bc 3f78 adbb
000001f0: 1d1c 073d 57dd 05bd 8b0f 7b3b 4f6d bfbc
00000200: efe8 01bd b6a3 04bc 9911 1bbd f7b2 6abc
00000210: c2a4 4bbd 9945 8a3c 1c10 693c 25ad 1e3d
00000220: 47aa dfbb 8da0 f3bc 13a1 673c f939 c53c
00000230: 9627 9a3c 820b 0d3d f8eb b0bc 73ca d8bc
00000240: d74b d8ba 9f14 3c3d d8d5 3bbc e9a0 4d3d
00000250: ccf0 653c 1fa7 d1bc 6d42 a53b 47a9 e83c
00000260: 996b 5ebb 25d7 383c 5d30 05bd 0a05 233d
00000270: 609c 2fbd 71c9 3f3d 32a4 f33c fa6f b73a
00000280: 6857 e13d b366 c7bc b44b a23b b9eb 6dbc
00000290: ee66 27bd 03b2 ac3c 59b8 6dbd b465 14bd
000002a0: 550e 17bd 00ec 11b8 7328 2e3d c6ab 9abb
000002b0: 1db8 c3bb 583e cc3c 91d8 513c 153a 503c
000002c0: 87c0 c5bc 70d4 19bd 5ffc ac3b 95d4 1dbd
000002d0: b48d e83a 87f4 e4bc 8e5f 133c e77c 52bc
000002e0: 55ba 00bd 5266 54bd 3f7d 183d c8d0 863c
000002f0: 7a25 cf3c 039a 12bd 7be9 33bd b792 e0bc
00000300: 47fe 023c 3a7a 1bbd 78d5 19bc 518f 01bc
00000310: 73cd e8bc 1ec2 263d 62b9 2c3c 92f3 6a3d
00000320: e6fe f53b 4295 be3c 867a 62bc 864c ea3a
00000330: 68fe 88bb e7a3 dd3c 5bc2 fc3c 512c 4cbc
00000340: 983e 8f3d f0c4 5bbd c293 4bbd c41e 8d3d
00000350: 4a05 bdbc 74df 7fbc 731b 393c 0cbf 77bc
00000360: b0c2 88bb b9f5 003d 6dd2 043d 1738 e7bc
00000370: 14aa 8abc c3f8 353d facc 11bd 209a ef3b
00000380: 02c6 f3bc b145 da3c e197 fe3c 75e0 8bbb
00000390: 91cb 4ebd 9d15 56bd f8f8 73bc 2664 d43c
000003a0: 6575 d03a 8c23 1ebc d106 01bd 1259 98bc
000003b0: 6025 1bbc 5b28 b4bc 051d dbbc 3eb9 20bd
000003c0: e4e9 e13c 14b6 0f3c 302c 24bd e1dc c3bc
000003d0: 910a 5dbd 0598 46bd 7bd8 333d fad2 9abc
000003e0: e48b 693d 3a43 bb3c efb3 47bd 09fd a73c
000003f0: be06 da3c 6225 39bd d2ab 853c c3ab 3cbd
-0.015390958 0.039290283 -0.053850785 -0.02339853 0.04089742 0.02408872 -0.017215252 0.018496107
0.0014635257 -0.014332394 -0.02544104 -0.011745142 -0.027627863 -0.0046009608 0.016139008 0.03154746
-0.05258614 -0.047249157 -0.017051507 0.03592692 -0.02407571 0.080024526 0.056438908 -0.039323263
-0.05979171 0.027070247 -0.054469474 -0.009548298 -0.035446756 0.020480094 -0.025866825 -0.032249473
-0.0135216825 0.0053144884 0.018679598 0.03467299 -0.012541495 0.0400017 -0.0701491 0.016924975
0.0012181995 -0.005150266 -0.0050478224 0.021681698 0.029514015 -0.033861835 -0.041832693 -0.031108087
0.045536347 -0.033141706 0.046258025 0.04816449 0.016598575 0.010250814 -0.018467674 -0.024952713
0.09804174 -0.016141923 -0.0072231772 0.07116061 -0.025060302 -0.017274272 0.04638171 -0.00028438866
-0.016774029 0.040392 0.018869543 -0.049820818 0.011091709 -0.04552652 0.028166402 -0.012892075
0.05656874 0.009487301 -0.03190296 -0.034815777 -0.048468508 0.019085972 0.028818738 -0.0111698
-0.029053867 -0.03667843 -0.00392849 -0.038314875 -0.027120715 -0.044565804 -0.016694069 -0.0448446
-0.041997205 0.011861784 0.025309388 0.032113817 -0.0012001107 0.066205695 0.08169377 -0.04525189
-0.042107202 -0.006463232 0.0215395 -0.020796657 -0.027027166 0.013972828 0.051981617 0.047062855
0.026428597 0.06043813 0.049056888 -0.023492591 0.0061743543 -0.0022339826 0.10841219 0.042127136
0.050982147 -0.045740493 -0.012548935 0.013101667 -0.027980223 -0.0052893143 -0.0388427 -0.039711908
-0.054083064 0.028936286 -0.0140534565 -0.0052938755 0.032985795 -0.03268179 0.0038308825 -0.023367552
-0.031716283 -0.008095672 -0.03785858 -0.014324895 -0.049717672 0.01687889 0.014225032 0.038739342
-0.0068257186 -0.029739643 0.014137524 0.024075495 0.018817704 0.034434803 -0.021596894 -0.026463723
-0.0016502094 0.045918103 -0.011464559 0.050202284 0.014034461 -0.025592385 0.005043319 0.02840103
-0.0033938645 0.011281763 -0.032516826 0.039799727 -0.04287374 0.04682297 0.02974138 0.0013995164
0.110029995 -0.024340963 0.004952872 -0.014521533 -0.040869646 0.021080976 -0.058037136 -0.036229804
-0.036878902 -3.4790486e-05 0.042519044 -0.004720184 -0.0059728757 0.024932072 0.012807981 0.01270916
-0.024139656 -0.03755611 0.0052791084 -0.038532812 0.0017742426 -0.027948631 0.00899495 -0.012847162
-0.0314277 -0.051855393 0.03722882 0.016456977 0.025286425 -0.03579141 -0.043923836 -0.02741371
0.007995195 -0.03795836 -0.009389274 -0.007907704 -0.028418278 0.04071247 0.010542246 0.057361193
0.007507193 0.023264531 -0.013823157 0.0017875589 -0.004180718 0.027055694 0.030854395 -0.012461738
0.06994361 -0.05365461 -0.04970146 0.06890634 -0.023073811 -0.01561724 0.011298048 -0.015121233
-0.004173599 0.03148434 0.03242724 -0.028224988 -0.016926803 0.04442669 -0.03559587 0.0073120743
-0.029757503 0.02664456 0.03107828 -0.0042687007 -0.050487105 -0.052266706 -0.014890902 0.02592666
0.0015904127 -0.00965203 -0.03150064 -0.01859716 -0.00946936 -0.0219919 -0.026747236 -0.03923916
0.027577348 0.008771438 -0.040081203 -0.023909034 -0.053965155 -0.04848482 0.043907624 -0.01889943
0.057018176 0.022859205 -0.048755582 0.020506399 0.026614543 -0.045201667 0.016317282 -0.046062242

l3.weight f4 [6, 300]
00000000: 72c4 473d d468 8dbc b710 b0bb da42 283d
00000010: d8d7 cebb 2ec1 6a3c 4635 583d 4a07 8c3c
00000020: 1328 8fbb 3620 673d e220 993c e2d9 19bb
00000030: 46f3 d4bc 6099 593d 59a0 3fbb e057 c0bc
00000040: 114a 4039 cbf8 083d 6a0c 083d b083 443c
00000050: 3703 803c a9df 803d 2da9 babc 9983 033d
00000060: 9326 2abd 5d8e 35bd 059a 0ebc a5ff 083b
00000070: c861 223d 69a0 43bb 22f3 f2bc 190e 3cbd
00000080: 48ca 9c3c 8e3c 083c f0eb 0dbc 73da cd3c
00000090: 4756 02bd b9c9 8ebc c2f0 6e3c e88f 0fbd
000000a0: 3810 5ebc fe5d 46bb eba8 113d 507b 58bd
000000b0: 4239 3a3d fb89 163d e799 403c d07b 63bb
000000c0: 9cb9 a2bc d24a 2d3d ac0d 1fbd 49f4 bc3c
000000d0: eb51 e33b d4c1 0fbd a132 f3b8 281a 67bd
000000e0: 1a65 9a3d 6e15 24bd 0779 d8bc 8d36 963c
000000f0: 3e24 0c3a 39e6 2dbd 1a67 bd3b 98e3 14bd
00000100: 1808 f93c bb7d 323d c03f b9bc c0b2 1dbc
00000110: efb0 5fbd c99d 8c3c aaa8 d5bc b705 e6bc
00000120: 4103 6abd 1405 adbc 3028 043c 75e6 5dbd
00000130: ccae 2f3d 0e87 2abd c056 fc3b ce86 1ebd
00000140: 6d34 8c3d 9894 493d 0484 4c3d d3c4 123d
00000150: 8842 e4bb 388b 63bd e2c4 1fbd 1c8c 4cbd
00000160: 79df 19bd ed45 1a3d 0026 c139 fb51 43bd
00000170: a878 493c cd0d f33c 0c57 8b3c 9ce4 cdba
00000180: c12a 603c a45e 1bbc e1e4 6ebd d2d5 f8bb
00000190: 1693 c6bc e270 07bd fe43 763d d0ea 303c
000001a0: 4b4c 5ebc ae9b 773d 906f 3fbc 81ee d83b
000001b0: 5996 50bd 6884 333d 10b8 183d f6b2 363d
000001c0: 38b2 3c3d 35be 063d d483 9a3c 7e3e 19bc
000001d0: 4d07 32bd f062 073b 526d f4bc 7622 d0bb
000001e0: 4068 1cbd 857d 7d3d 368b 5b3d 9db2 8e3c
000001f0: 5170 0dbb e9fa 56bd 32f1 333d ee48 89bc
00000200: 1580 24bd 4b70 043d 665b 44bd b8bc 12bd
00000210: 7070 943c e1e9 35bd 60a3 e53a 8b39 f6bc
00000220: 6313 1ebd 22f2 b13b 238b a5bc 013f 3dbd
00000230: 9c0b a43d 3886 363c e0b1 8abb b152 22bd
00000240: ae07 5f3d f81d 253c 959c 8f3c 0d45 ac3a
00000250: 3cda 2a3d edb6 6fbc a2e6 033d 82fa 1c3d
00000260: 1403 273d ecf9 a53c f55f 98bc e089 e43c
00000270: 64d3 2a3b 8a45 bd3b 3aba 33bd a46f 283d
00000280: be80 873d 99ef ebbc 9781 fc3c 6896 4c3d
00000290: 98ae a1bb f4e3 dbbc e7e0 0f3d 7d01 4b3d
000002a0: 8341 44bd 38fc 683d 21ca 4dbd 328c cdbc
000002b0: 2189 27bd 133a b33b ec6e 3dbd 0bc5 943d
000002c0: 64fa 273d 3c98 143d a03d 353d 68bd e4bb
000002d0: 38bd 7d3c 88af a4bc 0933 68bc b3f6 113b
000002e0: e33b 81bd f0c4 bbbc 9c10 8abc 7bfb 55bc
000002f0: 76ce b5ba c878 dbbc f17f 70bc 482f aa3c
00000300: 7877 193c e3ca ca3b e0ad bcbc 6c15 6b3b
00000310: 2e7a c3bc 5285 253d 1b21 d3bb 9027 1fbd
00000320: e462 82bc 848e 693d 8f18 bb3c edb9 a33c
00000330: eaf2 97bc 8a59 aa3d 20e1 8a3d 3ac8 aabb
00000340: e147 193c 2e19 bebc 5599 efbc 7cbe 1b3d
00000350: 8c59 26bd fed3 35bd 467f c9bc 0203 3f3d
00000360: e008 d63a 005a 563c 16ec 533d b82c 263c
00000370: 5488 0b3d 7a14 84bc 4cf9 20bc 5f94 183d
00000380: e85d 71bc 8970 f6bc 76be a7bc dd46 193c
00000390: 47df debc 601b dfbc 844e 84bc 4640 76bb
000003a0: bfac aa3c 004d 24bb e934 073d cbd4 81bc
000003b0: 668d 713c 8163 2f3d 36c3 13bc 7e54 423d
000003c0: eb5a 7a3d da88 193d afc9 2a3d 456e a03d
000003d0: 2cd3 14bc 986c b83c 68a0 c4bb f040 ca3c
000003e0: c0bf 443d 8043 6c3c 517a b3bc 123e 513d
000003f0: 6696 f0bc ecb3 04bd 148b 613d 7092 c53c
0.04877133 -0.0172619 -0.0053730863 0.04107938 -0.0063123517 0.014328284 0.05278518 0.01709332
-0.004368791 0.056427203 0.018692438 -0.0023475816 -0.025994908 0.053124785 -0.0029239862 -0.023479402
0.00018338139 0.033440392 0.033214964 0.011994287 0.015626533 0.0629266 -0.022785747 0.032107923
-0.041540693 -0.04432522 -0.008703713 0.002090433 0.039644033 -0.002985025 -0.02965695 -0.045911882
0.019139424 0.008315219 -0.008662209 0.025128579 -0.03182056 -0.017430173 0.014583768 -0.03504935
-0.013553672 -0.0030268426 0.035561483 -0.052851975 0.04546476 0.036752682 0.011755443 -0.003471125
-0.019863896 0.042307682 -0.038831398 0.023065703 0.0069372556 -0.03509696 -0.00011596573 -0.05642143
0.07538815 -0.0400595 -0.026424898 0.018336559 0.00053459767 -0.042455886 0.005780113 -0.036349863
0.030399367 0.043576937 -0.022613406 -0.009625137 -0.054612096 0.017165082 -0.026081402 -0.028078897
-0.05713201 -0.021120586 0.008066222 -0.05417486 0.04289131 -0.041632704 0.007700771 -0.03870278
0.06845937 0.049213976 0.049930587 0.035832237 -0.006965939 -0.05555269 -0.03900612 -0.049938306
-0.037566636 0.037664343 0.0003684014 -0.047685605 0.012296833 0.029669667 0.01700928 -0.001570839
0.013682068 -0.009483013 -0.058323745 -0.0075938487 -0.024240058 -0.033066638 0.060123436 0.010798171
-0.013567994 0.060451202 -0.011684313 0.0066202288 -0.050924633 0.043827444 0.03728491 0.044604264
0.0460684 0.03289624 0.018861689 -0.009353278 -0.043463994 0.0020658337 -0.029837284 -0.0063517643
-0.038185358 0.061887283 0.05359956 0.017419154 -0.0021581838 -0.05248538 0.043931194 -0.016758408
-0.04016121 0.032333653 -0.047938727 -0.035824507 0.01812002 -0.044412497 0.0017520003 -0.030056736
-0.038592707 0.005430476 -0.020207947 -0.046202663 0.08010027 0.011140399 -0.00423263 -0.039629642
0.054450683 0.010077946 0.017530719 0.0013143137 0.04171203 -0.014631015 0.03220237 0.03832484
0.04077442 0.020260774 -0.018600443 0.027897775 0.002606594 0.005776112 -0.04387877 0.041122094
0.066163525 -0.028800773 0.030823512 0.049948126 -0.0049341433 -0.026842095 0.035126593 0.049561966
-0.04791404 0.05688116 -0.050241593 -0.025091264 -0.04090226 0.0054695695 -0.04624836 0.072641455
0.041010275 0.036277995 0.044248223 -0.006980587 0.015487008 -0.020103231 -0.014172324 0.0022272288
-0.063102506 -0.022921056 -0.016853623 -0.013060446 -0.0013870734 -0.026790991 -0.014678941 0.020774499
0.0093668625 0.0061887368 -0.023032129 0.0035870923 -0.02386197 0.040410347 -0.0064431555 -0.03885609
-0.015916295 0.05702068 0.022838859 0.019986117 -0.018548448 0.083178595 0.067812204 -0.005211857
0.009355516 -0.023205366 -0.02924792 0.038023457 -0.040612742 -0.044391625 -0.024596822 0.046633728
0.0016329549 0.013082981 0.05173882 0.010142498 0.03406556 -0.016123045 -0.009825062 0.037250873
-0.014731862 -0.030082958 -0.020476561 0.009355274 -0.027206076 -0.027234733 -0.01615072 -0.003757493
0.020834325 -0.002507031 0.033009443 -0.015848538 0.014743185 0.042819504 -0.00901871 0.04744386
0.061121862 0.037484027 0.041696247 0.07833532 -0.00908355 0.022512719 -0.006000567 0.024689168
0.04803443 0.01442039 -0.021908911 0.051084585 -0.02936859 -0.03239815 0.055064276 0.024117678

l3.bias f4 [6]
00000000: 76a7 2e3d 3024 f73c 33ed 693a afb0 4e3b
00000010: ab02 1dbb 0e70 a73c
0.042640172 0.030168623 0.000892359 0.0031538417 -0.002395789 0.020439174
