average data/Average_TD3_40_Peg-in-hole-triple_assembly_seed_1/_actor.pth (torch_old, 510312 bytes, 6 tensors)

l1.weight f4 [400, 12]
00000000: d536 303e ca75 e7bd 4f54 49bd c5d9 113e
00000010: 3d05 93be c6f7 1e3e 0f7e 9bbc 124e 443e
00000020: f333 c23c 3c0f 403c 2c7e 3f3d dde8 cd3a
00000030: 8b7f 093e 48f4 13be dfc7 26bd e74d 8dbb
00000040: 7d77 2d3d a97a bab9 ae68 a93e 2899 493e
00000050: e5bd b7bc 0a5f 63be 54a2 b1bd 85c7 30be
00000060: 8010 babd d50b 92bb ef59 1f3e b323 203e
00000070: e8c3 8bbe 3414 3e3e 2f88 bb3d fca9 8f3e
00000080: 9c84 563e 41d9 94be 1093 93be 29a6 0fbe
00000090: 6568 8d3e 78ed 3bbd 5a38 c73d 5e7f 09be
000000a0: 16df 903e 5838 f9bd 15eb 773e 5487 333c
000000b0: 5a3b 03be 8420 223e 490c 2abe e039 c33d
000000c0: 4212 9ebd 33fc 70bd 613f 96be db26 f0bd
000000d0: 387e 273e afbc 6dbd 8b54 9e3e 3dd4 af3e
000000e0: 10a7 343d fc8b 59be 8162 2d3e 2ff3 ed3d
000000f0: 7615 3fbe ee01 403e 1876 333e a615 833e
00000100: 0bb4 25be e0a1 42bd 803e b7bb 48b3 2c3d
00000110: ba56 60be 49c4 51be 40cf 203e 1aa2 8abd
00000120: 59a6 283e 18a8 293d 4e5f f83d 0c80 7a3d
00000130: c4f1 d13d fc4d 123e c7c5 76be aebd f43d
00000140: 72c0 6abe 9f8a 55be bfa9 9fba 5739 89bd
00000150: 0a4d 423e a136 2abe 3242 83be 1d08 5e3e
00000160: dc45 65bd 4aad 113e 1e35 b23d acc8 84be
00000170: c4b2 0fbb 4e64 093e 9f7e 6dbe ff78 dbbd
00000180: a882 c93d 980f 733d e528 d0bd cda9 d6bd
00000190: 2aa1 873e 641b 21bd 7d22 1e3e d0ba be3d
000001a0: b5a9 40be ffdf 74be 858d 883e 4024 e03b
000001b0: 3904 493e 386a 7d3d 8722 c73d 86d1 603e
000001c0: efdd 8d3e 4814 52be 1b47 3a3d 2c6a 4d3e
000001d0: b2c1 503e 0ab7 273e 02e1 4abe 31e5 81be
000001e0: c5f3 1fbe b2f7 503d 5342 8f3e 8dd8 3bbe
000001f0: 5248 1c3e d2ff 22be 3d33 8abe dc55 86bd
00000200: 39f4 353e 6c6c 8b3e 3b2d 38be 4383 7a3d
00000210: b413 7f3e e6e2 433e cd35 383e bc10 523e
00000220: 54f9 3a3e e0b4 983d 6c22 4abe 8c3e 78be
00000230: e670 07be 67b0 09bd d330 35be 614b d83d
00000240: 4e30 523e 6458 31be 522a afba 812e 2b3e
00000250: 449e 083e 3f1c 4f3e 73b6 41bd 7196 b23e
00000260: 28bb f3bc 14f2 cf3d 9a95 8cbe 5995 2bbe
00000270: 48b1 2cbe 66df fcbd 3c2a 523e f431 c1bd
00000280: 18e6 5cbe 7877 e33d 5049 bd3d a275 3f3e
00000290: 6cf7 18be b82e 803d aa3a d7bd 46d4 84bd
000002a0: 3d2e 63be d4e4 f2bd f2d2 a6bd 8c94 193e
000002b0: e2dd 583d 1efe 423d b4a7 8c3e 5e23 9a3e
000002c0: f4c9 2a3e 1b10 2a3d 24cc 64be 9075 843e
000002d0: 582f 84bd ebae 14bd 8e5c 82be 1eec 70bd
000002e0: b1d8 43be 076f 893e d429 89be 12bd 79be
000002f0: cf88 72bc da3f 1cbe d9b1 f33d fb32 a6bd
00000300: 5296 1dbe 1a35 92bb 17ce 633e 3b33 4dbe
00000310: ed4a 0b3e d8f2 3b3e ac92 8b3e 0686 47be
00000320: ddbb 7d3d 6eaa 4dbe 0647 733e 6695 c8bd
00000330: 0e7c 293e 588e c53c 6820 ca3a 72fa acbc
00000340: aaf0 553d 26c8 083e d68f 683d 110b 903d
00000350: 193f 70be cc58 413e bafc 723e ef96 6a3e
00000360: 6757 3f3e 97fd 6abe 691f d4bd fcdb 953e
00000370: 897d 4abe f7d3 813e 2464 8abe 62b6 ecbd
00000380: c2eb 2f3e 4252 57be 4b5a e1bc ad28 873e
00000390: 2fab 793e e5b5 853e e035 81bd c900 7bbe
000003a0: 27d1 8c3e ede4 45bd baa9 e8bd 4b78 583d
000003b0: 6dfd 41be ea03 323e a750 403e 6c6a 70be
000003c0: fbe2 72be 9c28 d0bc 4b6b f73d def7 08bc
000003d0: 9ae4 15be 8640 d83b 4d13 8bbe c8df 50be
000003e0: 3492 44be b66e 733e a84b 823e 47c7 c8bd
000003f0: a1aa 7e3d 69ee ab3d 21a2 d93c b326 bbbd
0.17208417 -0.11301763 -0.04915267 0.14243229 -0.28714934 0.15524206 -0.018981008 0.19170406
0.023706412 0.011722382 0.046751186 0.0015709657 0.1342756 -0.14448655 -0.040717956 -0.004312265
0.04235028 -0.00035568074 0.33087677 0.1968733 -0.022429416 -0.22204223 -0.0867354 -0.1726361
-0.090851784 -0.004456977 0.1556165 0.15638618 -0.27297902 0.18562394 0.09156834 0.28059375
0.20949024 -0.29072002 -0.28823137 -0.14028229 0.2761871 -0.045880765 0.09727545 -0.13427493
0.282952 -0.1216895 0.2421077 0.010957558 -0.1281561 0.15832716 -0.16606249 0.09532523
-0.07718326 -0.058834266 -0.2934523 -0.11726161 0.16356742 -0.05804127 0.30923876 0.34341612
0.044104636 -0.21244806 0.16932108 0.11618649 -0.1866053 0.18750736 0.17525518 0.25602454
-0.16181962 -0.047517657 -0.0055921674 0.042163163 -0.21908084 -0.20485033 0.1570406 -0.067692
0.16469707 0.041420072 0.12127553 0.06115727 0.10251191 0.14287561 -0.24098884 0.11950241
-0.22924975 -0.20853661 -0.0012181326 -0.0670039 0.189747 -0.16622402 -0.2563644 0.21682782
-0.055974826 0.14226261 0.087015375 -0.2593435 -0.002192662 0.1341717 -0.23192833 -0.107164375
0.09839374 0.059341043 -0.1016405 -0.10481606 0.26490146 -0.039332762 0.15442844 0.093129754
-0.18814738 -0.23913573 0.2667047 0.006840259 0.19630517 0.061868876 0.097233824 0.21954927
0.27708384 -0.20515549 0.045477968 0.20060033 0.20386389 0.16378418 -0.19812396 -0.25370172
-0.15620334 0.05101747 0.2798029 -0.18344326 0.15261963 -0.159179 -0.26992217 -0.06559345
0.17768945 0.27231157 -0.17986004 0.061160337 0.2490986 0.19129524 0.17989273 0.20514196
0.18259174 0.07456374 -0.19739693 -0.2424261 -0.13226661 -0.033615496 -0.17694406 0.105612524
0.2052624 -0.17318875 -0.0013364053 0.16716959 0.13341624 0.20225619 -0.047293138 0.34880403
-0.029752329 0.101535946 -0.27457887 -0.1675619 -0.16864502 -0.12347297 0.20523924 -0.09433356
-0.21572149 0.11106771 0.09242499 0.18697217 -0.14938134 0.06258911 -0.10509236 -0.064858004
-0.22185607 -0.11860052 -0.081457034 0.14998072 0.05294598 0.047605626 0.27471697 0.30105108
0.16678602 0.041519266 -0.22343498 0.25870943 -0.064543426 -0.036299627 -0.2546124 -0.05881893
-0.1912563 0.2684252 -0.26789725 -0.24388531 -0.0148031255 -0.15258732 0.11899156 -0.081151925
-0.15389374 -0.0044618966 0.22246586 -0.20039074 0.136028 0.18354356 0.2726034 -0.1948472
0.06194674 -0.20084545 0.23757562 -0.097941205 0.1655123 0.024115726 0.0015421035 -0.021115515
0.05223147 0.133576 0.056777798 0.07033361 -0.2346157 0.1888153 0.2372922 0.22909139
0.18685685 -0.229483 -0.103575535 0.29269397 -0.1977445 0.2535703 -0.27029526 -0.11558224
0.17179778 -0.21027473 -0.027508875 0.2639822 0.24381708 0.26115337 -0.06309104 -0.24512018
0.2750332 -0.048314024 -0.11360498 0.052849095 -0.1894433 0.17384306 0.18780766 -0.23478097
-0.23719399 -0.025409989 0.120810114 -0.008359877 -0.14637986 0.0065994887 -0.27163163 -0.20397866
-0.19196397 0.23772702 0.25448346 -0.09803634 0.062174443 0.083950825 0.026566567 -0.09138241

l1.bias f4 [400]
00000000: a862 8b3e e299 3e3e bcb7 4d3e 1add 1abe
00000010: 8150 13be 00f9 c13d 7aff 93bc 8ec8 533e
00000020: 1e89 6a3e c322 683e 58f5 a33d d510 41be
00000030: dfe4 043e c8c1 183d ca10 3cbe 68f4 01bd
00000040: 319a db3c 0530 6ebe 26c2 fd3c 658c 83be
00000050: 681d 1a3e 1c97 ffbd 20aa bb3d a74c 23bd
00000060: 8228 2abe 06eb 0d3e dc26 5dbe e651 313e
00000070: 52bb fa3d ec0f bb3c a1d0 293e eab5 453e
00000080: 8bf6 543e caf9 443e 028b 2cbd ea74 f53c
00000090: b8ea 7cbe e9cc 8b3d 802b ca3b 6089 623e
000000a0: 265e 903e d153 313c f3d0 0bbe 7505 5e3e
000000b0: 0c9d f53c bd0d 02be f3be 41be 5c83 95be
000000c0: af37 543e a3e8 0a3e 1878 a63d 6564 353e
000000d0: 0af7 2dbe c590 913e 94d9 0e3e f3b5 b83d
000000e0: 896d 98bd 7206 81be 8cf1 803d d6a7 793d
000000f0: 80cf 723d 7a33 103e 84cc 2fbe 8bac 883e
00000100: e661 643c d59f 8ebe e23d 06be 1b28 d23d
00000110: 3fa2 373e ed1e 89bd 4d0d 0abe 02e5 edba
00000120: b9ef 8ebe 49e4 bbbd 3629 38be 6bfb 7c3e
00000130: 9959 4dbe 1b4f 44bb 6fe5 793e 83eb 85bd
00000140: a634 713e 82ce cabd b3cc 92bd 5e2e dc3c
00000150: 47fc 5cbe bc80 2b3e 207e 06bc 70b7 8ebe
00000160: 88d0 f83d 6464 eabd 1045 1ebe 3773 d13d
00000170: 483c 953d 106e 46be bc27 583d 306a 143d
00000180: 799e e1bd 79b1 363e 53cb 053b e60b 043e
00000190: 1cf2 7bbd 4908 2f3e 56ce 4a3d 98d7 4b3e
000001a0: f273 80be df22 0bbd 57b6 313e 5dd4 bdbd
000001b0: 10cf 57be ef46 393e 04f0 103e f186 9a3e
000001c0: c916 3b3e 8fbd e4bc 4838 6cbe b9d0 4fbe
000001d0: a42e d63d 7065 61bd d8a1 8b3e 1d2b 003e
000001e0: 304d cd3c feca 903e eb94 aa3d dd77 893d
000001f0: f27e 8f3e 406a c9bc 008c b63d ac32 85bc
00000200: b413 893e 772f 093e 467e a6bd 6eb7 4bbe
00000210: 9d25 533d c806 03bd 05d5 e03d e333 153e
00000220: 1db3 6dbe 533d 67be 1999 b8bd 761f 6cbe
00000230: 068a 823c 63e7 233e 3790 8f3e 113f 833b
00000240: 19fe 6bbe d573 5c3e 601c f2bd a590 633e
00000250: 92aa e4bd 443f bcbd 9b2a 4c3e cc4e a93d
00000260: b06f 4cbd e14b 363e b33f 7fbe 3101 acbd
00000270: 8cea f5bd c9cf 51be ebfd 84be b49a 26be
00000280: 2114 2c3e e8a8 27be 6549 843e 1a02 cdbd
00000290: 60fe 593d 6011 8e3e b529 8a3d f030 32be
000002a0: ea2f d5bb a9a5 87bb ab6a f5bd 003b 313d
000002b0: fccc 60be b823 5a3d 1f15 48be 82e0 6e3e
000002c0: d5fd 46bd 7307 7dbe 0fa7 5fbe 43c6 7fbe
000002d0: d323 7d3d 158e 2c3d 883c 23be 5010 24be
000002e0: 0d65 69be f756 35be c88f f9bd fdb6 38be
000002f0: f40b a03d 4b88 ed3d 3fac e7bd bec1 b3bc
00000300: be46 b4bd f3ea 9ebb e241 63bd f0db 67bd
00000310: 28ac 753e 13d8 023d 0b53 163e 3070 8b3e
00000320: 90e6 593b c51d 683c 61b7 e03d 240b 783e
00000330: e7f7 33be 1f0c 1b3d 3b09 903d 91d9 e23d
00000340: ea9f 7f3c 4d4a 563e dc1a 813e 01fe 8bbe
00000350: 916e 2fbe 211a 233e 68b9 d23d 1e6e 123e
00000360: c921 293e 95bf 9c3e afc5 153e e823 0a3d
00000370: e8c2 8e3e 3d43 12bd 3ed1 a7bc 003d 61be
00000380: 2c85 943e 0c10 4abe 902a ecbb 2c76 8f3e
00000390: 89cb 91be e865 133e 1086 d43c 5567 103e
000003a0: 7757 5c3e cf3c 7f3e b4e5 3b3e 4f83 09ba
000003b0: 28bd 16be 8750 493e a869 0f3e cd15 183c
000003c0: 4983 693d 35f0 a93d 849f 77be cc63 42be
000003d0: 4420 41be 9805 0d3d ba1a 36be 5c6a 143c
000003e0: b5ab 55be 273c 5e3e ee5b 3c3e 76ba 27bd
000003f0: 07cf 2d3d f42b 0c3c 0112 07bd 22da 7a3e
0.27223706 0.18613389 0.2008962 -0.15123406 -0.14386179 0.09471321 -0.018066157 0.20681974
0.22903869 0.2266951 0.0800578 -0.18854077 0.12977932 0.03729418 -0.1836578 -0.031727225
0.026806923 -0.23260505 0.030976366 -0.2569305 0.1505028 -0.12479994 0.09163308 -0.039868023
-0.16617015 0.13859186 -0.21596855 0.17316398 0.1224276 0.02283474 0.16583492 0.19307676
0.20797174 0.19235912 -0.042124756 0.029962976 -0.24698913 0.06826193 0.0061697364 0.22122717
0.2819683 0.010823206 -0.13653927 0.21681769 0.029982112 -0.12700553 -0.18920498 -0.29201782
0.20724367 0.13565306 0.08128375 0.17714079 -0.16988769 0.28430763 0.13950187 0.09019079
-0.07442767 -0.2520023 0.062960714 0.060951076 0.05927992 0.14082137 -0.1716786 0.2669414
0.013939356 -0.27856317 -0.13109544 0.10261556 0.17932986 -0.06695352 -0.13481636 -0.0018149915
-0.2791727 -0.09174401 -0.1798447 0.24705283 -0.2005371 -0.0029954377 0.24403928 -0.06539061
0.2355524 -0.099026695 -0.071679495 0.026877578 -0.21580611 0.16748327 -0.0082087815 -0.27874327
0.12149149 -0.11444929 -0.15456033 0.102270536 0.07286888 -0.19377923 0.05277227 0.03623408
-0.110165544 0.17841138 0.002041538 0.12895164 -0.06151019 0.17093004 0.049513184 0.19906461
-0.2508846 -0.033968803 0.17354713 -0.09269021 -0.21075082 0.18093465 0.14154059 0.30181077
0.1827041 -0.02792242 -0.23068345 -0.20294465 0.10458115 -0.05502838 0.27271914 0.12516446
0.02506122 0.2827987 0.08329185 0.06712315 0.2802654 -0.024586797 0.08913422 -0.016259514
0.26772845 0.13397013 -0.081295535 -0.19894192 0.051549543 -0.03198889 0.1097813 0.14570574
-0.23212858 -0.22581987 -0.09013576 -0.23058876 0.015934955 0.16006236 0.28039715 0.004005321
-0.2304615 0.21528561 -0.11821818 0.22223146 -0.11165346 -0.091917545 0.19938128 0.082669824
-0.0499112 0.17802383 -0.24926643 -0.08398665 -0.12007627 -0.2048942 -0.25974974 -0.16269952
0.16804554 -0.16373026 0.25837246 -0.100101665 0.053221107 0.2774763 0.06746236 -0.1740148
-0.006505956 -0.0041396213 -0.11983236 0.043269157 -0.21953195 0.05325672 -0.19539307 0.2332783
-0.048581917 -0.24709873 -0.21841072 -0.24977975 0.061801743 0.042127687 -0.1594106 -0.16021848
-0.22792454 -0.17708956 -0.12185627 -0.18038554 0.0781478 0.115982614 -0.1131215 -0.02194297
-0.088025555 -0.0048497855 -0.055482753 -0.056606233 0.23991454 0.031944346 0.14680116 0.2723403
0.0033248998 0.014167254 0.10972477 0.24223 -0.17575036 0.037853356 0.070330106 0.11076654
0.015602091 0.20926781 0.25215805 -0.27342227 -0.17132021 0.15927936 0.1028927 0.14299819
0.16516794 0.30614915 0.14626192 0.03372565 0.27883077 -0.035708655 -0.020485517 -0.21995926
0.29007852 -0.19732684 -0.0072072223 0.28019845 -0.28475598 0.14394343 0.025942832 0.14101918
0.2151774 0.2492554 0.18349344 -0.0005245702 -0.14720595 0.19659625 0.14005148 0.009282541
0.05700997 0.08297769 -0.24181944 -0.18983382 -0.18859965 0.034429163 -0.17783633 0.009058561
-0.20866282 0.21702634 0.18394443 -0.040949307 0.042433765 0.008555401 -0.032976154 0.24497274

l2.weight f4 [300, 400]
00000000: 26ee 2d3d 8329 193d dc8a c8bc f19b 043d
00000010: 0ebb 523c a758 cabc 6b41 4bbd 95ee 6b3c
00000020: ac20 ae3a 3b32 db3b 949a 0f3d 10f5 81bc
00000030: 9d94 9fbc 28ca 073c 427e d2bc d64f 12bd
00000040: 5265 4cbd 684c 44bd cea0 28bc d05b 0a3d
00000050: 6817 01bd b876 8a3b 1a4c d43c 5481 a13a
00000060: 4002 cdba e327 0f3d d8e5 42bd 44bc 103d
00000070: 7769 293d af92 1a3d fd23 183d d0bc 58bb
00000080: 9d73 23bd 5d3a 01bd 4adf 48bd bd4b 0cbd
00000090: 307f 36bd 1601 e73c 9296 b23c 87e8 e4bc
000000a0: 6e28 bbbb 2840 a03b 0417 afbb 883f ea3c
000000b0: 8fc2 863c 30c7 36bd b308 283d 7d3c d5bc
000000c0: a696 abbc 81b8 323d e36c febc 2ceb 4abc
000000d0: 85a6 f3ba ea60 52bd 5c1d f93c a0ea 063d
000000e0: 4568 5ebd 5847 f8bb 383f 113c ddbe c23c
000000f0: f6d5 a83c 904c 97bb 2932 333d ac51 8bbc
00000100: 6f94 72bb 4b4f 1dbd 0a86 ebbc 91db a1bc
00000110: 8a4a 3bbd 81d3 46bc cbe2 8a3b 7e18 27bd
00000120: 2fe1 44bd 35b4 1b3d 2a8c b2bc 138b 30bd
00000130: 81c1 4dbc b79a c0bc eef5 59bd ff69 43bc
00000140: 5b14 eebc 79e2 b1bc a0ea 823c f315 80bb
00000150: c90f 2b3d a5c6 65bd 874b 333d 9f81 b43c
00000160: 0c1d a4bc f3a9 0d3d 8fc6 3f3d 588a a23b
00000170: 849a 633c 1d14 a7bc f5dd 14bc a001 1dbb
00000180: 5535 01bd e887 193b 6b66 e2bc 15f8 d03c
00000190: a87f fb3b adb6 1ebd 39c7 1d3d 60be 0e3c
000001a0: 6e29 c33c 3f86 64bd 0d15 163d 8985 563c
000001b0: 8088 80bb 8fbc 1fbd 41ac 643b 3fd7 513c
000001c0: 1bcb 113c fd8b fc3c 647c 54bd c474 39bd
000001d0: 384c 2c3d 0bf0 2c3d d8fc 92bb 6963 b63c
000001e0: 3b6b 123d 36d9 f33c 4cf7 f6bc 1f89 cabc
000001f0: 5d0c d6bc a20c a4bc b597 403d febb efbb
00000200: 46ae 23bd c018 013d 7473 693c f5b0 303b
00000210: 09eb febc 7bf3 133d 0bb3 26bd 7261 cb3c
00000220: 3963 49bc 3bd7 c8bc dc19 52bd d2fa 103a
00000230: 9893 edbc 21bd d5bc 7b6c e73c 9269 03bd
00000240: b801 283d a148 0c3d 8189 fd3c 57bf 8fba
00000250: fbad 32bd 63da 91bc ed56 f9bc 704d e6bb
00000260: e895 58bd e66a ebbc 01c6 0dbc eb69 cebb
00000270: 655a 9dbc 34d4 893b 9b4c 09bd ac2f 25bd
00000280: 5031 15bd 20c2 233d 6436 bd3c c1b7 36bd
00000290: d805 47bd 2f18 f4bb 8b8b 07bd e0b5 2e3c
000002a0: 74f5 91bc 8030 9e3b 962b 9bbc fa22 1fbd
000002b0: 18b7 99bb 0ae9 203d 7395 053d 4cdb 17bd
000002c0: ff09 0c3c 10e4 313d e052 423b e7d0 28bc
000002d0: 9676 153d 80fd 3c3a 9d76 7abc dfd9 323d
000002e0: 9652 ac3c 3baf 1bbd 839e fa3c 5def 283d
000002f0: 65cf 1c3d 422e f5bc 4b69 cebc 257b d13c
00000300: 29b0 183d 1d11 28bd 03da 103d fc90 983c
00000310: 7c58 753c 1d9e a3bc 198e 40bc 8ac2 f93c
00000320: fdcc 053c 7754 223d 4fee 14bd 44fa c3bc
00000330: 6aaa 36bc 32f4 a53c c9c5 363c bdd5 a53c
00000340: 5428 0bbd 6486 6abc a22d 583c 3715 b5bc
00000350: c376 f13c a759 103d 66f6 e23c fa08 cb3c
00000360: 72c8 c33c da1a 47bd cd6b b0bc 457c 193d
00000370: 6056 ddbc fac5 a9ba f047 8bbc 29ae 07bc
00000380: 0687 66bc 5e13 a2bc 1864 113c 9718 3c3d
00000390: 8020 aebb 2048 6bbc 2823 113d b55d eebc
000003a0: e53b db3b f520 b1bb 8572 173c 6abb ef3c
000003b0: 44ef 583c e5c0 20bc b2a0 af3c 79f7 023b
000003c0: d5c7 74bc 08bd 303c d0b4 01bd 0a5b 5cba
000003d0: 0e4f 13bd d27b b83c d008 2d3d 0605 b9bc
000003e0: 4eea 50bd 4a61 0e3d 3751 d3bc cd98 073d
000003f0: f791 e73c d31a c4bc 389d a5bb 9fe5 e0bc
0.042463444 0.037393104 -0.024480276 0.03237528 0.01286198 -0.024700476 -0.049622934 0.014400144
0.0013284883 0.0066893375 0.035059527 -0.015863925 -0.019480044 0.008287944 -0.02569497 -0.03572067
-0.049901314 -0.04792443 -0.010292245 0.033778965 -0.031516463 0.004225578 0.025915194 0.0012321868
-0.0015640929 0.03495015 -0.047582477 0.035335794 0.041360345 0.037737545 0.037143696 -0.0033071525
-0.03990518 -0.0315498 -0.04904107 -0.034251917 -0.04455489 0.02819876 0.021800313 -0.027942909
-0.0057116067 0.0048904605 -0.00534332 0.028594747 0.016450195 -0.044623554 0.04102392 -0.02602982
-0.020945858 0.043632988 -0.03105778 -0.012385171 -0.0018589055 -0.051361956 0.030409507 0.0329386
-0.054298658 -0.007576864 0.00886517 0.023772651 0.020609837 -0.0046172813 0.04374901 -0.017006718
-0.0037014743 -0.038405698 -0.028750438 -0.019758018 -0.045725383 -0.012135387 0.0042384616 -0.040794842
-0.048066314 0.038013656 -0.021795351 -0.04310138 -0.012558342 -0.023511274 -0.053213052 -0.011927127
-0.02906244 -0.021714436 0.015981019 -0.0039088666 0.0417631 -0.056097645 0.0437732 0.022034464
-0.020033382 0.034585904 0.04682022 0.0049603395 0.01389182 -0.020395333 -0.009086122 -0.0023957267
-0.031545002 0.0023426954 -0.027636727 0.02550892 0.00767513 -0.038748432 0.03852007 0.008712381
0.023823466 -0.05579209 0.03664117 0.013093361 -0.003922522 -0.038998183 0.003489271 0.012807666
0.008898522 0.03082847 -0.05187644 -0.045277372 0.042064875 0.04222111 -0.0044857077 0.0222642
0.035746794 0.02976666 -0.030147217 -0.024723588 -0.026128942 -0.020025555 0.04701968 -0.0073161116
-0.039961122 0.031517744 0.014248718 0.0026960943 -0.031117933 0.036120873 -0.040698092 0.024826739
-0.012291723 -0.024516692 -0.051294193 0.0005530539 -0.029001042 -0.02609116 0.02824997 -0.0320831
0.041017264 0.03424895 0.030949356 -0.0010967058 -0.043622952 -0.01780433 -0.030436957 -0.0070282742
-0.052877337 -0.028737497 -0.008653165 -0.0062992475 -0.019208143 0.004206205 -0.033520322 -0.040328667
-0.03642398 0.039980054 0.023097225 -0.044608835 -0.048589557 -0.007449172 -0.033092063 0.01066348
-0.017817236 0.004827559 -0.018941682 -0.038851716 -0.004691016 0.039284743 0.03261323 -0.037074372
0.008547305 0.043430388 0.0029651448 -0.010303712 0.036490045 0.00072094053 -0.015287069 0.04366481
0.021035474 -0.03800891 0.030593162 0.0412439 0.038283724 -0.029929284 -0.025196692 0.025571415
0.037277374 -0.041031945 0.035364162 0.018623821 0.01497471 -0.019972855 -0.011752629 0.030488271
0.008166549 0.039631333 -0.03636008 -0.023923047 -0.011149028 0.020258043 0.011155554 0.02024352
-0.033974007 -0.014314268 0.013194473 -0.022104843 0.029475575 0.03524175 0.027705383 0.024784554
0.02389929 -0.048609592 -0.021535778 0.03747203 -0.027018726 -0.0012952678 -0.017002076 -0.008281269
-0.014070278 -0.019784626 0.008873962 0.04592189 -0.005313933 -0.014360458 0.03543392 -0.029097417
0.0066904896 -0.00540554 0.009243612 0.02926417 0.013240639 -0.009811615 0.02143893 0.001998393
-0.014940222 0.010787256 -0.031666577 -0.00084059 -0.035964064 0.02251998 0.042244732 -0.022585403
-0.0510047 0.03476075 -0.025795562 0.033104707 0.028267844 -0.023938572 -0.0050541423 -0.027453242

l2.bias f4 [300]
00000000: 2760 56bd 9495 25bd 49e2 853b a486 47bd
00000010: 55c9 ecbb d8d3 45bc 6d85 47bd 06bd 9bbc
00000020: 1d88 923c 7c85 d13c 2ae1 49bd 65b2 393d
00000030: dfe2 02bd a382 05bb 2fe6 2dbd a178 53bd
00000040: f203 54bd 34ea 133d f433 0f3d d9e8 9a3d
00000050: 7a8e af3c e924 ffbc 3a08 25bd 07c7 8b3b
00000060: 03fd 223d 62be 133d 7459 e6bc d645 733b
00000070: 931d 603d cdb0 7239 5bcb 46bd a6b0 3cbd
00000080: 4d3e 223d 465c 143d 607c fbbc f083 993b
00000090: b525 21bd 1431 35bc 8bfa ebbc 6ee5 e5bc
000000a0: e696 90bb 175c b93c 4b4c fb3b eed7 903c
000000b0: 4de2 f4bc 1459 dd3c fcc8 9bbb cddc 08bd
000000c0: 8d4c 203b 22fa 25bd e3b5 13bd 67a2 583c
000000d0: ac08 c6bc ef83 043d 2ce8 773d 6427 02bd
000000e0: 4cf4 4abc 0198 223d c088 c0b9 8bf6 53bb
000000f0: 07d4 f1bc 1ace 6eba 0108 013d 809e 45bc
00000100: c0dc a03c c0d7 c43c e126 3f3d b342 503d
00000110: 9cc9 e93c 3765 17bb 0096 b13b 3b17 76bc
00000120: 35cb 1f3d 7305 debb dce2 fa3d f16b 39bc
00000130: 6203 aa3c dc14 18bd 591f 19bd 2046 2f3c
00000140: 3999 2cbc 6efc 993c 7fc8 f8bc 9d69 5dbd
00000150: 98d6 88bc 0fc6 263d 3e83 90bc 9546 123d
00000160: 487c 20bb e2bc 193c 07cb 8b3c 915c c83c
00000170: c35c 83bd fe6e 103c 7b61 fc3c 5bd4 983d
00000180: 23b1 c5bc 409f 4ebd 2c0f e03a cca0 12bc
00000190: 2a0b 4ebd 81d5 cf39 c658 05bd cdcb 87ba
000001a0: 08c8 79bc 6fd7 863c 4c4b d3bb 6638 f7bc
000001b0: 42db cb3b 701a 8d3b 09db fbbc fe78 c6bc
000001c0: 171e 78bc 4852 27bd c6cf 41bd 230d 1c3d
000001d0: 574c ae3c 5fbd 353d 0fc5 11bd 6150 84bc
000001e0: f336 70bd ec57 88bc c23a 03bd 1809 c93c
000001f0: da2f a2bc 7a7a 193d d835 f73c c176 03bd
00000200: 6de4 33bd 988e 90bc 5b26 253d 4bb3 24bb
00000210: c206 41bd 58b4 613d a750 a7bb 409e d83b
00000220: 80ce d3b9 614b a23a 6d0e e83c 1a5f 823d
00000230: 3619 c3bc 48a2 50bd b7d5 1b3d 101e e4bb
00000240: dce4 ebbb eccb 02bc abb3 63bc 020d e9bc
00000250: f76a 28bd 309e c83d ec4b 653b 7a99 dbbc
00000260: aaaa 99bc e067 e33d f27b 533d 74d5 593c
00000270: c974 7b3c 0b59 57bd 093c 8c3c ea5c f3bc
00000280: 8103 773a 6ee9 3dbd fd52 c8bb 9227 7b3b
00000290: e0e2 c83a 4033 93ba edd5 053c 6ecf 1fbc
000002a0: f7a5 b23c 6a94 853c eb96 023c b197 a5bc
000002b0: 06fd e63d 894e faba 3fd9 7dbc c767 b63c
000002c0: 022a 143d dca5 623a 689d 053c de24 0ebd
000002d0: 0243 ac3c 5012 d0bb 0ca6 2bbd 8b73 d8bb
000002e0: b3df 1abd f8de 753c 3012 eebc 9088 17bd
000002f0: 2a80 0a3d 688f 18bd 5221 c9bb acec b0bc
00000300: a84d 45bd 6acb 2fbd 1563 043d 7c0d cdbb
00000310: b657 f6bc d98f 0abd 6700 23bc 82cb bdbc
00000320: d469 59bb e362 98b9 3a0d e23b 4377 06bd
00000330: 47e1 053c 62ed f6bc 4357 c03b 0e76 03bd
00000340: 3026 0bbd 1365 c8bc 10e8 e5bc 8373 ee3b
00000350: deb4 0c3d 8901 3a3c 346c 93bc c94f 6c3c
00000360: e14a 1ebd 0f29 f3bb 72bb 013d 0fbd 523c
00000370: 4fc2 193d e665 cd3c 73db 40bd 9810 fcbc
00000380: 62a3 e9bc 3aaf 85bb 4595 bd3c 7ba1 ca3d
00000390: 2438 903d 9bd7 053c a617 9dbc 0354 3c3d
000003a0: 6c06 52bc 3214 413c 1249 20ba 6d37 66bc
000003b0: a303 52bc 9f06 aebb 3f8e 113d 66f4 a53c
000003c0: 0dec 31bd e9a0 1dbc b7b8 773c 0fc0 9a3c
000003d0: 75d0 0bbd 7928 313d 65fc 70bd 728c c2bc
000003e0: 154e 5abd 5ba8 f43c 2c53 87bc 5174 1c3d
000003f0: c083 03bd 5a40 d43c a49e 293d f963 11bc
-0.05233779 -0.040425852 0.004085813 -0.048712388 -0.007226149 -0.012074433 -0.04871123 -0.019011032
0.01788717 0.025576346 -0.049287 0.045336146 -0.031954642 -0.0020372055 -0.04245585 -0.051628713
-0.051761575 0.036112025 0.034961656 0.075639434 0.021430243 -0.03114553 -0.04029105 0.0042656693
0.039792072 0.036070235 -0.028118826 0.0037120483 0.054715704 0.00023144782 -0.04853378 -0.046066903
0.039610196 0.03622081 -0.030698955 0.0046849176 -0.0393426 -0.011059064 -0.028805992 -0.028063502
-0.0044125197 0.02262692 0.007669007 0.017681088 -0.029893065 0.027020015 -0.004754184 -0.033413697
0.002445969 -0.04052175 -0.036062133 0.0132223135 -0.024174057 0.032352384 0.06052415 -0.031775847
-0.0123873465 0.039695743 -0.0003672298 -0.0032342996 -0.029520048 -0.0009109691 0.031501774 -0.012061715
0.019636512 0.024028659 0.046667937 0.05084486 0.028538518 -0.00231011 0.0054194927 -0.015020187
0.039012153 -0.006775552 0.12250301 -0.011317239 0.020753566 -0.037129268 -0.03738341 0.010697871
-0.010534578 0.018797126 -0.030369041 -0.0540558 -0.016703889 0.040716227 -0.017640706 0.035711844
-0.002448814 0.009383412 0.017064584 0.024458202 -0.06414177 0.008815525 0.030808201 0.074623786
-0.024132317 -0.05044484 0.0017094365 -0.00894947 -0.050303616 0.0003964119 -0.032555364 -0.001036042
-0.015245445 0.016460149 -0.006448185 -0.03017826 0.006221206 0.00430613 -0.030744093 -0.024227615
-0.015143893 -0.040849954 -0.04731729 0.038098466 0.021276636 0.04437005 -0.03558832 -0.016151609
-0.058646154 -0.016643487 -0.032038458 0.024540469 -0.019798208 0.03747032 0.030177042 -0.032095674
-0.043919016 -0.017646119 0.04031978 -0.002513128 -0.047125585 0.05510363 -0.00510605 0.0066106617
-0.0004039891 0.0012382084 0.028327191 0.063657954 -0.023815732 -0.050936013 0.03804561 -0.0069615915
-0.007198913 -0.007983189 -0.013897817 -0.028448585 -0.041117635 0.09795797 0.003498788 -0.026806582
-0.018758137 0.11103797 0.051631875 0.01329552 0.015347668 -0.052575152 0.01711847 -0.02970739
0.00094228244 -0.046365194 -0.0061134086 0.0038323146 0.0015326403 -0.0011230484 0.00816868 -0.009754045
0.021807654 0.01630612 0.007970552 -0.020213934 0.11278729 -0.0019096892 -0.01549369 0.022266282
0.036172874 0.0008645931 0.008155204 -0.034703128 0.021028046 -0.0063498393 -0.0419064 -0.0066055707
-0.037810992 0.015006773 -0.029061407 -0.03699547 0.033813633 -0.037246138 -0.0061380053 -0.021597229
-0.048169762 -0.0429186 0.032321054 -0.006257711 -0.03007112 -0.03382859 -0.009948826 -0.02316833
-0.003317465 -0.00029065376 0.0068985494 -0.03282858 0.008171386 -0.03014249 0.0058697774 -0.032095008
-0.033971965 -0.024462258 -0.028064758 0.0072769537 0.034352176 0.011352905 -0.017995931 0.014423319
-0.03864563 -0.007420666 0.031672902 0.012862458 0.037538823 0.025073003 -0.047084283 -0.030769631
-0.02852029 -0.0040797265 0.023142466 0.09894081 0.07041958 0.00816908 -0.019176316 0.045978557
-0.012818914 0.0117846 -0.0006114404 -0.0140513005 -0.01281825 -0.005310848 0.035536047 0.02025814
-0.043438006 -0.0096208835 0.015119723 0.018890409 -0.034134347 0.04325149 -0.058834452 -0.02374861
-0.05329712 0.029865434 -0.016519152 0.038196865 -0.03210807 0.025909591 0.041411057 -0.008873933

l3.weight f4 [6, 300]
00000000: cc19 b23c d773 0ebd da09 a2bb dd31 473d
00000010: e985 f23c 5075 213b 4a9c a83c 83dd e1bb
00000020: f983 5abd 9d2c 093c cf03 11bd 486c 8b3a
00000030: 0c75 d73a d82a 6bbd 0222 c93c 01c6 7fbc
00000040: ba32 e93b 1001 0f3d e941 6bbd 59c3 763d
00000050: 2863 e43c f4c4 b53c c4d1 ef3b f18e 9ebd
00000060: 60fc cebc 4546 26bd b82b 8a3c 2e6c 54bd
00000070: 3c46 353d 9bc1 003c 4778 e13c e04e 50bc
00000080: 0814 293d d0b0 443d 96e9 3a3d 807d ec3c
00000090: f619 89bc 2c35 db3c f206 1dbc 2497 2b3d
000000a0: 2b15 34bd aade 06bd 529a 38bd 95b0 0abd
000000b0: 00e9 3abc f349 cfbc 07f5 9b3c e4d8 8dbc
000000c0: 0a29 3a3c 0c3c 083d eb8c 913d e3eb 143d
000000d0: 3c8d 38bd d83e 343d 8793 013d b8a8 963c
000000e0: 9640 c8bc 0815 353c 031e 69bd 9962 02bd
000000f0: 46da e6bc bb62 d9bc 54cf 5bbd c4b5 823c
00000100: 6fb2 353d 7c74 103d f9c7 953d 2492 183c
00000110: 9a40 c3bc bcbb 9aba f40c 43bc fe07 77bd
00000120: 0d05 8a3d 26ac 10bd 75e5 983d 3704 f7ba
00000130: e20f e4bc ce6e 0abd b09a ee3c b0b3 e43c
00000140: aee6 043d c66a 05bd 3f3d 8a3c 6e47 033c
00000150: c87b 823c 5232 0ebd 1916 a5bc f597 623d
00000160: 74b9 53bd b036 313c 9f86 75b9 88e4 efbb
00000170: c853 f0bc dfd6 df3c e695 403d b47f 0c3c
00000180: c8ba d6bb 709f 883c 45f4 f53c 0255 34bd
00000190: 40a2 53bd 9841 5b3d b360 79bb 7f46 7a3c
000001a0: 9294 8bbc ab30 cdbb 9ca4 d8bc f54f 2e3c
000001b0: 3c8b 1ebd 26c0 56bd 6e56 f63b 9002 8ebc
000001c0: a03e 0bbb 497a 3e3d 1de2 cb39 b739 8abc
000001d0: 27d5 22bd 504c b03c b06a 3bbc 9a61 11bd
000001e0: 7c85 31bd ef51 733c 2cad 91bb 7fa4 d93c
000001f0: 8755 323d d31c b63c 2cf1 183c b891 553c
00000200: a0b5 533c 5496 293d f7f8 57bd 9f9d 153d
00000210: b04f e4bc 61b7 18bd 3ea8 6ebd d40f 00bc
00000220: b795 1abd cc9f 323d 42ec 333d ae10 5eba
00000230: ca77 2abd 8f1f 3c3c 0e5c a93c 84ee 323d
00000240: 0bed 1cbd 5c7b 6a3c a1b2 313d 1ac7 a1bb
00000250: 0296 cabc 3ac0 493d c0a7 213c f488 7bbc
00000260: 88af adbc 5d05 4c3d a9f5 e5bc 39fc 39bd
00000270: 2875 77bc b5ef 103c fc29 33bc fde5 2b3d
00000280: d812 c53c a10e e8bc ef04 903d 2032 ecbc
00000290: 5045 77bc 8e97 3ebd e42e 6c3d 4f83 bebc
000002a0: 7a7f 353d e101 29bd fd09 d7bc 4cf8 a9bc
000002b0: 29ef f93c f5a0 80bd 6001 143c c9fa d1bc
000002c0: f3a8 17bd f766 15bd 06e0 713c 88bb e63c
000002d0: 1cc1 293d 0206 23bd 0278 a73c b71c 4f3d
000002e0: 162b 87bc 0a46 f53c dd01 4f3d 3a5f a73b
000002f0: 5879 bb3c 7ce0 b0bc 1e6a a53c bad4 b03c
00000300: d4a4 4e3d 0424 38bc 48ba 123c e7e1 2b3d
00000310: 11ce 863c a756 293d 0ae2 493d cd34 ae3b
00000320: e742 5b3d 00f6 0eba 94a4 f23c f013 a5bc
00000330: b28f 21bd 0ae6 b0bc b6d1 4a3c 8d56 39bd
00000340: b98a b83c 90ef 513d e068 ad3b c445 2bbd
00000350: 2843 f2bc 2bc9 35bd 330b 46bd b85f 81bd
00000360: 5028 25bd 6764 febc f6ce 973c a1f3 2fbd
00000370: b1d6 b83c 2ee7 a13c 52eb 513d c1f9 3fbc
00000380: cfb5 21bd fc36 cf3b 3690 583c 004a 753d
00000390: 8d64 493d 858a 873d 5805 afbc 207e b33c
000003a0: 3473 40bd 2274 cb3c 1b8f 18bd b226 5c3d
000003b0: fa0b 8cbc 6440 13bc 72bc 103c 8803 1e3d
000003c0: 7415 dcbb c8d5 a3bc 06d7 4f3d 313a cebb
000003d0: f28e e33b 8023 d0bc 352f a03c 958a 47bc
000003e0: cadf 14bd d2d7 b53c b868 0fbd d03e 9c3c
000003f0: 8595 83bc bc13 383a 513f 1b3c 41d2 91bc
0.021740817 -0.034778442 -0.004945022 0.048631538 0.029604869 0.0024636574 0.020582337 -0.0068928613
-0.053348515 0.008372453 -0.035404023 0.0010637129 0.0016438081 -0.057413906 0.024552349 -0.015611173
0.007116643 0.034913123 -0.057435904 0.06024489 0.027879313 0.022188641 0.007318707 -0.07742108
-0.025266826 -0.040594358 0.01686655 -0.05186098 0.044256434 0.007858659 0.027523173 -0.012714118
0.04127887 0.048020184 0.04563292 0.028868437 -0.016736012 0.026758753 -0.009584175 0.041892186
-0.0439655 -0.032927193 -0.045069046 -0.033859808 -0.011408091 -0.025303816 0.019037737 -0.017315336
0.011362324 0.03326039 0.07106956 0.03635777 -0.045056567 0.044005245 0.031634834 0.018390998
-0.02444486 0.0110523775 -0.056913387 -0.03183231 -0.028180253 -0.026536336 -0.05366452 0.015955813
0.04435962 0.03526734 0.073135324 0.009312186 -0.023834515 -0.0011805217 -0.011904944 -0.060310356
0.067392446 -0.035320424 0.074656405 -0.0018845861 -0.027839605 -0.033797078 0.029126495 0.027917713
0.032446556 -0.03257253 0.016874908 0.008012636 0.015928164 -0.034715958 -0.020152139 0.0553207
-0.051690534 0.010816261 -0.00023415171 -0.007320944 -0.029336825 0.027324138 0.047017954 0.008575369
-0.006553028 0.016677588 0.030023703 -0.044026382 -0.051668406 0.053529352 -0.0038052022 0.015275597
-0.017038617 -0.006261905 -0.02644568 0.01063918 -0.038707003 -0.05242934 0.0075176274 -0.017335206
-0.0021247044 0.04650334 0.00038887645 -0.016873224 -0.03975406 0.021520764 -0.0114390105 -0.03549347
-0.04334019 0.014851077 -0.0044456925 0.026567696 0.043538596 0.022230541 0.009334844 0.01303523
0.012921721 0.04140313 -0.052727666 0.036527272 -0.02787003 -0.03728426 -0.058265917 -0.007816274
-0.037740435 0.043609425 0.043926485 -0.00084711134 -0.041618146 0.0114821335 0.020673778 0.043684497
-0.038312 0.014311638 0.043383244 -0.004937065 -0.024729732 0.049255587 0.009866655 -0.015352476
-0.021201864 0.049809802 -0.028071241 -0.045406554 -0.015103616 0.008846213 -0.010935303 0.04196738
0.024056837 -0.028327288 0.07032191 -0.028832495 -0.015092209 -0.046531253 0.057661906 -0.023255972
0.044311024 -0.041261557 -0.02624988 -0.02074828 0.030509548 -0.062807 0.009033531 -0.025632279
-0.037026357 -0.036475148 0.014762884 0.028165594 0.04144393 -0.03980065 0.020442966 0.050564494
-0.016500037 0.029940624 0.050538886 0.0051077874 0.02288501 -0.021591417 0.020192202 0.02158581
0.05045016 -0.011239056 0.008955546 0.041963484 0.016455682 0.041342404 0.049287833 0.005316353
0.0535306 -0.0005453527 0.029619493 -0.020151109 -0.03944368 -0.021594066 0.012379101 -0.045248557
0.022527086 0.051253855 0.005292043 -0.04181458 -0.029573038 -0.0443813 -0.048350524 -0.06317085
-0.040321648 -0.031053735 0.018531304 -0.042956952 0.02256331 0.019763555 0.05124981 -0.011717261
-0.039480027 0.0063236933 0.013217976 0.059885025 0.04916816 0.066182174 -0.021364853 0.021910727
-0.046984866 0.02483565 -0.03724585 0.05374784 -0.017095555 -0.00898752 0.008833991 0.038577586
-0.0067164246 -0.0199994 0.05074217 -0.006293558 0.0069445306 -0.025407553 0.01955376 -0.012179037
-0.036346234 0.022197638 -0.035011977 0.01907292 -0.016062507 0.00070219836 0.009475545 -0.017800452

l3.bias f4 [6]
00000000: b498 8a3c 6d1f 4e3d 54ce 573c 124e db3b
00000010: a397 07bd 53dd dfbc
0.016918518 0.05032294 0.013171751 0.0066926563 -0.033103596 -0.027327215
