average data/Average_TD3_10_Peg-in-hole-triple_assembly_seed_3/_actor.pth (torch_old, 510312 bytes, 6 tensors)

l1.weight f4 [400, 12]
000000 82 29 91 bf 7f 26 25 bf eb 68 58 3d 32 5d bf 3e
       -1.1340792 -0.64511865 0.052834433 0.3737579
000010 13 29 47 3f 53 0f fb bd 03 be e9 3d 69 ce 59 be
       0.7779705 -0.12258782 0.11413195 -0.21270145
000020 b7 cb aa 3d f6 2e e1 be 79 a1 89 bf 77 f8 7a 3e
       0.08339637 -0.4398114 -1.0752403 0.24508844
000030 28 a8 b6 bf 1b 93 c9 3c 32 59 1c 3c 3e 62 1e bd
       -1.4270067 0.024606278 0.00954275 -0.03866791
000040 86 aa b3 be 4b 35 17 3e 3c 84 0b 3f dd e2 82 3f
       -0.35091037 0.14766423 0.5449865 1.0225483
000050 77 b8 91 3d 0d 43 db be 8d 42 d9 3e 03 14 e8 3d
       0.07115262 -0.42824593 0.42433587 0.11331942
000060 5b 49 48 bf f0 78 5f be d6 f0 89 3c 8d 61 bf 3e
       -0.7823693 -0.21823478 0.016838472 0.37379113
000070 78 bb ba 3e 70 b4 01 3f 1e 53 f3 be f1 e1 8e 3f
       0.36471152 0.5066595 -0.4752435 1.1162702
000080 c7 0d 11 bf d6 4c 85 3e 63 24 48 bf 6b 5a 89 bf
       -0.5666165 0.26035184 -0.7818052 -1.0730718
000090 26 a1 99 3e f2 01 c6 bf 27 23 b9 bb ba 83 d2 3f
       0.3000576 -1.5469344 -0.0056499424 1.644645
0000a0 2c 97 04 3f 63 0f 88 bf 24 57 09 be c5 00 30 3e
       0.5179317 -1.0629696 -0.13412148 0.17187794
0000b0 b4 2a f3 3c 66 b0 ac 3d 15 5c 98 bf 59 2c 42 bf
       0.029683448 0.08432083 -1.1903101 -0.7584892
0000c0 d8 ce f4 3e 8c 67 2a 3f 17 f1 61 3d 82 24 cb be
       0.4781406 0.6656425 0.05516156 -0.3967629
0000d0 7e 22 24 be 31 38 d2 3e fc f6 1f 3f 38 ee 1b be
       -0.16028783 0.41058496 0.62486243 -0.15227592
0000e0 89 b1 23 be 5c f2 ad 3e 95 05 81 be 94 a6 9f 3c
       -0.15985693 0.33973968 -0.2519957 0.01948861
0000f0 5c 55 0a be bc 07 86 be 12 4a 1a 3e 9b b8 45 3e
       -0.13509125 -0.26177776 0.15067318 0.19308703
000100 c7 b2 5a be 03 6e 0c bf 34 50 72 be 61 5d 72 be
       -0.2135726 -0.54855365 -0.23663408 -0.23668434
000110 9e 87 82 bd 08 e6 52 3d cb 64 21 3f 0a 3f e3 be
       -0.06373523 0.051488906 0.6304442 -0.44384032
000120 74 17 06 be 40 0f 8d 3b c4 a3 35 3e b0 5b cc 3d
       -0.13094884 0.0043047965 0.17738253 0.099784255
000130 78 42 0f 3d 9c 2e 77 3e 3c bd 86 3d 22 e4 46 3e
       0.0349755 0.24138874 0.06579062 0.19422963
000140 6e c0 7e be 7c b9 7e be aa 67 85 be 00 de 85 3c
       -0.24878094 -0.24875444 -0.26055652 0.01634121
000150 18 a8 7b 3f 07 b7 81 bf 90 b4 2e 3d 5f 74 3c 3f
       0.98303366 -1.013398 0.042652667 0.7361507
000160 ed f1 8c be 99 51 4f bf f1 30 68 be 5e 28 58 3e
       -0.27528325 -0.80983883 -0.2267492 0.21109149
000170 2f 5a 20 3d 16 8b 09 3f 3b 89 e3 be 22 4b 04 bf
       0.039148506 0.53727853 -0.44440636 -0.51677144
000180 3a 06 09 3f 06 fe 2d 40 09 5e 14 3d 44 9a e7 bf
       0.53525126 2.7186294 0.03622249 -1.8093953
000190 67 5a 52 be 17 06 09 3f f7 87 19 3e 2a 0b 83 bd
       -0.20542298 0.5352492 0.14993273 -0.06398614
0001a0 ec fe 57 3d 60 3d f8 3d a5 20 ae bf c5 d2 b6 be
       0.052733347 0.12121081 -1.3603712 -0.3570768
0001b0 7e 1f 6a 3f 9e 13 a7 3e 45 3d 6c 3e f0 2f 11 be
       0.91454303 0.32632154 0.23070247 -0.14178443
0001c0 e8 67 4f bf a8 f6 62 bf 7d ea e3 be d9 b2 20 bf
       -0.81017923 -0.8865762 -0.44514838 -0.627729
0001d0 b7 7e 37 3e 1e c6 ee 3d e1 6d e6 3c 00 dc fe bd
       0.17919432 0.116588816 0.028128566 -0.124443054
0001e0 ed 9b d6 be 64 59 33 bf 9b 6d 9d bd ff c4 56 3e
       -0.41915837 -0.70058274 -0.07686921 0.20973586
0001f0 42 d6 31 bf 63 20 34 bf 14 39 16 3f 4d 99 0a 3d
       -0.69467556 -0.7036192 0.58680844 0.033837605
000200 c3 79 85 3d 39 bf 97 be 22 e8 c5 3f 70 6c ba be
       0.06517365 -0.2963808 1.5461466 -0.36410856
000210 c9 53 96 bf 63 6c ab bc 6c cb 5e 3d 29 41 92 3e
       -1.1744319 -0.020925706 0.054393217 0.28565338
000220 8e 37 13 3f 0e 31 6f 3f a1 02 38 bf bb ae ed bc
       0.57506645 0.93434227 -0.7187901 -0.029013982
000230 d4 27 1e bf b5 11 8e 3d 2b 4a 9e 3c 33 5b 06 3d
       -0.6177952 0.06936971 0.019322475 0.032801818
000240 24 bb c0 be 11 63 65 bf 75 0a 1c bd 92 9f 07 3f
       -0.37642777 -0.8960429 -0.03809591 0.5297786
000250 0e 49 12 3f 1a a3 0a 3e 77 61 8c bf 75 5d 06 3f
       0.5714272 0.13538781 -1.0967244 0.52486354
000260 22 1c dc bb a2 e0 1b 3f ba 11 9a 3e e8 96 bf bd
       -0.006717221 0.6088964 0.3009165 -0.09354955
000270 03 c6 3d 3e 4e 11 1c 3d a9 46 f0 3d cf 44 d7 bd
       0.18532567 0.03810244 0.11732227 -0.10511171
000280 15 56 6c be 35 d6 e0 3c 11 a3 a2 3d 18 12 14 3e
       -0.23079713 0.027445892 0.07941259 0.14460027
000290 ed c5 5d be 82 07 8f be 18 e9 0b 3e 4a b5 6c bd
       -0.21657534 -0.27935416 0.13663137 -0.05779008
0002a0 de 5b e6 bd e8 65 b7 be 8e 34 f6 3c b7 30 14 3f
       -0.11247991 -0.35819936 0.030054357 0.5788683
0002b0 cc 3f 8b 3e f7 c2 76 3f 13 a7 d1 3d 6d 88 5e 3f
       0.2719711 0.9639124 0.10236945 0.8692692
0002c0 be ee 44 bf 12 9b 77 3e 11 15 a5 3d 4b 92 5f bf
       -0.7692679 0.24180248 0.08060659 -0.873326
0002d0 a2 69 81 3e e0 2c 18 3d d0 7c 82 3e f2 59 86 3e
       0.25275904 0.03715217 0.2548585 0.26240498
0002e0 c8 70 39 3d 58 36 3f 3d e4 28 b9 3d 96 d6 3d 3e
       0.045273572 0.046682686 0.090410024 0.1853889
0002f0 9b f6 86 be 00 f4 ed 3a 32 33 8d 3e 60 b7 50 be
       -0.2636002 0.0018154383 0.2757812 -0.20382452
000300 8e 35 73 bf fb 71 1f bf f7 83 83 bc 0b 0c 88 3f
       -0.9500359 -0.62283295 -0.016054137 1.0628675
000310 1a df 77 3f e2 cc 21 bf 33 94 61 bf 4b 38 19 3f
       0.968248 -0.6320325 -0.8811676 0.5985152
000320 1d a3 20 be c9 93 44 3f fa 7b 00 3e d2 6e a7 3e
       -0.15687223 0.76788 0.12547293 0.32701737
000330 e9 6b c0 3e e8 aa ba 3e 84 b6 ae 3e fd ee 2c bf
       0.3758233 0.36458516 0.34123623 -0.6755217
000340 d2 74 fa 3c ff 50 8f be 00 d2 23 bf 8e 57 43 bf
       0.030573282 -0.27991483 -0.6399231 -0.7630547
000350 bd 1d 96 3e 97 9f f6 3e 14 01 04 bf a0 42 a7 be
       0.29319564 0.48168632 -0.51564145 -0.32668018
000360 7b bd 48 3f 4b 92 52 be 5d f3 d3 3d 16 2c b4 3e
       0.78414124 -0.20563619 0.10349152 0.35189885
000370 1e 1c 39 bf c1 1d f5 be 2d 3e 6f 3c 34 3b 6a 3f
       -0.7230853 -0.47874263 0.014602226 0.91496587
000380 7b 49 da 3d 0e b5 24 3e 32 34 2d bf e8 18 1a bf
       0.106585465 0.16084692 -0.6765777 -0.60194254
000390 eb 38 c5 3c d4 0b c7 be bf b4 8c 3c c5 5b 24 3f
       0.024074992 -0.38876212 0.01717603 0.6420253
0003a0 90 f6 ee 3e 8b 5f 93 3f b4 21 9e 3e 3c 84 83 3f
       0.46672487 1.1513532 0.30885088 1.027473
0003b0 ff 75 70 bf fd d2 98 3e d2 3d 0d 3c b5 fb 46 be
       -0.9393005 0.2984847 0.008620696 -0.19431956
0003c0 b9 62 17 be f9 ef 1a 3f 62 d5 4e bd 21 1b 8e be
       -0.14783753 0.6052242 -0.050496466 -0.27755073
0003d0 81 61 09 bf 7d e5 23 be b0 86 25 3e 1a be 66 3f
       -0.53664404 -0.16005512 0.1616466 0.9013382
0003e0 71 57 56 bd d0 ac bf 3e a2 0b 32 3f 2a 7e c8 3f
       -0.052329484 0.37436533 0.69549 1.5663502
0003f0 49 38 18 3e bf 15 a1 be c8 1f be 3c a4 26 03 be
       0.14865221 -0.31461903 0.023208514 -0.12807709

l1.bias f4 [400]
000000 a8 be 30 bf cf 70 2c bf 0b 61 3e bc 68 a1 39 3d
       -0.6904092 -0.6735963 -0.0116198165 0.045319945
000010 fc 56 ac 3e 47 ba 74 be 90 58 ca bc 45 22 0f 3e
       0.33660114 -0.23899184 -0.024700433 0.13977917
000020 ab 1a 58 be 71 2b 91 3d a2 54 89 bf 81 43 a7 3d
       -0.21103923 0.07088364 -1.0728953 0.08167172
000030 6d d8 0f 3d 16 fc e1 bd ed 4f 80 3f 4e 59 1d 3e
       0.03511851 -0.1103441 1.0024391 0.15366098
000040 55 01 0e 3f ac bf 98 be 2b 0b 59 3e 0a dc 3e 3f
       0.5547078 -0.29833734 0.21195666 0.745545
000050 3b 0e 8f bf a5 2b 85 3f ff b1 e2 3e 24 da 84 3f
       -1.1176218 1.0403944 0.44276425 1.0379071
000060 59 37 33 3f c9 d8 c4 be b1 84 58 bf 5d c2 5e 3f
       0.7000633 -0.38446644 -0.8457747 0.87015325
000070 19 18 8b 3e de f5 12 bf 48 d7 cb be 86 4b 1d 3f
       0.27166823 -0.57406414 -0.39812684 0.61443365
000080 69 5c dd 3e d0 13 cc 3d 53 ae bd 3e f6 7e ef bd
       0.43234566 0.099647164 0.3704706 -0.11694138
000090 66 1d d8 bd b8 a5 78 bd 67 2b 17 bf a2 a9 28 bf
       -0.10552482 -0.060704917 -0.590506 -0.6588384
0000a0 ef 4d 4f 3e 54 47 aa 3e b4 b3 60 3e 67 cf bd be
       0.20244573 0.33257544 0.21943551 -0.37072298
0000b0 89 df 2e bf 32 a1 90 be 6f 03 4d bf 1b e6 85 3e
       -0.6830984 -0.28247982 -0.80083364 0.2615212
0000c0 22 8e 81 be f1 37 cb 3c 92 3e 76 be b1 b0 d9 3b
       -0.2530375 0.024806948 -0.24047306 0.0066433777
0000d0 29 59 9f bf d8 88 41 3d b2 4e c4 be f9 24 17 3d
       -1.2449085 0.047249645 -0.3834129 0.036900494
0000e0 b9 2d 30 bf 71 13 82 bf d6 6f 15 3f 14 ef 9c 3e
       -0.6881977 -1.0162183 0.58373773 0.30651152
0000f0 00 65 ff bd 38 82 89 3e 43 f7 88 bd ca 9f 33 be
       -0.12470436 0.26857162 -0.066877864 -0.17541423
000100 f3 82 10 3e a7 80 f0 be 74 28 87 3e 3c c9 ca be
       0.14112453 -0.46973154 0.2639805 -0.39606655
000110 51 ab bd be 2f 89 a6 bc de 8d 36 3e 58 24 f6 3e
       -0.37044767 -0.020329086 0.17827556 0.48074603
000120 c1 18 e1 be 2f b3 1a bf 36 29 8d 3e 9e b4 f7 3e
       -0.43964198 -0.6042966 0.27570504 0.48379987
000130 5f 19 74 3e 1c 48 3d 3d 1c 7b db be ee 1e 7a 3d
       0.23837803 0.046211347 -0.42867362 0.061064653
000140 4f dc 9b bd 9b 39 ee bd bf 9a 51 be 80 51 cd bb
       -0.0761038 -0.11632081 -0.20469187 -0.006265819
000150 b6 3f 4d bf b4 9c e6 3d 2a f4 26 be ec ad 7d 3f
       -0.8017534 0.112603575 -0.16304079 0.9909351
000160 bd ea 99 3d 11 03 a5 be 3d 10 08 be d9 c0 c1 3c
       0.07515476 -0.32228902 -0.13287444 0.023651527
000170 66 d6 66 3c 3c 53 20 be 6d 7d 15 bf f2 e4 1f 3f
       0.0140892025 -0.15656751 -0.5839451 0.6245872
000180 6d cc 3b 3f 0f 22 43 3d 23 bf da 3d a4 a2 1c be
       0.73358804 0.047639903 0.10680988 -0.15296417
000190 80 bd ad 3d 45 bf e1 3d 55 c5 1d bf 7e 13 99 bf
       0.0848341 0.1102281 -0.6162923 -1.1959074
0001a0 a2 7d 00 3e 1b 3b 1c 3e 4b ca 49 bf d9 98 4e 3c
       0.12547925 0.15256922 -0.788243 0.012609684
0001b0 b0 07 0f bd 27 1d 9b be 03 df c6 be 4f 26 38 bf
       -0.03491944 -0.3029568 -0.3884202 -0.71933454
0001c0 29 86 46 3d 94 c6 31 3f ae 7c 0e 3e c3 ec a4 3e
       0.04846779 0.6944363 0.13914749 0.32211885
0001d0 09 0f 76 be 4a 7a bb 3d b6 21 2d bb c9 e3 a9 3e
       -0.24029173 0.09154184 -0.0026417798 0.331816
0001e0 bf 1f a9 bd db df 7e bf 17 4d e0 3c 8a 71 3c bf
       -0.08258008 -0.99560326 0.02738051 -0.73610747
0001f0 8e 08 fc bd c0 54 77 be 57 08 86 bd 6b f1 cb be
       -0.12306319 -0.24153423 -0.065445594 -0.39832625
000200 de 2a 61 bf 13 58 2d bf e2 4b ac 3e 60 71 51 3c
       -0.87956035 -0.67712516 0.33651644 0.012783378
000210 a4 7d f5 bd 29 41 d7 be 44 36 6c bd 98 93 aa 3d
       -0.11986855 -0.420419 -0.05766894 0.083289325
000220 6b 95 31 3e 3f 5c d7 3d cb 06 ce bd 8d 9e 34 3f
       0.17342155 0.105156414 -0.100598894 0.7055443
000230 9c 95 6b bf 37 69 15 3e ce 4c 29 3f 28 1c 60 be
       -0.9202516 0.14590918 0.6613282 -0.21885741
000240 ed d0 94 3e 7a 72 ad be 96 ca 7e be c1 08 8a bd
       0.29065648 -0.338764 -0.24881968 -0.06739951
000250 56 e9 1c 3e 73 b4 69 be 69 98 09 bf 1b 98 65 3e
       0.15323386 -0.22822742 -0.53748184 0.22421305
000260 8a 53 8e be 98 ab af be ba 37 ee 3c e0 e6 a6 be
       -0.2779811 -0.34310603 0.029079307 -0.3259802
000270 6f 84 a1 be b1 32 11 3e aa 68 1a bf 46 5a 7f be
       -0.3154635 0.14179493 -0.60315955 -0.2493678
000280 73 0c b2 be 42 07 10 be a1 9b c2 3e 32 64 59 bf
       -0.34775123 -0.14065269 0.3800936 -0.8491851
000290 e5 cc 16 be 01 85 32 3f 96 c9 3a be 6d 14 7f bd
       -0.14726599 0.697342 -0.18240961 -0.06227534
0002a0 fd 15 96 3d 53 cc fb be a2 89 94 bf 96 6a 40 3e
       0.07328413 -0.49179325 -1.1604502 0.1879066
0002b0 7a a2 2b 3f 4b 32 0b 3e a8 90 cf 3e b1 94 18 bf
       0.67044795 0.13593404 0.4054005 -0.59601885
0002c0 be 06 17 3e 46 7e 1f bf ec 24 3a be 3c 58 a6 bc
       0.14748666 -0.6230205 -0.18178147 -0.020305745
0002d0 64 aa 00 3e 1b c6 a5 3e 0d 74 1b 3e 10 8c 93 3e
       0.12564999 0.32377705 0.15180989 0.28817797
0002e0 1b 21 2f be 84 03 f0 be b9 31 15 3e 63 b7 e5 be
       -0.17102472 -0.46877682 0.14569749 -0.44866475
0002f0 b4 63 26 3e 75 ff 8c be 79 1a ae be 6f d3 45 3f
       0.16248971 -0.27538648 -0.34004572 0.7727575
000300 2d 19 be be 82 ac 1c bc 0d a4 3c be 60 fc f5 be
       -0.37128583 -0.009562613 -0.18421955 -0.4804411
000310 1c 83 5e bd 88 b7 86 bd e2 ff 13 3f 67 60 8a be
       -0.054324254 -0.065779746 0.5781232 -0.27026674
000320 5f 51 b2 bc fb ee 64 bf 31 76 a3 bf e1 b3 e3 3d
       -0.021767316 -0.89427155 -1.2770444 0.111182936
000330 f1 b4 0d be ec 42 1d 3e 95 b4 39 bf f8 76 d6 bc
       -0.13838555 0.1535756 -0.7254117 -0.026179776
000340 6a 77 42 3f 3c 18 43 be f0 22 ab 3d d5 bb 1f 3f
       0.7596346 -0.19052213 0.08356273 0.62395984
000350 c5 01 43 be bc da f6 bd d1 78 b0 be db 83 03 bf
       -0.19043644 -0.12053439 -0.34467176 -0.5137307
000360 09 19 6b bd c1 1e 86 3e 48 8f 08 be a4 0d e5 bd
       -0.057396922 0.26195338 -0.13335907 -0.11184242
000370 48 76 46 3e 40 a7 37 be f9 11 9f bc dd f9 80 bf
       0.19381058 -0.17934895 -0.01941775 -1.0076252
000380 8f c1 92 be 6c 2f ac 3e 98 ed 79 3e 77 0a e7 3e
       -0.28663298 0.3362993 0.24407041 0.45125172
000390 c6 4b d8 3c d4 b8 a2 be 52 24 20 3e 81 13 1b bf
       0.02640332 -0.31781638 0.15638855 -0.60576636
0003a0 85 b6 b1 be d1 6d 5a bf 08 5f 02 bf 46 89 a5 bd
       -0.34709564 -0.85323817 -0.50926256 -0.080828235
0003b0 9a 5a 2d be 97 f6 5e 3f 2d a6 30 3d 17 e9 88 be
       -0.16929093 0.87095016 0.043127228 -0.26740333
0003c0 2c 69 aa bd 4c c8 bf be 80 de 3d 3e b0 ff ae 3e
       -0.08320841 -0.37457502 0.18541908 0.3417945
0003d0 e9 e3 37 3d 18 77 e1 be 43 73 a0 be a7 0c 3f bf
       0.044895086 -0.44036174 -0.31337938 -0.7462868
0003e0 2f 97 b2 be 32 44 9e bf cd b6 35 be 30 49 57 3f
       -0.3488097 -1.2364562 -0.17745514 0.8409605
0003f0 ad 92 bc 3e b3 a9 17 bf 41 6f 92 be 35 f4 4d be
       0.36830655 -0.59243315 -0.28600505 -0.20112689

l2.weight f4 [300, 400]
000000 16 95 9f bd aa 5a e5 bc e9 92 73 bd 64 39 6f bd
       -0.07792108 -0.027997334 -0.059466276 -0.05840434
000010 c6 93 8a 3c 02 c2 ee bc 33 f1 49 bd eb e8 0d 3d
       0.016916167 -0.029145245 -0.04930229 0.034645956
000020 48 18 0d 3d 31 a6 6d bb e7 1f d4 bb 44 fa 78 bd
       0.034446985 -0.0036262388 -0.0064735296 -0.060785547
000030 3c fb dd 3c c7 45 ec bc 41 ba cd 3c b3 b9 d6 bc
       0.027097337 -0.028841866 0.025113227 -0.026211595
000040 ce f8 18 bd 1e ba 8d 3c 43 f2 cb 3b 27 0e cb 3c
       -0.037346654 0.017300662 0.006223948 0.024787022
000050 44 fa 4f bc c7 12 5f bd 88 41 1a bd d4 a5 36 bc
       -0.012693945 -0.054461267 -0.03766015 -0.011147935
000060 75 86 30 bc 48 9f 18 3d 7a 5b 62 3b b6 e1 11 3d
       -0.010774245 0.037261277 0.0034539388 0.035615645
000070 23 96 df bc ea d7 22 bd f0 8b 5e 3b 0b f0 00 3d
       -0.02729327 -0.039756693 0.003395792 0.031478923
000080 3e 5e 86 bd b6 bd 80 bd 07 7f 90 bd 78 56 0c bd
       -0.06560944 -0.062861845 -0.070554785 -0.03426215
000090 6c 13 42 bc 84 9f 0c bd 27 86 8e bc 38 38 2c bc
       -0.011845451 -0.034331813 -0.017397953 -0.0105114505
0000a0 9a 98 92 3c 64 d3 82 bd c9 ca 14 3d 12 c2 58 bd
       0.017895032 -0.06387976 0.036326203 -0.052919455
0000b0 18 05 4f 3c 89 d4 c1 bc e9 54 92 bd 2a 36 05 bc
       0.012635492 -0.023660915 -0.071451016 -0.0081305895
0000c0 4d 28 7d 3c f9 28 59 bd 31 b2 52 bd 78 b4 4d bd
       0.015451503 -0.05301759 -0.051439468 -0.050220937
0000d0 56 f9 03 bd 65 1f 1b 3d 35 58 d3 3c 09 bd 35 3d
       -0.032220207 0.037871737 0.025798896 0.04436973
0000e0 c2 3b 0f bc 97 4d 6c bd 86 e6 44 bd f0 9d d4 bb
       -0.008742275 -0.057691183 -0.048071407 -0.006488554
0000f0 f2 27 12 bd 51 17 2d 3d b6 5c 7e 3b 81 ca d4 bc
       -0.035682626 0.042258564 0.0038812584 -0.025975468
000100 ec a9 29 bc cb 59 b5 bc be 43 95 3c ec e1 23 bd
       -0.010355454 -0.022137543 0.018220779 -0.040010378
000110 20 0e 6d 3b 6f f3 14 3c 9b 13 1a 3d 70 28 c1 bb
       0.003617175 0.009091242 0.037616353 -0.005894713
000120 a0 79 0d bd 54 e3 67 bd 5c 1a c9 3a f2 68 11 bd
       -0.03453982 -0.05661328 0.0015342939 -0.035500474
000130 cb 01 3a 3d db 5f d3 bc 28 ff 87 3b 50 30 46 bd
       0.045411866 -0.025802543 0.00415029 -0.04838592
000140 9d 17 28 bd e2 34 26 3c d0 9b bb bb 06 a6 22 bd
       -0.041038144 0.010144444 -0.0057253614 -0.039709114
000150 8b f1 8f bc 50 2f 87 bc 9b 26 2f bd 80 1a 0a 3b
       -0.017571231 -0.016502053 -0.042761426 0.0021072924
000160 59 6f 2e bd 9e d9 f0 3c c5 d9 13 bc 44 71 0f bc
       -0.04258666 0.029400643 -0.009024088 -0.008755032
000170 fb 17 a9 bd 0b 7e 44 bd 0c 79 24 bb 6a a2 69 3c
       -0.08256527 -0.047971766 -0.0025096564 0.014259914
000180 79 24 70 bd 63 01 6e ba 8b 62 0c 3c 37 07 eb bc
       -0.058628533 -0.0009079186 0.008568416 -0.028689964
000190 b8 b0 14 3c d5 ba cc bc 7a 7f c4 3c af 1c d1 bb
       0.009075336 -0.024991432 0.023986567 -0.006381593
0001a0 f2 7a e0 3c bb 4a 4d bd df c1 0d bc ec 26 70 bd
       0.027402375 -0.050120097 -0.0086521795 -0.05863087
0001b0 a1 28 3b 3d 66 ac 1e 3d c8 68 90 bc 88 f2 33 3b
       0.045693044 0.03873863 -0.017628089 0.0027457792
0001c0 03 2d 08 3c 65 31 de bc d3 e3 dc bc 65 88 5f bb
       0.008311513 -0.027123163 -0.026964104 -0.0034108397
0001d0 b2 5f 55 bd 7f 6a 0b 3d c0 71 82 bb 2f c1 75 3c
       -0.052093215 0.03403711 -0.003980845 0.014999672
0001e0 69 54 2b bd 7a 0e dd bb 6b f4 10 bc 7f 0e 8d bb
       -0.041828547 -0.0067461105 -0.008847336 -0.0043047066
0001f0 f0 f9 43 bd ba d9 a2 bd 68 74 9a bb 81 9d 62 bd
       -0.04784578 -0.07951684 -0.0047135837 -0.05532599
000200 d0 34 3c bd 43 0b 15 bd c6 81 d6 3b 0d f6 9a bd
       -0.045948803 -0.036387693 0.006546232 -0.07566462
000210 d0 38 f5 bb 40 b4 6a bd 4f 42 d3 bc f2 eb d1 3c
       -0.007483579 -0.057300806 -0.025788454 0.025625203
000220 d1 e4 46 3d 0e 93 ce 3b 8a e0 06 bd c8 0c 42 bc
       0.04855806 0.0063041514 -0.03292898 -0.011843868
000230 3c 44 92 bb 30 25 ac bc 9a 6f 67 bc a8 94 55 bb
       -0.0044637006 -0.021013826 -0.014125729 -0.0032589827
000240 b0 39 18 3d 09 96 2e bd c2 a9 d1 3c 7c ca e1 3c
       0.03716439 -0.042623553 0.025593642 0.027562372
000250 5b a4 1e bd cd 38 74 bd d1 3c 2f bd a7 ef ef bc
       -0.03873096 -0.059624482 -0.04278261 -0.02928908
000260 15 27 20 bd 21 66 bf bd 4a 77 9f 3c ca f4 5a bb
       -0.03909977 -0.093456514 0.019466061 -0.0033410066
000270 f7 7e b8 3c 3e e5 51 bc bc 9b 12 bd be ac c8 3c
       0.022521479 -0.012811003 -0.03579305 0.024496432
000280 9f 0d 60 bd 77 04 03 bd 75 39 d3 bc f5 f6 ab bd
       -0.05470049 -0.03198668 -0.025784234 -0.08396713
000290 7c 1f 80 3c 71 7e 18 bc 59 8e 45 bb 80 7e 83 bc
       0.015640013 -0.00930749 -0.003014466 -0.01605153
0002a0 0b cb 47 bd 4d de 94 bd 8c 84 9d 3c ee d8 dc bc
       -0.04877762 -0.07268963 0.019228242 -0.026958909
0002b0 6f 42 fc bc 72 36 0b bc d0 db 40 3c 8a c0 fc bc
       -0.030793397 -0.0084968675 0.011771157 -0.030853529
0002c0 e8 2b 88 bd f7 15 8b bd 3f 4e 4a 3c ee bf 9c bd
       -0.066489995 -0.06791299 0.012347757 -0.07653795
0002d0 98 8e fc bb e1 81 48 bd f7 85 09 bd 05 c2 42 bd
       -0.007707428 -0.048951987 -0.033575024 -0.047548313
0002e0 3d f4 b9 bb 98 5d 61 bd 68 2c b8 3b eb ac 83 3b
       -0.0056748674 -0.0550209 0.005620528 0.004018416
0002f0 09 1e df bc a5 40 35 bd 81 a3 16 3d 05 a3 96 3c
       -0.027236002 -0.044251103 0.036777023 0.01838828
000300 71 5e 2d 3c 60 5b 2b 3b 88 30 02 bd cc 90 2c bd
       0.010581599 0.0026146993 -0.031784564 -0.042130277
000310 a0 de 12 bb 56 92 8a bd a8 d4 5e 3b c1 5c 9c 3b
       -0.0022410527 -0.067661926 0.0034001265 0.0047717993
000320 69 d7 31 bb fc 2e 46 3b 4f 79 b7 bb 48 8a 51 bd
       -0.002713645 0.0030240407 -0.005599178 -0.051157266
000330 1a de 9a bc e8 6f 04 bc d4 6c 8c bc 34 78 7b bc
       -0.018904734 -0.008083321 -0.017141737 -0.015348483
000340 f9 88 4b bd ce ef a6 bc 70 f6 80 bc ca 5b a0 bd
       -0.049691174 -0.02037802 -0.01574251 -0.078300074
000350 78 8e db 3c c1 ed 0b 3d a8 89 56 3c 95 c0 8d bd
       0.026801333 0.034162287 0.013094343 -0.06921498
000360 52 15 b7 bc 8c 51 9e bd 69 ba 37 3d 4a 6e 9c 3c
       -0.022349034 -0.077303976 0.04485551 0.019095559
000370 53 3c 04 3c 35 0b 16 3d 50 3f 89 bd 87 ad 6b bd
       0.008071023 0.03663178 -0.06701529 -0.057538535
000380 03 4a 10 bd 4c cb 26 bd 34 33 5a 3c 85 a8 8c bd
       -0.035226833 -0.040721223 0.013317872 -0.0686808
000390 ba 3f 70 bc 98 c1 5c bc 80 62 46 3c 3e e5 84 bd
       -0.014663631 -0.013473891 0.012108445 -0.06489037
0003a0 1d 21 1a bd 97 bc 6f bd 6b e1 3a bd d9 6d 2f 3d
       -0.037629236 -0.058529463 -0.04562513 0.04282937
0003b0 4b 83 ad bd 54 7c de 3c d8 92 e6 bb 24 db 8e bc
       -0.08472308 0.027158894 -0.007036548 -0.017438479
0003c0 e8 da 4c 3c 1a 95 7b bd 1a 2a ac bc 09 58 c2 3c
       0.012503363 -0.06142149 -0.02101617 0.023723619
0003d0 2a aa 90 3c 99 39 7e bc 01 e4 ee bc 4d f0 55 bd
       0.017659266 -0.015516662 -0.029161455 -0.05223112
0003e0 76 02 c9 3c d2 c5 01 bc ee 99 8b bc 15 e3 38 3d
       0.024537306 -0.007920699 -0.017041173 0.045138437
0003f0 64 e5 9e bd 30 8e a6 3c 00 bd 02 bc dd e8 6e 3b
       -0.077585965 0.020331472 -0.007979631 0.0036454715

l2.bias f4 [300]
000000 d7 cd 3a bd 98 5a e8 3c 0d a8 21 be e6 19 63 bd
       -0.04560646 0.028363511 -0.15786763 -0.05544462
000010 66 ba f0 3c 4b 35 ae 3b 74 ee 14 be ad 41 3b 3c
       0.029385757 0.0053164116 -0.14544088 0.011429233
000020 75 6c 45 3e 34 e7 1f 3e 05 9a 66 3e 57 73 0c bd
       0.19279654 0.1561554 0.22519691 -0.034289684
000030 7c 5b 4e 3d 9f 20 47 be b6 3e 11 bc 1b ec 18 3d
       0.050380215 -0.19446038 -0.008865049 0.037334543
000040 88 7f 16 bf 8f 8d 75 bd 92 cc 94 bd 41 30 11 3d
       -0.5878835 -0.059949454 -0.07265581 0.03544641
000050 b8 2c b1 3d 7b f8 7c 3d 46 62 df 3a 80 89 5c bd
       0.086511075 0.061760407 0.0017042838 -0.053842068
000060 d0 53 6b bd c5 0e 8b be ff 0d b2 bd 55 2b 87 bd
       -0.057452977 -0.27159706 -0.08694076 -0.06600062
000070 4a d3 ed 3b b1 66 f6 3c 97 ae 3d be 5d 93 58 bd
       0.0072578536 0.030078264 -0.18523632 -0.05287491
000080 47 79 25 bd 0a 04 39 bc 51 d2 10 3d 6a 78 8e bc
       -0.040398862 -0.011292467 0.035356823 -0.017391402
000090 af 2a 3d be 63 7a 1f 3d 9e dc c0 be 5b d7 26 3e
       -0.18473314 0.038935076 -0.37668318 0.16293089
0000a0 66 21 f8 3d 42 6c b1 bc aa 63 09 3d b8 22 3a bd
       0.12115745 -0.021658067 0.033542313 -0.045443267
0000b0 ee 68 d7 3c a8 12 45 bd ad 20 4d bd 5d 16 56 be
       0.026295152 -0.048113495 -0.05007999 -0.20906968
0000c0 90 a0 b8 3c 3d b2 21 bd 7f da 1e bc f8 23 fe bd
       0.0225375 -0.039476622 -0.009695648 -0.12409204
0000d0 12 94 81 bc 8c 64 57 3e d6 35 3f bd 18 f3 2d bd
       -0.015817676 0.2103445 -0.0466822 -0.04246816
0000e0 24 50 73 3c 6f 8c 6f be e3 07 c6 3e 62 3b 16 3e
       0.01485065 -0.23393415 0.38677892 0.1467109
0000f0 67 1f 42 bc 6a f3 df bd 73 c3 86 bc 6d 13 78 be
       -0.011848307 -0.109350994 -0.01645062 -0.2422616
000100 3a b6 60 bd 4c 1c d8 3c 97 a4 23 be 88 ea 95 bd
       -0.054861285 0.02638068 -0.15980755 -0.07320124
000110 69 bf 57 bc ef 53 5a bd 26 53 30 bb a0 4a ca bd
       -0.013168194 -0.0533027 -0.002690503 -0.09877515
000120 ca 2c e7 3b a6 41 53 3e 12 ec 64 bd 9c f4 66 bd
       0.0070549 0.20630512 -0.055889197 -0.05638562
000130 9d 23 cc be 17 86 dc bc 9d 0c 84 3c d2 19 09 3c
       -0.3987092 -0.026919408 0.016119296 0.008367972
000140 fc 42 15 bd dc 30 56 3e 51 52 07 3c b0 fc 82 bd
       -0.036440834 0.20917076 0.008259372 -0.063958526
000150 2f 7e f1 bd d3 5d 46 3d 25 61 ea 3e 1f c0 56 bd
       -0.11791646 0.04842932 0.4577724 -0.052429315
000160 05 db 13 3e 00 2c 97 bc 0a 28 20 3c 18 9d 84 3d
       0.14439018 -0.018453598 0.009775171 0.06475276
000170 b6 20 d0 bc 43 64 3b 3c 1a 30 66 3c 7b d7 6b bd
       -0.025406223 0.0114374785 0.014049554 -0.057578545
000180 1e 61 27 be 00 55 0f bd 81 b6 69 bd 58 2d f2 bc
       -0.16345641 -0.03499317 -0.057058815 -0.029562637
000190 62 4a 89 be 76 90 39 bd ca 5f 30 be d1 c6 9c be
       -0.26814562 -0.045303784 -0.1722404 -0.30620435
0001a0 f0 34 77 be a9 1b fa 3d 46 b3 62 bc 0b 85 8b bd
       -0.24141288 0.12212307 -0.013836687 -0.06812485
0001b0 a1 f5 d2 bc ba 5b 44 bd 1f ac 12 bd d8 dd 0a 3d
       -0.02575189 -0.04793904 -0.03580868 0.033902973
0001c0 7f 96 09 3e bc db 59 bd b1 b4 0b bd 37 90 5e 3d
       0.13436316 -0.05318807 -0.034107868 0.054336753
0001d0 65 54 30 3d 8d a6 a7 bc 6c c5 3f bd bb 62 30 3e
       0.043049235 -0.02046516 -0.046819136 0.17225163
0001e0 d5 dd e7 bd 4f dc 59 bd ce 95 e9 bc 95 a9 73 be
       -0.11321608 -0.05318862 -0.028513815 -0.23795159
0001f0 39 00 ad bb 6e be 57 bd 8b e5 1a bd 04 92 6e bd
       -0.0052795676 -0.052671842 -0.037816565 -0.05824472
000200 9e a9 3a be 8c d4 12 bc 3a 88 9f bd d4 db af bd
       -0.18228766 -0.008961808 -0.07789655 -0.08586851
000210 16 f2 1f 3c 66 3b 45 be 07 54 a4 3b 76 8c eb 3c
       0.009762308 -0.1926094 0.0050148997 0.0287535
000220 58 66 d5 be 00 27 6d 3d be 10 ca be 56 20 b0 3c
       -0.41679645 0.05789852 -0.39465898 0.021499794
000230 a8 67 09 3d 21 29 a9 bc 78 a0 9a be ea 37 a3 bd
       0.03354612 -0.020649495 -0.30200553 -0.07969649
000240 b5 1b 40 3e ae 28 31 3d 1c 6c c0 bc 37 20 a9 3e
       0.1876057 0.043251686 -0.02348905 0.3303239
000250 f6 b2 66 3b b1 12 13 3e ad ec d0 3c 62 a1 d1 be
       0.0035201884 0.14362599 0.02550348 -0.40943438
000260 1b 74 91 be 66 78 33 bc d8 62 a4 be 00 5e 0b bd
       -0.28408894 -0.010953998 -0.32106662 -0.034025192
000270 aa 91 b7 be 36 9c 18 3c da 7b 99 3c b9 6e 9d bc
       -0.3585332 0.009314587 0.018735815 -0.019217836
000280 cf a7 71 3d f3 d1 d5 be 36 05 3f be 06 c2 4c bd
       0.058997925 -0.4176174 -0.18654332 -0.049989723
000290 bb 51 a3 bd 1a e8 d7 3e 4f e3 6a bd bd db b7 be
       -0.07974573 0.42169267 -0.057345685 -0.35909835
0002a0 e0 c9 e9 bd 6d 2d c1 3d ce 2d 88 be cb ac 99 3d
       -0.11415458 0.094324924 -0.26597446 0.07503661
0002b0 76 94 92 3d 95 73 15 be bd 4a b1 bc 34 7a b9 3e
       0.07157223 -0.14594872 -0.021642083 0.36226046
0002c0 6b 48 c2 bb 6d 70 5a bd b6 d2 09 bd 2b ff 9f 3d
       -0.005929043 -0.053329874 -0.033648215 0.07812341
0002d0 09 df 94 be 20 05 92 bd 0f cf 12 bc 90 f2 d4 3a
       -0.29076412 -0.07129884 -0.008960499 0.0016246606
0002e0 61 d1 0f be df 36 65 bd ea 20 04 3d c1 40 92 3c
       -0.14044715 -0.055960532 0.03225795 0.017853143
0002f0 a0 f1 e8 3b bc 9f 63 3b 5b 7b f0 3e 86 70 11 be
       0.007108882 0.003473266 0.46969113 -0.1420308
000300 e6 9d bc 3e 41 5e c3 3e 69 a0 5e 3e 88 f8 2a bd
       0.36839217 0.38157848 0.21740879 -0.041740924
000310 5d 16 08 be ff b8 95 3d 36 fb 50 3e 05 0f c4 bd
       -0.13289781 0.07310676 0.2040833 -0.09573177
000320 8f 3d 15 3f ba 2f a1 bc 1d c0 98 bc 59 e0 57 bc
       0.58297056 -0.019676078 -0.018646294 -0.013176047
000330 bf fa 88 be 26 e7 4c 3e f2 ec be 3e aa 98 ff bc
       -0.26753804 0.20010051 0.3729015 -0.031200726
000340 47 55 a8 3c 6c 40 c4 3e 33 95 aa bd 45 b9 16 3e
       0.020548476 0.383304 -0.08329239 0.14719112
000350 fb 3b de bc 53 14 b0 3d f5 ce 09 bd 4a 95 85 3e
       -0.02712821 0.085976265 -0.033644635 0.2609046
000360 20 2f 0a bd 17 52 42 bc 32 be 80 3c 43 42 28 bd
       -0.03373635 -0.011860392 0.015715692 -0.041078817
000370 b8 34 82 3e 5d 8c 08 3e ee 23 51 bd af ef f3 3d
       0.25430846 0.13334794 -0.051059656 0.119109504
000380 1b 2a 57 be 3f b1 b1 bd 42 03 1b 3e c5 8a 43 bc
       -0.21012156 -0.08676385 0.15137962 -0.011934941
000390 47 07 5b bd 14 db d2 3e 23 e1 f1 bc 3b ce 90 3c
       -0.053473737 0.41182768 -0.029526299 0.017676463
0003a0 9e f3 49 bb 4d 98 91 bc 2d d5 f9 be 29 a5 1d bd
       -0.0030815373 -0.017772818 -0.48795453 -0.038487587
0003b0 6f 04 25 bc 86 40 2d bd 7a 75 01 bd 9a a2 95 bb
       -0.010071858 -0.042297862 -0.031606175 -0.0045665028
0003c0 f7 5e e9 bd 9f b5 4b bd 40 93 63 bd d2 12 db be
       -0.11395066 -0.049733754 -0.05556035 -0.42787796
0003d0 d6 31 37 bd b4 18 89 bd 86 a1 95 bd 11 37 2f bd
       -0.04472526 -0.06694165 -0.07306199 -0.042777125
0003e0 5f ff c9 be 49 05 9e 3c 19 a5 c9 bd 2a 83 cd be
       -0.39452645 0.01928963 -0.09845943 -0.40139133
0003f0 50 2d 39 bd 68 74 43 3e 86 78 04 bd de 36 9d 3e
       -0.04520923 0.19087374 -0.032341503 0.30705923

l3.weight f4 [6, 300]
000000 9a b9 bb 3d 81 90 06 bd be e8 9a be 5b 67 9d bd
       0.0916626 -0.032852653 -0.30255693 -0.07685729
000010 66 e2 6c 3c ed 28 ca 3b fc 0c d7 3d eb 1a 88 3c
       0.0144582745 0.0061694295 0.105005234 0.016614398
000020 98 6d 69 3e 5e 84 c3 3d ba c6 05 3e f6 c4 09 bd
       0.22795713 0.095467314 0.1306409 -0.033635102
000030 2f ca 96 be 16 70 cd 3e 9e 5a 01 bc 84 6c f7 bc
       -0.2945113 0.40124577 -0.00789514 -0.030203111
000040 33 0c 28 be a6 2a 33 3c 6a 0c 08 3d 40 84 44 3c
       -0.16410904 0.010935461 0.033214964 0.0119944215
000050 bb a3 fa bc 73 8b 95 3e c3 08 67 3b 05 0d 02 3d
       -0.03059565 0.29207954 0.0035253025 0.031750698
000060 78 bb 5e bd 25 93 9f be 5a bd 51 bd 23 39 42 bc
       -0.054378003 -0.3116695 -0.05120597 -0.011854443
000070 b1 25 19 3f 7b be b6 bc 00 b2 6f be 19 0e 3c bd
       0.5982314 -0.022307625 -0.23407745 -0.045911882
000080 70 ed bd 3c a9 99 eb 3c 2b b7 a3 bd 25 fe 9b 3e
       0.023184508 0.028759794 -0.07993921 0.30467334
000090 f9 04 a8 3e 32 58 8f bc 76 cc b5 3e 41 30 66 be
       0.32816294 -0.01749811 0.35507554 -0.22479345
0000a0 29 99 00 3e 57 df 5e bc c2 27 3f be f4 a6 cc bd
       0.12558426 -0.013603053 -0.1866751 -0.09992781
0000b0 3f 76 37 3d 19 99 41 3d d0 5f 9d 3b 8f 6c 03 3c
       0.044790503 0.047265146 0.0048026815 0.008021488
0000c0 7b 03 3b bd 4d 11 c5 3d 0c e8 48 bd 14 8e bc bd
       -0.045657616 0.096224405 -0.049049422 -0.09206787
0000d0 d7 7e 2e be d3 dc ca 3c df da 1b b9 95 1e a7 bd
       -0.17040573 0.0247635 -0.00014863488 -0.0816013
0000e0 1b 37 8b 3d fb 72 cf bd 27 5b a1 3e 31 59 ee 3e
       0.0679762 -0.10129353 0.31514856 0.46552423
0000f0 cd aa 3a 3c c0 43 f0 bd 4d 2f 83 bc 63 73 e3 bc
       0.011393261 -0.11731672 -0.016013766 -0.027764982
000100 5b 08 f9 3c b0 92 4f 3d 28 e7 50 be 16 aa cb bb
       0.030399492 0.050677 -0.20400679 -0.006215344
000110 ef b0 5f bd 12 e6 68 3c 58 dd e9 bc bc cf f1 b9
       -0.054612096 0.014215009 -0.028547928 -0.00046121876
000120 7a 45 f6 bc ba f9 d0 be 15 a2 94 3c 01 00 e5 bd
       -0.030062426 -0.40815526 0.018143693 -0.11181641
000130 e3 9c f2 3c 3f 20 67 bd 05 de 36 bc ab 21 96 bd
       0.029615825 -0.056427237 -0.011161332 -0.073306404
000140 f0 99 dd 3c 81 ae 72 3e 2d 8e 3d 3d f5 a4 a2 3c
       0.027050942 0.2369938 0.046278168 0.019854048
000150 ce be 60 3b fa cf 66 bd 84 40 cf 3e 9d 59 75 bc
       0.0034293416 -0.056350686 0.4047891 -0.014974979
000160 87 36 77 3e 04 46 1a 3d 7a 3e da bc d7 8d c4 be
       0.24141894 0.03766443 -0.02664112 -0.38389465
000170 37 40 4a 3c 6e 6b 76 bb f9 1f 5f bc 78 b2 cd ba
       0.012344412 -0.0037600654 -0.013618463 -0.0015693447
000180 bf de 99 be 42 f2 a9 3c 70 7e 50 bb 60 5b 4e bc
       -0.30052754 0.0207454 -0.0031813644 -0.012595028
000190 1a 3d b0 be 4d 40 c1 3c a8 30 f3 3e ad d0 7e be
       -0.34421617 0.023590231 0.4749806 -0.24884291
0001a0 df f4 47 be d9 9f c1 3e f1 44 d9 bc dc 6d 2d bb
       -0.19527005 0.37817267 -0.026522132 -0.0026463186
0001b0 46 7f 50 bd d1 a3 eb 3c 82 0f 90 3d 81 74 e8 3c
       -0.050902627 0.028764637 0.07034208 0.028375866
0001c0 63 3f d5 3e 83 b0 58 3d 22 9e 9a 3c b2 1c 5a 3e
       0.41649923 0.05290271 0.018874232 0.21300009
0001d0 e9 49 76 be fd 82 84 3c 52 6d f4 bc d0 16 2c 3f
       -0.24051632 0.016175741 -0.029837284 0.6722231
0001e0 0a d5 56 be 28 04 89 3c 73 f2 54 3d 8b 44 3e be
       -0.20979705 0.016725615 0.05198903 -0.18580835
0001f0 b3 0d f9 39 13 fc 56 bd f0 14 2a 3c b9 42 f7 be
       0.00047503188 -0.05248649 0.010380968 -0.48293093
000200 e5 59 58 be f5 e4 bb 3c 34 9e 02 bd 51 18 5e bd
       -0.21128042 0.022936324 -0.031889156 -0.05422241
000210 67 ae 22 3d 94 b8 85 be 60 a3 e5 3a df 84 e2 bc
       0.039717104 -0.26117384 0.0017520003 -0.027651248
000220 9f 3d c2 be 74 12 74 bd 8c 88 98 bc ef 78 71 bd
       -0.37937638 -0.05958791 -0.018619798 -0.058953222
000230 a7 c7 ea 3e 12 5f 02 bc c4 69 5f be cf b3 81 bd
       0.45855448 -0.007957237 -0.2181769 -0.06333124
000240 83 c9 a7 be f8 1d 25 3c 33 d1 5c 3c e5 25 9e 3e
       -0.3277093 0.010077946 0.013477611 0.30888286
000250 3c da 2a 3d 16 95 a9 3e 31 46 5a 3e f8 ce 80 bd
       0.04171203 0.33121556 0.21315838 -0.06289476
000260 63 85 85 3e 7d fa a5 3c c7 8d cc 3e 5e f8 30 be
       0.26078328 0.020261044 0.39951918 -0.17282245
000270 0b cd e1 bd 11 e1 c2 bb 3a ba 33 bd 19 db 2b bc
       -0.11025437 -0.00594724 -0.04387877 -0.010489249
000280 f2 94 fa bd ca f7 57 be 56 2c e9 3e 5f 5c 28 3e
       -0.1223544 -0.21090618 0.45541638 0.16441487
000290 82 28 5a bc 71 c0 a8 bd 2c c9 0d 3d 69 49 d9 bc
       -0.013315322 -0.0823983 0.03461568 -0.026524263
0002a0 28 23 df bd 8f 07 00 3e a6 2e e7 be e2 a0 31 be
       -0.108953774 0.12502883 -0.45152777 -0.17346528
0002b0 01 a2 fa bd c7 54 3c 3d 1d 1f 4e bc ae 41 83 bd
       -0.12237931 0.045979287 -0.01258066 -0.06409012
0002c0 ba 00 86 bc e7 b1 c5 3c 67 7c 52 3c f7 60 02 3e
       -0.016357768 0.024132682 0.012847043 0.12732302
0002d0 53 41 b5 3e 0d e9 17 bd de 1e fd 3b 93 ac 5b bc
       0.354014 -0.03708749 0.007724627 -0.013407844
0002e0 ab 57 89 be f3 65 c7 bc 8d 8c b1 bc 7a af 59 bc
       -0.26824698 -0.024340605 -0.021673465 -0.013286466
0002f0 9c 75 de bc 3e ac 3a bd e7 51 64 bd 10 e2 2d 3e
       -0.02715569 -0.04557442 -0.05574217 0.16980767
000300 f0 9f 83 3e 34 a2 62 bd b0 62 88 be f1 b0 45 3c
       0.2570796 -0.05533047 -0.26637793 0.012066112
000310 79 9a c1 3c 30 8c f9 3d 2d a2 91 3c a6 b2 62 be
       0.023633229 0.12184942 0.017777527 -0.22138461
000320 dc c9 3e 3f 10 dc ba bd e5 fd 3d 3c ae 73 84 bb
       0.7452676 -0.09124005 0.011596178 -0.0040421104
000330 91 19 4d be fc d4 b1 3e 5a 3f 0d 3f 7c 4f ff bd
       -0.20029284 0.34732807 0.5517479 -0.12466332
000340 e7 b6 85 bc ed 2c 97 3e 63 e7 e7 bb ee 5c 38 bc
       -0.016322566 0.29526463 -0.007077144 -0.011252625
000350 7f 30 53 bd 6d 29 9a be c0 46 1a 3c a3 67 b0 3e
       -0.05155992 -0.3010973 0.009416282 0.3445407
000360 e0 08 d6 3a 14 24 ae bb b7 eb 53 3d 53 48 8e 3c
       0.0016329549 -0.0053143594 0.051738467 0.017368471
000370 2c f4 c5 be 38 f0 62 be 4c f9 20 bc 0b f3 a8 3e
       -0.3866285 -0.22161949 -0.009825062 0.32997927
000380 62 f8 29 3d 59 88 39 3f 7f af e7 3d 9d 93 05 3c
       0.041496642 0.72473675 0.1131277 0.0081528695
000390 24 7c 2a bd 9f b1 23 3f 84 4e 84 bc 81 00 75 bb
       -0.041622296 0.63942903 -0.01615072 -0.0037384334
0003a0 ed ac aa 3c 51 74 12 3e c9 59 30 be c3 30 19 bc
       0.02083441 0.14302184 -0.1722175 -0.009350005
0003b0 4b 4c 5c 3b 65 17 e4 3c 9d c1 13 bc b5 f7 ac 3d
       0.003361481 0.027843187 -0.009018329 0.08445684
0003c0 23 60 00 3e d4 f0 a6 bc a0 a5 42 3c 87 20 02 be
       0.12536673 -0.020378508 0.011880308 -0.1270772
0003d0 e0 3c fc 3b 98 6c b8 3c 07 9b c9 3c f0 40 ca 3c
       0.0076976866 0.022512719 0.024610056 0.024689168
0003e0 73 18 4c 3e 84 68 91 bb ec 2c b7 be 96 f5 f9 3d
       0.19931202 -0.004437508 -0.3577646 0.12205045
0003f0 7d 14 9d bc 76 6a 7b 3d 4e d0 68 3d c1 7c c9 3e
       -0.019174809 0.061380826 0.05683928 0.39352992

l3.bias f4 [6]
000000 2b c1 a8 3d e5 83 08 be c7 bc 90 3d c8 35 0b 3c
       0.08239969 -0.13331564 0.070672564 0.008496709
000010 93 e6 0f 3d 32 84 89 bc
       0.035132002 -0.016786668
