average data/Average_TD3_5_Peg-in-hole-triple_assembly_seed_1/_actor.pth (torch_old, 510312 bytes, 6 tensors)

l1.weight f4 [400, 12]
0	0xbea645b6	-0.3247506
1	0x3ebb26e8	0.3655312
2	0x3d809528	0.06278449
3	0xbee74842	-0.45172316
4	0xbda0fff5	-0.0786132
5	0xbecde227	-0.40211603
6	0xbf08d2df	-0.53446764
7	0x3f139c7d	0.5766066
8	0xbdf3d244	-0.11905339
9	0x3e7783d0	0.24171376
10	0x3e398b71	0.18119599
11	0x3e81914d	0.25306168
12	0x3e221ee2	0.15832093
13	0xbe5b06eb	-0.21389358
14	0xbb94d8c7	-0.0045424434
15	0xbdd552e5	-0.104162015
16	0xbe04e94d	-0.12979622
17	0x3e4c790e	0.19968054
18	0x3f0f62aa	0.56009924
19	0x3f09d9cc	0.53847957
20	0xbf67cddc	-0.9054849
21	0x3d90b5a3	0.070658945
22	0x3f21d75a	0.63219225
23	0x3d93c854	0.07215944
24	0x3df5f5b1	0.120097525
25	0xbf322dbb	-0.6960103
26	0x3e4a2327	0.19739972
27	0x3f8f795a	1.1208909
28	0x3cf87643	0.03032983
29	0x3e81b8c5	0.2533628
30	0xbdd56548	-0.104197085
31	0x3f2b63dd	0.66949254
32	0x3e6b96b7	0.23006712
33	0xbe95211d	-0.29126826
34	0xbed2fa9a	-0.4120682
35	0x3ebe7d67	0.3720505
36	0x3e81c950	0.25348902
37	0xbd44f410	-0.04808432
38	0x3dfd0330	0.123541236
39	0xbe095ec8	-0.13415062
40	0x3e910692	0.28325325
41	0xbdfa237c	-0.12213799
42	0x3e5dae24	0.2164846
43	0x3b600700	0.003418386
44	0xbe1bba9f	-0.15207909
45	0x3e17f1ca	0.14838329
46	0xbe1ce986	-0.15323457
47	0x3dade06c	0.08490071
48	0xbf36ecda	-0.71455157
49	0x3ebcf8d5	0.36908594
50	0x3d9d8b27	0.07692557
51	0x3e58c924	0.21170479
52	0x3e54b801	0.20773317
53	0x3e24a93a	0.1608018
54	0x3f44ac0e	0.76825035
55	0xbcf6b365	-0.030114839
56	0x3cf87421	0.030328812
57	0xbec5ac68	-0.38608098
58	0xbe1812b1	-0.1485088
59	0xbe0a1daf	-0.13487886
60	0xbe3f1576	-0.1866053
61	0x3e4001ee	0.18750736
62	0x3e337618	0.17525518
63	0x3e8315a6	0.25602454
64	0xbe25b40b	-0.16181962
65	0xbd42a1e0	-0.047517657
66	0xbbb73e80	-0.0055921674
67	0x3d2cb348	0.042163163
68	0xbe6056ba	-0.21908084
69	0xbe51c449	-0.20485033
70	0x3e20cf40	0.1570406
71	0xbd8aa21a	-0.067692
72	0xbee0aab3	-0.43880233
73	0xbf598e03	-0.8498232
74	0xbb37ce0c	-0.0028046397
75	0xbdfabb5b	-0.122427665
76	0x3eba3917	0.3637168
77	0x3f7730e8	0.96559
78	0xbde5439c	-0.11194536
79	0xbcac6186	-0.021042597
80	0xbe58b48f	-0.21162628
81	0xbf445751	-0.76695734
82	0x3dbcf6e8	0.09226781
83	0xbec2ca06	-0.38044757
84	0x3ecef6fd	0.40422812
85	0xbe93e413	-0.28884944
86	0xbd530eb4	-0.051527694
87	0x3f180a32	0.59390557
88	0xbf085a3d	-0.5326269
89	0xbe7cfbf9	-0.24705495
90	0x3f539c89	0.8266073
91	0xbf2e16d4	-0.6800358
92	0xbd232b1b	-0.03983603
93	0x3d1e19ad	0.038598705
94	0xbea208f1	-0.31647447
95	0x3ee31127	0.44349024
96	0x3e010c28	0.12602293
97	0x3f441e8f	0.7660913
98	0x3ca6e4f5	0.020372847
99	0xbf6bf8bb	-0.9217641
100	0x3caee98f	0.021351604
101	0xbf17c2c9	-0.59281594
102	0xbe191d75	-0.14952643
103	0x3ecb60f0	0.39722395
104	0xbf2f6e8e	-0.6852807
105	0xbc9fb25e	-0.019494232
106	0x3f623ba3	0.8837225
107	0x3f052acd	0.52018434
108	0x3f730df1	0.9494315
109	0xbf904bde	-1.1273153
110	0xbc479fa9	-0.012184062
111	0x3fab61d5	1.3389231
112	0x3e88cc40	0.2671833
113	0xbec3559b	-0.3815125
114	0xbdeeb337	-0.11655276
115	0x3e988021	0.29785255
116	0x3e06a1cd	0.1314766
117	0xbde774e5	-0.11301593
118	0xbe6a9deb	-0.22911803
119	0x3e09445c	0.13404983
120	0xbc4045b5	-0.011735369
121	0xbdadffe0	-0.0849607
122	0x3eb81202	0.3595124
123	0xbdf193a6	-0.1179574
124	0x3dff6e9d	0.1247227
125	0xbe1a1fe4	-0.15051228
126	0xbe95cdd4	-0.29258597
127	0x3e5acb17	0.21366535
128	0x3e12b09e	0.14325187
129	0x3e569cf5	0.20958312
130	0xbe14b1d5	-0.14520963
131	0xbd1eed39	-0.038800452
132	0x3e5ec089	0.21753134
133	0x3e22650a	0.15858856
134	0x3e5b3382	0.21406367
135	0x3e64f8bd	0.22360511
136	0x3e3c3c06	0.18382272
137	0x3d864809	0.06556708
138	0xbe29c590	-0.1657927
139	0xbe569982	-0.20956996
140	0xbe28c5f1	-0.16481759
141	0xbb62d3dd	-0.0034611144
142	0xbe1ff5db	-0.1562113
143	0x3d9cffc0	0.07665968
144	0x3d84d388	0.06485659
145	0x3be1b45e	0.0068879565
146	0x3e4ae229	0.19812836
147	0x3db809ca	0.08986242
148	0x3e339f4f	0.1754124
149	0x3e484711	0.1955836
150	0xbde9486f	-0.11390769
151	0x3e48c5b8	0.19606674
152	0xbdf2730e	-0.11838351
153	0xbd636b87	-0.055522468
154	0xbe930781	-0.28716663
155	0xbe3e673f	-0.18594073
156	0xbe2cb148	-0.16864502
157	0xbdfcdf66	-0.12347297
158	0x3e522a3c	0.20523924
159	0xbdc131f4	-0.09433356
160	0xbe5ce618	-0.21572149
161	0x3de37778	0.11106771
162	0x3dbd4950	0.09242499
163	0x3e3f75a2	0.18697217
164	0xbe18f76c	-0.14938134
165	0x3d802eb8	0.06258911
166	0xbdd73aaa	-0.10509236
167	0xbd84d446	-0.064858004
168	0xbf840a3f	-1.0315627
169	0xbf0978ab	-0.5369975
170	0xbd799b04	-0.06093885
171	0x3f477b0d	0.77922136
172	0x3ec90cd7	0.3926761
173	0x3f32c22b	0.69827527
174	0x3ed65a95	0.41865984
175	0xbdb216a5	-0.08695725
176	0x3e6881d3	0.22705774
177	0xbec41111	-0.3829427
178	0xbe992eff	-0.29918668
179	0xbf037fe5	-0.51367027
180	0xbf8b6eb1	-1.0893155
181	0x3f130e38	0.5744357
182	0xbd99bf2f	-0.075071685
183	0xbedc5154	-0.43030798
184	0xbe04b9a3	-0.1296144
185	0x3f004005	0.50097686
186	0xbf871b29	-1.0555164
187	0xbed69468	-0.419101
188	0x3d8618e3	0.065477155
189	0xbf103b70	-0.56340694
190	0x3f2377bb	0.6385457
191	0xbf919826	-1.1374557
192	0x3ce2f05d	0.027702505
193	0x3e34616a	0.17615286
194	0x3d3eb6b2	0.04656095
195	0xbef56627	-0.479295
196	0xbda35aaf	-0.07976281
197	0xbe914e53	-0.2838007
198	0x3ea48b62	0.3213759
199	0xbf058626	-0.5215782
200	0x3e97692d	0.2957243
201	0xbefc1f29	-0.49242523
202	0x3ebe00ad	0.3710989
203	0xbd5109ae	-0.051034622
204	0x3ed772b2	0.42079693
205	0x3ed004e7	0.4062874
206	0x3b332bc1	0.0027339312
207	0xbf0de659	-0.5542961
208	0x3e4b0a1c	0.19828075
209	0xbdf523d3	-0.119697236
210	0xbf8255c6	-1.0182426
211	0xbefef88d	-0.49799004
212	0xbf0dea0b	-0.55435246
213	0xbe6182b1	-0.22022511
214	0x3f2a4838	0.6651645
215	0x3f0f7748	0.56041384
216	0x3eda5525	0.42643085
217	0x3f2f3df9	0.6845394
218	0xbcc1fa80	-0.023679018
219	0xbe6cb430	-0.23115611
220	0xbf03a383	-0.51421374
221	0x3c63b09a	0.013897086
222	0xbf438e79	-0.7638927
223	0xbeb39569	-0.35074928
224	0x3d82c3c2	0.06384994
225	0xbebcb037	-0.3685319
226	0x3da9ebd5	0.082969345
227	0xbebcb1dd	-0.3685445
228	0x3f1d5b36	0.614673
229	0x3f8b2536	1.0870731
230	0x3deef5d7	0.11667984
231	0xbf7e66ce	-0.9937562
232	0x3e3909ba	0.18070117
233	0xbf548712	-0.830186
234	0xbf58c8f8	-0.84681654
235	0x3deb9e77	0.11504834
236	0xbe7433fc	-0.23847955
237	0x3e2c4e17	0.16826664
238	0x3e509ec3	0.20373063
239	0xbdbde2f4	-0.092718035
240	0xbefffa30	-0.49995565
241	0xbe32823c	-0.17432493
242	0x3ddd925f	0.10818934
243	0x3d3ee4dd	0.04660498
244	0x3dd8cd34	0.105860144
245	0xbe9d32a7	-0.30702707
246	0xbf35a5c0	-0.7095604
247	0xbe8d8a36	-0.2764451
248	0x3c25128d	0.010075224
249	0x3ef9b24b	0.4876884
250	0x3ea607b2	0.32427746
251	0x3dac9723	0.084272645
252	0xbf1248cd	-0.57142335
253	0x3d464946	0.048409723
254	0x3d259d14	0.040433004
255	0x3ef447c9	0.47711018

l1.bias f4 [400]
0	0x3ea010e4	0.31262887
1	0x3f5d66fd	0.8648527
2	0x3de93200	0.1138649
3	0xbe213205	-0.15741737
4	0xbf8d5e88	-1.1044474
5	0x3dc1f900	0.09471321
6	0x3edf9bb3	0.43673477
7	0xbe151019	-0.14556922
8	0x3f3dd68c	0.741555
9	0x3f257314	0.6462872
10	0x3cdaed91	0.026724609
11	0xbe610445	-0.21974285
12	0xbd31b6e7	-0.04338732
13	0x3d18c1c8	0.03729418
14	0xbf37264f	-0.7154283
15	0xbf3e81a8	-0.7441659
16	0x3ead9af9	0.33907297
17	0x3e6f4c83	0.2336903
18	0xbe148012	-0.1450198
19	0xbe118c1d	-0.14213605
20	0x3e455fe0	0.19274855
21	0xbf3f997d	-0.7484358
22	0x3ee9a2f4	0.45632136
23	0xbeeb9e8a	-0.46019393
24	0xbe3b7614	-0.18306762
25	0xbdbce1dc	-0.09222767
26	0xbe5d26dc	-0.21596855
27	0xbefecf1c	-0.49767387
28	0xbd343dfc	-0.044004425
29	0xbda62940	-0.081133366
30	0x3eeda409	0.4641421
31	0x3e45b5ea	0.19307676
32	0x3e3124a2	0.1729913
33	0x3e44f9f8	0.1923598
34	0x3f0e58a2	0.5560399
35	0xbd37707b	-0.044785004
36	0xbe7ceab8	-0.24698913
37	0xbf42ba46	-0.7606548
38	0x3920ff09	0.00015353797
39	0x3f613f4d	0.87987214
40	0xbd878d95	-0.066188015
41	0x3dfd44ba	0.12366624
42	0xbe847db8	-0.25877166
43	0xbdd26469	-0.10273058
44	0xbeb14992	-0.34626442
45	0xbe6cf863	-0.23141627
46	0xbf1e514b	-0.61842793
47	0xbeb707c2	-0.35748106
48	0x3cc38ac0	0.023869872
49	0x3f17a717	0.59239334
50	0x3da67818	0.08128375
51	0x3f27c9de	0.655424
52	0xbc8c633f	-0.017137168
53	0xbec94d5e	-0.3931684
54	0xbee27984	-0.44233334
55	0x3f3040ac	0.6884868
56	0xbefdd909	-0.49579647
57	0xbe810672	-0.2520023
58	0x3d2d9196	0.04237517
59	0xbc877ee2	-0.016539995
60	0x3e4a84cc	0.1977722
61	0x3e10337a	0.14082137
62	0xbe110ad4	-0.14164287
63	0x3ed019f6	0.40644807
64	0xbf0c5e17	-0.5483107
65	0xbf4e3380	-0.8054733
66	0xbe1e759f	-0.15474556
67	0x3e186fd3	0.14886408
68	0x3cbc9bcf	0.023023514
69	0xbeaaf1c8	-0.3338759
70	0xbece1b39	-0.40255144
71	0xbf463501	-0.7742463
72	0xbf4e9dff	-0.8070983
73	0xbf743447	-0.9539227
74	0xbe382936	-0.1798447
75	0x3ebdd809	0.37078884
76	0x3e526e0d	0.20549794
77	0xbd5d25b2	-0.053991027
78	0xbe9b32fa	-0.3031233
79	0xbe609586	-0.21932039
80	0xbf2f9c6b	-0.6859805
81	0xbe52aa34	-0.2057274
82	0xbf29ec0d	-0.6637581
83	0xbe1e0d55	-0.15434773
84	0x3d879d7e	0.06621836
85	0x3f1ba87d	0.6080397
86	0xbc067e20	-0.0082087815
87	0xbdc0bc45	-0.094109096
88	0x3a47eeaa	0.0007626811
89	0x3dbce88f	0.092240445
90	0xbe1e4510	-0.15456033
91	0x3d8131f9	0.0630836
92	0x3e1474d9	0.14497699
93	0xbec83a0e	-0.39106792
94	0xbde628ab	-0.112382255
95	0x3e5b89f6	0.21439347
96	0xbe83e8ab	-0.2576345
97	0xbee2d4de	-0.4430303
98	0x3ea1168c	0.31462514
99	0x3e601f71	0.21886994
100	0xbd7bf21c	-0.06151019
101	0x3db7c832	0.08973731
102	0xbed8eff7	-0.4237058
103	0x3f571d67	0.8402924
104	0xbe8073f2	-0.2508846
105	0x3e691741	0.22762777
106	0x3e6b93da	0.2300562
107	0xbde580d0	-0.1120621
108	0xbe5ee123	-0.2176557
109	0xbd2438ce	-0.040093236
110	0xbe175d4e	-0.14781687
111	0x3e43369a	0.19063798
112	0x3df89342	0.12137462
113	0xbe72d66b	-0.23714606
114	0xbf2e5a39	-0.6810642
115	0xbf09275f	-0.535757
116	0xbec7498a	-0.38923293
117	0xbd616570	-0.05502838
118	0x3e81dd5f	0.25364205
119	0x3d98fa41	0.07469607
120	0x3ccd4d30	0.02506122
121	0x3e98da0b	0.29853854
122	0xbf0fbe5f	-0.5614986
123	0xbecff7be	-0.406187
124	0x3f0ac27f	0.5420303
125	0xbf397ab3	-0.7245285
126	0x3db68c00	0.08913422
127	0x3f221d21	0.633257
128	0x3e8913b4	0.26772845
129	0xbe915fd7	-0.28393432
130	0xbea707bd	-0.3262309
131	0xbebdff27	-0.37108728
132	0xbedd0008	-0.43164086
133	0xbe33af78	-0.17547405
134	0x3e437532	0.19087675
135	0xbcf5587c	-0.02994942
136	0xbf0670a6	-0.5251564
137	0xbf84faf1	-1.0389081
138	0xbf231208	-0.6369939
139	0xbf809a94	-1.0047174
140	0x3e428916	0.18997607
141	0x3e322c20	0.17399645
142	0x3e113bb0	0.14182925
143	0x3d384ff3	0.04499812
144	0xbf3ab9e4	-0.72939897
145	0xbeac6efc	-0.33678424
146	0xbea3552e	-0.31900924
147	0xbe4753c5	-0.1946555
148	0xbea973b4	-0.33096087
149	0xbe507a3f	-0.20359133
150	0xbe2c684b	-0.1683666
151	0x3da94ecc	0.082669824
152	0xbf062cc3	-0.5241205
153	0x3eeec02c	0.4663099
154	0xbeac057a	-0.33597928
155	0xbf802de7	-1.0014008
156	0xbf5c769b	-0.8611848
157	0xbf75ed0a	-0.9606482
158	0xbfa561cf	-1.2920474
159	0xbe7859ff	-0.24253081
160	0x3dc99cfe	0.09844397
161	0x3c46ade0	0.012126416
162	0x3f74f59d	0.95687276
163	0x3dfce4ec	0.12348351
164	0xbe762c33	-0.24040298
165	0x3c29c1f4	0.010361183
166	0xbe8fc873	-0.28082618
167	0xbf823392	-1.0171988
168	0xbdbb4bd2	-0.09145321
169	0xbea48def	-0.32139537
170	0xbf509b23	-0.8148672
171	0x3d313b00	0.043269157
172	0xbe60ccfc	-0.21953195
173	0x3ee6d936	0.45087594
174	0xbf84506f	-1.0337046
175	0x3d1954d5	0.037434418
176	0xbd7a8490	-0.061161578
177	0xbe99843d	-0.29983702
178	0xbe5fa70f	-0.21841072
179	0xbf2fd878	-0.6868968
180	0xbe290a34	-0.16507798
181	0xbca2a34d	-0.019853259
182	0x3e8e3e1d	0.27781764
183	0xbe1f5de6	-0.15563163
184	0xbf429393	-0.7600643
185	0xbecf78d8	-0.40521884
186	0xbf37308a	-0.7155844
187	0xbd484680	-0.04889536
188	0xbde7cc57	-0.113182716
189	0x3e5715a2	0.21004346
190	0xbf3071bf	-0.6892356
191	0xbeeb7e46	-0.45994776
192	0xbdb446be	-0.088025555
193	0xbe8b59f6	-0.27217072
194	0xbf3dbb5a	-0.74114
195	0xbf7bf1a1	-0.9841557
196	0x3e75ac28	0.23991454
197	0xbe02190f	-0.12704872
198	0x3e9b125c	0.30287445
199	0x3e17722b	0.14789645
200	0x3e63f78f	0.22262405
201	0x3d304518	0.043034643
202	0xbce093d2	-0.027414236
203	0xbe6b9f5c	-0.2301001
204	0xbf02852f	-0.5098447
205	0x3dc2b141	0.09506465
206	0x3e456016	0.19274935
207	0xbe45bc9a	-0.19310227
208	0xbe4c8711	-0.19973399
209	0xbe009a04	-0.12558752
210	0x3e2f73f1	0.17134072
211	0xbebcae95	-0.36851946
212	0x3ec01993	0.37519512
213	0x3dde226d	0.1084641
214	0x3dd2b968	0.1028927
215	0x3dac12b9	0.084020086
216	0xbe558b37	-0.20853887
217	0x3f3de8be	0.7418326
218	0x3ecc4d55	0.3990275
219	0x3d0a23e8	0.03372565
220	0x3e8c8ba3	0.27450284
221	0xbefceb98	-0.49398494
222	0x3ef6ea48	0.48225617
223	0xbf6f05f0	-0.93368435
224	0xbd830e6b	-0.063992344
225	0xbeaf08d3	-0.3418642
226	0xbe77c597	-0.24196468
227	0x3ee6f9d8	0.4511249
228	0xbf45f325	-0.77324134
229	0x3e1365e8	0.14394343
230	0xbea739b1	-0.32661203
231	0xbf1c42ce	-0.61039436
232	0x3e2f625b	0.17127363
233	0x3e5023d4	0.20326167
234	0x3e0d332b	0.1378905
235	0x3e56417e	0.20923421
236	0xbedf3906	-0.43598193
237	0x3df99f59	0.12188596
238	0x3e0f698c	0.14005107
239	0x3e67cfc6	0.22637853
240	0xbea01ecc	-0.31273496
241	0x3e027227	0.12738858
242	0xbf32e7c2	-0.69884884
243	0xbecc7157	-0.3993022
244	0xbf396a88	-0.7242818
245	0x3d0d0598	0.034429163
246	0xbf37a75e	-0.7173976
247	0xbf4bb40b	-0.795716
248	0xbf2930c6	-0.6609005
249	0xbebd2ecf	-0.36949775
250	0x3e3c5bee	0.18394443
251	0xbe71cc63	-0.23613124
252	0xbf10e054	-0.565923
253	0xbd8fcafe	-0.070211396
254	0xbf288078	-0.6582103
255	0xbdacc90c	-0.08436784

l2.weight f4 [300, 400]
0	0x3cea68f6	0.028614502
1	0x3cea82bc	0.028626792
2	0xbc8d9188	-0.017281309
3	0x3d049bf1	0.03237528
4	0x3b318279	0.0027085824
5	0xbcca58a7	-0.024700476
6	0xbd4b416b	-0.049622934
7	0xbb234d08	-0.002491774
8	0xbb33538d	-0.0027363033
9	0x3c62d572	0.013844835
10	0x3cbb290e	0.022846725
11	0xbc81f510	-0.015863925
12	0xbc9f949d	-0.019480044
13	0x3c07ca28	0.008287944
14	0xbd3ec1d4	-0.046571568
15	0xbd664e10	-0.05622679
16	0xbd7b2a8f	-0.061319884
17	0xbd80bb47	-0.0628572
18	0xbd186307	-0.037203815
19	0x3cc7e592	0.02440146
20	0xbd13a28e	-0.036043696
21	0x3c5f98e1	0.013647289
22	0x3c785915	0.015157958
23	0xbc61ad13	-0.013774174
24	0xbacd0240	-0.0015640929
25	0x3ce1c95c	0.027561836
26	0xbd42e5d8	-0.047582477
27	0x3c5e0ec2	0.013553323
28	0x3d0008c2	0.031258352
29	0x3d3ef91d	0.04662429
30	0x3c1640cd	0.009170723
31	0xbb58bcd0	-0.0033071525
32	0xbd53ccd4	-0.05170901
33	0xbd013a5d	-0.0315498
34	0xbd6d0624	-0.057867184
35	0xbda30980	-0.07960796
36	0xbd367f30	-0.04455489
37	0x3b80d3e7	0.0039315107
38	0x3cb29692	0.021800313
39	0xbd0e241c	-0.034702405
40	0xbca181d0	-0.01971522
41	0x3ba04028	0.0048904605
42	0xbc20abcf	-0.009806587
43	0x3cd13f17	0.025542779
44	0x3cdfe5e5	0.027331302
45	0xbd46063f	-0.0483458
46	0x3cd57791	0.02605799
47	0xbcf26ddf	-0.029593406
48	0xbd04ee21	-0.03245366
49	0x3d145c7c	0.036221012
50	0xbcfe6ce3	-0.03105778
51	0xbc82687f	-0.015918968
52	0xbc2ff2ba	-0.010739023
53	0xbd960b4c	-0.073263735
54	0x3c31b146	0.010845488
55	0x3cf642b3	0.030061102
56	0xbd7aafed	-0.061202932
57	0xbbf84758	-0.007576864
58	0x3c113f38	0.00886517
59	0x3c972834	0.018451788
60	0x3c20ccb1	0.009814427
61	0xbb974c90	-0.0046172813
62	0x3d3a54a3	0.045490872
63	0xbca58f83	-0.020210033
64	0xbca51560	-0.020151794
65	0xbd6828ed	-0.056679655
66	0xbceb860a	-0.028750438
67	0xbd0132cb	-0.03154258
68	0xbd54a2e8	-0.051913172
69	0xbb851868	-0.0040617473
70	0xbbfd6c70	-0.007733874
71	0xbd88c5af	-0.0667833
72	0xbd9e23e0	-0.07721686
73	0x3c6bc45a	0.014390076
74	0xbcb28c2a	-0.021795351
75	0xbd424515	-0.047429163
76	0xbcdb848a	-0.026796598
77	0xbcc0c630	-0.023532003
78	0xbd268021	-0.040649537
79	0xbc4a3fde	-0.012344329
80	0xbd58beb5	-0.052916247
81	0xbccc08b0	-0.024906486
82	0xbbfd9a70	-0.0077393577
83	0xbc76687b	-0.0150395585
84	0x3cfe62a0	0.031052887
85	0xbd742b83	-0.05961181
86	0x3d334b87	0.0437732
87	0x3cb029d9	0.02150433
88	0xbcd3dc1a	-0.025861789
89	0x3d0da9f3	0.034585904
90	0x3d3fc68f	0.04682022
91	0xbbb71cd6	-0.0055881543
92	0x3c637229	0.013882198
93	0xbd1af463	-0.03783072
94	0xbbf2ef05	-0.0074137473
95	0xbb1d01a0	-0.0023957267
96	0xbd5e2a6e	-0.054239683
97	0xbcac8559	-0.021059679
98	0xbd161b36	-0.036647044
99	0x3c7aa96a	0.0152991805
100	0x3bfb7fa8	0.00767513
101	0xbd1eb6ad	-0.038748432
102	0x3c9b4890	0.018955499
103	0x3c06e6ee	0.008233769
104	0x3cc3296e	0.023823466
105	0xbd77f2fd	-0.060534466
106	0x3cbcc452	0.023042832
107	0x3c8fa5d0	0.01753512
108	0xbb808880	-0.003922522
109	0xbd6de9b5	-0.05808421
110	0xbcf1ba35	-0.029507736
111	0x3bd79916	0.0065795286
112	0x3bf82829	0.007573147
113	0x3d0f6ab1	0.03501386
114	0xbd8b18dc	-0.06791851
115	0xbd91e2b6	-0.0712332
116	0x3cf103d1	0.029420765
117	0x3d2cf00b	0.04222111
118	0xbbe1b127	-0.0068875733
119	0x3d275cd0	0.040859997
120	0x3d126b3b	0.035746794
121	0x3c2de890	0.010614529
122	0xbd5e3f94	-0.05425985
123	0xbd16d8fe	-0.036828034
124	0xbcd60c5d	-0.026128942
125	0xbd471d6e	-0.04861205
126	0x3d4097b5	0.04701968
127	0xbc9d9bca	-0.019239325
128	0xbd23ae46	-0.039961122
129	0x3c531b46	0.01288492
130	0x3c71c228	0.014755763
131	0x3b87d12e	0.004144809
132	0xbc86489b	-0.016392043
133	0x3cb54610	0.022128135
134	0xbd548f14	-0.051894262
135	0x3cab020b	0.020874998
136	0xbc8bad45	-0.017050395
137	0xbd4fa8b1	-0.050697986
138	0xbd79f82c	-0.06102769
139	0xbcc227a1	-0.023700537
140	0xbd20a666	-0.03922119
141	0xbcff8b01	-0.031194212
142	0x3c8fdb9e	0.017560776
143	0xbd2f1fad	-0.042754818
144	0x3c95668f	0.01823738
145	0x3c99456c	0.01870986
146	0x3d03a291	0.032137457
147	0xbc846676	-0.016162138
148	0xbd16b484	-0.036793247
149	0xbceaeb22	-0.028676573
150	0xbd2d6d16	-0.04234036
151	0xbbe64d70	-0.0070282742
152	0xbd69f019	-0.05711374
153	0xbd352583	-0.044225227
154	0xbca7256b	-0.020403584
155	0xbcf45781	-0.029826881
156	0xbd28aa89	-0.04117826
157	0xbc228183	-0.009918573
158	0xbd355cbc	-0.04427789
159	0xbd36c677	-0.044622865
160	0xbd15315f	-0.036424037
161	0x3d17f1da	0.037095882
162	0xbb894a5e	-0.0041897735
163	0xbd6ebf9f	-0.058288213
164	0xbd98eebf	-0.07467412
165	0xbbd82147	-0.006595764
166	0xbd31dc89	-0.04342321
167	0xbc54e28b	-0.012993465
168	0xbcef51d2	-0.02921382
169	0xbc7d359d	-0.015454677
170	0xbd215b8d	-0.03939395
171	0xbd1f22fa	-0.038851716
172	0xbb99b718	-0.004691016
173	0x3cfc144e	0.0307714
174	0x3c01da52	0.007925587
175	0xbd3f7496	-0.046742044
176	0xbc077df3	-0.008269775
177	0x3be0013d	0.006836085
178	0x3b4252e0	0.0029651448
179	0xbbca4988	-0.0061733164
180	0x3d05a795	0.03263052
181	0x3a3cfd80	0.00072094053
182	0xbcaf3b5e	-0.021390613
183	0x3d272239	0.04080412
184	0x3cae7126	0.021294188
185	0xbd9379df	-0.072009794
186	0x3887d01d	6.476066e-05
187	0x3d16357e	0.036672108
188	0x3bb64f49	0.0055636507
189	0xbd676980	-0.056497097
190	0xbd4dcfb7	-0.05024692
191	0x3c89efe4	0.016838022
192	0x3d18b029	0.037277374
193	0xbd28111d	-0.041031945
194	0x3c846c0c	0.016164802
195	0xbc087818	-0.008329414
196	0x3c75587c	0.01497471
197	0xbcf9b506	-0.030481827
198	0xbc4c611e	-0.012474326
199	0x3cb6d3eb	0.022317847
200	0xbb2d1314	-0.0026409077
201	0x3cea6d4b	0.028616568
202	0xbd007739	-0.0313637
203	0xbd517a2c	-0.051141903
204	0xbcc8eb68	-0.024526313
205	0x3ca41827	0.020031048
206	0x3b625e12	0.0034540934
207	0xbc71f778	-0.014768474
208	0xbd1a99a3	-0.037744176
209	0xbc33841f	-0.010956793
210	0x3bbe0b50	0.0057996884
211	0xbd07de38	-0.03317091
212	0x3cf2ebc4	0.029653437
213	0x3d1059a7	0.03524175
214	0x3ce2f666	0.027705383
215	0x3cf16f1b	0.029471925
216	0x3c2a05f6	0.010377398
217	0xbd720184	-0.059083477
218	0xbcc1551d	-0.023600155
219	0x3d197c45	0.03747203
220	0xbcfdf9e6	-0.03100295
221	0x3c12c61a	0.008958364
222	0xbd39f7b0	-0.04540223
223	0xbcf930ed	-0.030418837
224	0x3898caef	7.285724e-05
225	0xbc7dee54	-0.015498716
226	0xbd51de34	-0.0512373
227	0x3d3c1897	0.04592189
228	0xbc44122e	-0.011967225
229	0xbc6b4820	-0.014360458
230	0x3cafbedb	0.021453312
231	0xbd32aea4	-0.04362358
232	0x3b4ef893	0.0031581267
233	0xbd0031bc	-0.03129743
234	0x3cb70b9a	0.0223444
235	0x3cbb67d8	0.022876665
236	0xbc452552	-0.012032824
237	0xbc703c3e	-0.0146628
238	0x3cafa0b2	0.02143893
239	0xbb166e20	-0.0022953823
240	0xbd1e2027	-0.03860488
241	0x3bdd7f6c	0.0067595746
242	0xbd2c75c8	-0.042104512
243	0x3bfe9c55	0.007770101
244	0xbd210e0c	-0.039320037
245	0x3cb87bd2	0.02251998
246	0x3cbfd870	0.023418635
247	0xbd3a8d7d	-0.04554509
248	0xbd8bbb47	-0.0682283
249	0x3c60098a	0.013674149
250	0xbcd35137	-0.025795562
251	0xbc97855a	-0.018496204
252	0x3a240b7c	0.0006257815
253	0xbd58c7b3	-0.052924823
254	0xbcc608a6	-0.024174046
255	0xbd0086d3	-0.03137858

l2.bias f4 [300]
0	0xbda4e776	-0.0805196
1	0xbdf373d2	-0.11887325
2	0xbca3f934	-0.02001629
3	0x3eac3fcd	0.33642426
4	0xbccc9f0a	-0.02497818
5	0x3e146dbe	0.14494988
6	0xbd3e2485	-0.046421546
7	0xbc16418d	-0.009170902
8	0xbeb08caa	-0.34482318
9	0x3de66f25	0.11251668
10	0xbd6f7565	-0.058461566
11	0x3cfbe7d7	0.030750198
12	0xbf148112	-0.58009446
13	0xbd0208e7	-0.03174677
14	0x3cabe45d	0.020982916
15	0xbed6dfdd	-0.4196767
16	0xbdc4274c	-0.09577808
17	0x3c92edd0	0.017935663
18	0xbdf6549f	-0.12027859
19	0xbea53e78	-0.32274222
20	0xbb3d9e66	-0.0028933524
21	0x3c2e729e	0.010647444
22	0xbd3db095	-0.04631098
23	0xbc6508d0	-0.013979152
24	0x3c88145f	0.016611276
25	0x3c20156d	0.009770733
26	0xbd054dc4	-0.032544866
27	0xbca0d6fc	-0.019633763
28	0x3c89b073	0.01680777
29	0xbb89325f	-0.004186913
30	0xbd53595d	-0.051598895
31	0xbe8f5fad	-0.28002682
32	0xbc9e8f54	-0.019355454
33	0xbde93368	-0.11386758
34	0xbd650cc9	-0.055920396
35	0xbd3dd9ac	-0.046350166
36	0xbde99990	-0.11406243
37	0xbc96015f	-0.0183112
38	0xbd331d5b	-0.043729167
39	0xbd7ae979	-0.061257813
40	0xbcc2360c	-0.023707412
41	0x3c0114bd	0.00787848
42	0xbe73b739	-0.23800363
43	0x3f071b2f	0.52775854
44	0xbd8596fb	-0.06522938
45	0xbd1c97be	-0.03823065
46	0xbdbc0935	-0.091814436
47	0xbeb28f1f	-0.34874818
48	0x3ee7b690	0.45256472
49	0xbe01cec1	-0.12676527
50	0x3dcd126f	0.100132816
51	0x3d25e102	0.040497787
52	0xbcaa79bc	-0.02081
53	0x3c835e97	0.016036315
54	0x3c94160e	0.018076923
55	0x3e82362b	0.25431952
56	0xbcf4b731	-0.029872509
57	0x3eccd0ff	0.400032
58	0xbda7ac82	-0.081872
59	0x3da72f33	0.081632994
60	0xbe3f4a27	-0.1868063
61	0xbcd6d9b4	-0.026226856
62	0xbbb92c6a	-0.0056510465
63	0xbd7c9891	-0.061668936
64	0xbe0120ea	-0.12610212
65	0x3c80e856	0.015735786
66	0xbc214425	-0.009842907
67	0xbb7f99f5	-0.0039001678
68	0x3cca5128	0.024696901
69	0xbc8cfa67	-0.017209245
70	0xbc1d3fa1	-0.00959769
71	0xbe421b32	-0.18955687
72	0xbd5048fa	-0.050850846
73	0xbc35c364	-0.011093948
74	0x3db7c285	0.089726485
75	0xbc581d50	-0.013190582
76	0xba9d19be	-0.0011985821
77	0xbef009ec	-0.4688257
78	0xbd22527f	-0.039629456
79	0x3f019f08	0.5063329
80	0x3e66cd51	0.2253926
81	0xbc79ae05	-0.015239243
82	0xbd700f7f	-0.05860853
83	0xbd8d58d5	-0.06901709
84	0xbd339f63	-0.043853175
85	0xbe4f47d7	-0.20242248
86	0xbe39a4ac	-0.18129224
87	0x3d1e8428	0.038700253
88	0x3bcdb01b	0.006277097
89	0x3bf5c579	0.007500347
90	0xbee2cc32	-0.44296414
91	0x3c91cd0a	0.017797966
92	0xbe5125d4	-0.20424587
93	0xbc60fd49	-0.013732263
94	0xbe8b9c11	-0.27267507
95	0x3cf787b7	0.030216081
96	0xbdabfae0	-0.0839746
97	0xbd913d53	-0.07091775
98	0xbb53455e	-0.003223739
99	0xbd736c8e	-0.059429698
100	0xbd5a6eeb	-0.053328436
101	0xbcb94f3a	-0.022620786
102	0xbe56f24d	-0.20990868
103	0xbe1fe8df	-0.15616177
104	0xbd37098b	-0.044686835
105	0xba722ea2	-0.0009238516
106	0xbcc21e7d	-0.023696179
107	0xbf126b58	-0.57195044
108	0xbe818ad6	-0.25301236
109	0xbcb2074c	-0.021731995
110	0xbecad29f	-0.39613816
111	0xbc1dc656	-0.0096298065
112	0xbcb88e95	-0.022528926
113	0xbdd2780a	-0.10276802
114	0xbd8acf77	-0.06777852
115	0x3e82dd9b	0.25559697
116	0xbcf1bacb	-0.029508015
117	0x3dbb18b3	0.091355704
118	0xbddc98b7	-0.107713155
119	0xbd370762	-0.044684775
120	0xbda9d11f	-0.0829184
121	0xbd6bbd67	-0.057553675
122	0xbea74aca	-0.32674247
123	0x3c74b51f	0.014935761
124	0xbdb23cfe	-0.087030396
125	0x3d1a0301	0.03760052
126	0xba61eee4	-0.00086186663
127	0xbea3da4d	-0.32002488
128	0xbd4bd030	-0.04975909
129	0xbc2150e8	-0.00984595
130	0x3c5e9a61	0.0135866115
131	0xbdb18646	-0.08668189
132	0xbd51e393	-0.051242422
133	0xbdf47ebe	-0.11938237
134	0xbcf18fad	-0.029487455
135	0xbcc82869	-0.024433332
136	0xbcc021d6	-0.023453634
137	0xbcc2a61d	-0.02376085
138	0xbe2ca7d5	-0.16860898
139	0x3bd670bc	0.0065442007
140	0xbd0dac80	-0.034588337
141	0xbd1967a0	-0.03745234
142	0x3ee5ac16	0.44857854
143	0xbd18f3c1	-0.037341837
144	0xbc5e55af	-0.013570233
145	0xbd857413	-0.0651628
146	0xbd976b5d	-0.07393525
147	0xbd8a1ef5	-0.06744186
148	0xbd340f3b	-0.043959837
149	0xbe880ee7	-0.2657387
150	0xbe5557b6	-0.2083424
151	0xbd078454	-0.033085182
152	0xbeac8f13	-0.33702907
153	0x3d123387	0.03569367
154	0x3c341eff	0.010993718
155	0x3c59d525	0.0132954465
156	0xbc806088	-0.01567103
157	0xbdb42251	-0.08795608
158	0xbedbf7ff	-0.42962644
159	0xbd274e71	-0.040846292
160	0x3eb069c1	0.34455684
161	0xbd706143	-0.058686506
162	0x3e04afd0	0.12957692
163	0xbd4a7fc6	-0.04943826
164	0x3c2d872b	0.010591309
165	0xba933340	-0.0011230484
166	0xbd11bb84	-0.03557922
167	0xbd89cc90	-0.0672847
168	0xbbe76476	-0.0070615364
169	0x3c221ae2	0.009894105
170	0xbdc953f7	-0.09830468
171	0xbe903a5f	-0.28169534
172	0x3c73f3ba	0.014889652
173	0xbe592d94	-0.21208793
174	0xbd003160	-0.031297088
175	0x3bbb6a82	0.005719484
176	0xbd7e0ae4	-0.062022105
177	0xbe8d753c	-0.27628505
178	0xbd2970f8	-0.0413675
179	0xbdab3a0e	-0.083606824
180	0xbd53b777	-0.051688638
181	0x3f27a398	0.65484
182	0xbd3d53bf	-0.046222445
183	0xbd9c9db1	-0.07647265
184	0xbe03cc45	-0.12870891
185	0x3e05176e	0.12997219
186	0xbd81317f	-0.06308269
187	0xbd3a5414	-0.04549034
188	0x3e2ad015	0.1668094
189	0xbd861dd4	-0.06548658
190	0x3de48fb3	0.11160221
191	0x3cbeffb9	0.023315297
192	0xbd486e31	-0.04893321
193	0xbdcdac0a	-0.100425795
194	0x3c374d75	0.011187901
195	0xbe457800	-0.19284058
196	0x3efeac4d	0.4974083
197	0xbdc97427	-0.098366074
198	0xbd68ae92	-0.05680711
199	0xb9725dc1	-0.00023113845
200	0xbda872d1	-0.082250245
201	0xbd3a9483	-0.045551788
202	0x3bb0a311	0.005390533
203	0xbd351c6b	-0.044216555
204	0xbe0c9668	-0.1372925
205	0xbd6ee987	-0.058328178
206	0xbc742421	-0.014901192
207	0xbe62bfda	-0.22143498
208	0x3e0287c4	0.12747103
209	0xbd27e880	-0.040993214
210	0xbd7a95af	-0.061177906
211	0xbd19c8fe	-0.037545197
212	0x3d7c5430	0.061603725
213	0x3bb88878	0.0056315027
214	0xbd0fb394	-0.03508337
215	0xbe1c6b4a	-0.15275303
216	0xbd6e57a3	-0.058189046
217	0xbd205f57	-0.039153423
218	0x3cf976ec	0.030452214
219	0xbcd5f59b	-0.02611809
220	0x3c819ed8	0.015822813
221	0x3e320b81	0.17387201
222	0xbdfacf3c	-0.12246558
223	0xbd6c5241	-0.05769563
224	0xbd341113	-0.043961596
225	0xbd8ca72c	-0.06867823
226	0xbc852432	-0.01625261
227	0xbe5594f9	-0.2085761
228	0x3d00eb88	0.03147462
229	0xbdce4a07	-0.10072713
230	0xbcb4c9a1	-0.0220688
231	0x3c952a44	0.01820863
232	0xbd02c756	-0.031928383
233	0xbdd41624	-0.103557855
234	0xbcbe659c	-0.02324181
235	0xbd9ed779	-0.07755942
236	0xbe86c1ee	-0.26319832
237	0xbc1bae4c	-0.009502005
238	0x3b64ad1d	0.0034893223
239	0x3c21bf09	0.0098722065
240	0xbdde4558	-0.1085307
241	0xbd2bd53c	-0.041951403
242	0xbebb8ab5	-0.36629263
243	0xbe430e00	-0.1904831
244	0xbe9dc12b	-0.30811438
245	0xbe4190b6	-0.18902859
246	0xbd6c70dc	-0.05772482
247	0xbd3aa04b	-0.045563024
248	0xbef9461a	-0.48686296
249	0xbbf5f3d5	-0.0075058737
250	0xbd40f65c	-0.047109947
251	0x3cf13cb3	0.029447889
252	0x3f115488	0.5676961
253	0xbe87e5c1	-0.26542476
254	0xbdc82e80	-0.09774494
255	0xbeedf81a	-0.4647835

l3.weight f4 [6, 300]
0	0x3c6bca92	0.014391558
1	0xbd490df0	-0.049085557
2	0x3c0e1558	0.008672081
3	0x3dc832ba	0.097753
4	0x3cbfd05e	0.023414787
5	0x3bb51748	0.005526457
6	0x3caa8346	0.02081455
7	0xbb94aefd	-0.004537462
8	0xbe8166f4	-0.2527386
9	0x3d9459d1	0.072436936
10	0xbd7d72c7	-0.06187704
11	0xbb26f53a	-0.0025475756
12	0xbeb61aef	-0.35567424
13	0xbd59610d	-0.05307107
14	0x3dd59085	0.104279555
15	0xbe746765	-0.23867567
16	0xbcefa21f	-0.02925211
17	0x3d0df51f	0.034657594
18	0xbd53ba22	-0.051691182
19	0xbe83a57b	-0.2571219
20	0x3bd6df90	0.0065574124
21	0x3e133e29	0.14379181
22	0x3b7ae68a	0.0038284385
23	0xbd0b7922	-0.034051068
24	0x3ad595ac	0.0016295216
25	0xbd23af7b	-0.039962273
26	0x3c8a13d5	0.01685516
27	0xbd3f4346	-0.046695016
28	0x3caca212	0.021073375
29	0x3c0024df	0.007821291
30	0x3cdccd5a	0.026953388
31	0xbcbe8d0c	-0.023260616
32	0x3d2ab713	0.0416785
33	0xbc875c1e	-0.016523417
34	0x3d3a9b33	0.045558166
35	0x3c1a002e	0.009399457
36	0xbd5f09f7	-0.054452863
37	0x3cdb352c	0.026758753
38	0xbd116ac1	-0.0355022
39	0x3e0eab67	0.13932572
40	0xbc74c276	-0.014938941
41	0xbd48d3b1	-0.04903001
42	0xbe58c911	-0.21170451
43	0x3ec6b899	0.38812712
44	0x3cbc7001	0.023002626
45	0xbcc074bf	-0.023493169
46	0xbca262ef	-0.019822566
47	0xbe054369	-0.13013996
48	0x3eaa339a	0.33242494
49	0xbc72b78b	-0.014814268
50	0x3e51ff2a	0.20507494
51	0xbd067d15	-0.03283413
52	0xbd80c17f	-0.062869065
53	0x3c5f3146	0.013622588
54	0xba2b0db4	-0.0006525174
55	0x3e8d5ba6	0.27608985
56	0xbcc5833d	-0.02411043
57	0x3e4f01d5	0.20215543
58	0xbc595967	-0.013265944
59	0xbd3fcc33	-0.0468256
60	0xbe3070bb	-0.17230503
61	0xbcdb34c9	-0.026758568
62	0xbc91fe79	-0.017821537
63	0x3d410119	0.047120187
64	0xbe228a09	-0.15872969
65	0x3d177d42	0.03698469
66	0x3cfd1c0a	0.03089716
67	0xbb7c5b1c	-0.0038506454
68	0xbd4bb0b6	-0.04972907
69	0xbcac4045	-0.02102674
70	0xbc430cf4	-0.011904944
71	0xbc2ecc52	-0.010668831
72	0x3b9a592c	0.004710337
73	0xbd11d4a5	-0.035603184
74	0x3e5cefc7	0.21575843
75	0xbaf70423	-0.0018845837
76	0xbe811423	-0.25210676
77	0xbd95bf54	-0.073118836
78	0x3cee9ab0	0.029126495
79	0x3ec26cf0	0.37973738
80	0x3e490bf3	0.19633465
81	0xbd05d6fc	-0.03267573
82	0xbc056492	-0.008141654
83	0x3ef20ce7	0.4727547
84	0xbc43990a	-0.011938343
85	0xbe840c04	-0.25790417
86	0xbdad0158	-0.08447522
87	0x3d66664f	0.056249913
88	0xbcc3d0c6	-0.023903262
89	0x3c305bd4	0.010764081
90	0xbdb28d2b	-0.08718332
91	0xbd3d7a0c	-0.04625897
92	0xbe23c5c7	-0.15993415
93	0x3b8d0fb9	0.004304853
94	0xbe4d5a6d	-0.20054026
95	0xbc0dcafd	-0.008654353
96	0xbb88972e	-0.0041684126
97	0x3c699f7c	0.014259215
98	0x3cf49715	0.029857198
99	0xbd1d6b7f	-0.038432594
100	0xbd4e96aa	-0.050436653
101	0x3cabef78	0.020988211
102	0xbe2f1817	-0.17099033
103	0xbde8dc3b	-0.11370131
104	0xbc8b9492	-0.017038617
105	0xbb10dc9d	-0.0022104152
106	0xbceebe48	-0.029143468
107	0xbf107d36	-0.56441057
108	0xbe72ad19	-0.23698844
109	0xbd5564ec	-0.0520982
110	0xbe237fdf	-0.15966748
111	0xbcf7bd14	-0.030241527
112	0xbb0b3ea0	-0.0021247044
113	0x3c05bf15	0.008163233
114	0x3a8ffb8d	0.0010985002
115	0x3d3c251f	0.04593384
116	0xbdd30c90	-0.103051305
117	0x3e1c5e08	0.15270245
118	0xbd8255c9	-0.063640185
119	0xbd294c04	-0.04133226
120	0xbc99497b	-0.018711796
121	0x3ce7b32e	0.028283682
122	0xbd701e23	-0.05862249
123	0x3ba20056	0.0049438877
124	0x3c189c91	0.009314672
125	0x3c6193f7	0.013768188
126	0xbc05c7c8	-0.008165307
127	0xbea1606f	-0.31518885
128	0x3c53a1bd	0.012916979
129	0x3cbcb67e	0.023036238
130	0xbd57f8f7	-0.052727666
131	0x3d6a6420	0.057224393
132	0x3bfa63c0	0.0076412857
133	0xbe26158c	-0.16219157
134	0xbd6f5a14	-0.058435515
135	0xbc004c42	-0.007830681
136	0xbd1a95b7	-0.037740435
137	0xb73e1e85	-1.1331988e-05
138	0x3d4fb0db	0.050705772
139	0xbd69d88a	-0.057091273
140	0xbd753614	-0.059866026
141	0xb9d223e0	-0.0004008105
142	0x3e89760f	0.26847884
143	0x3d32ee84	0.043684497
144	0xbd1ced0b	-0.038312
145	0xbc80ae3e	-0.015708085
146	0xba99ebb3	-0.0011743217
147	0xbd043488	-0.03227666
148	0xbcca9669	-0.024729924
149	0xbe484ad6	-0.19559798
150	0x3e3cc461	0.18434288
151	0xbce685c0	-0.028139949
152	0xbeb80393	-0.35940227
153	0xbb720978	-0.0036931913
154	0xbd1e7ff3	-0.03869624
155	0xbd39fc39	-0.045406554
156	0xbc77751e	-0.0151036065
157	0xba8e217d	-0.001084372
158	0xbecf8cf1	-0.40537217
159	0x3d2b305d	0.04179417
160	0x3e1332fd	0.14374919
161	0xbce80ea0	-0.028327286
162	0xbeb08801	-0.34478763
163	0x3c7f17b9	0.015569621
164	0xbd0487ac	-0.03235595
165	0xbd3e978e	-0.046531253
166	0x3cce21f6	0.025162678
167	0xbb89411d	-0.0041886703
168	0x3d357f9f	0.044311162
169	0xbd293b6d	-0.04131644
170	0x3df2c1d0	0.11853373
171	0xbd87bcbd	-0.06627796
172	0x3b071368	0.0020610932
173	0x3ca7dd92	0.020491395
174	0x3c03718f	0.00802268
175	0xbcc8c105	-0.024506101
176	0xbdd07b02	-0.10179712
177	0x3df1c674	0.1180543
178	0xbcc3e1b5	-0.023911336
179	0xbd0fb3c3	-0.035083544
180	0xbbeae063	-0.0071678623
181	0x3ee84811	0.45367482
182	0x3c91fde0	0.017821252
183	0x3c70f2a3	0.014706287
184	0xbd898e5c	-0.06716606
185	0xbde2cd18	-0.11074275
186	0x3d2056df	0.039145347
187	0x3bee7089	0.007276599
188	0xbe1d501c	-0.1536259
189	0x3e9c97ce	0.30584568
190	0x3e592e44	0.21209055
191	0x3e2d8b56	0.16947684
192	0x3d4e2828	0.050331265
193	0x3d5b2e80	0.053511143
194	0xbcad805c	-0.02117937
195	0xbcc89769	-0.02448626
196	0x3efd086f	0.49420497
197	0xbd19768f	-0.037466582
198	0x3d49e1ca	0.049287595
199	0xbe2bffd8	-0.16796815
200	0x3cab6257	0.020920916
201	0xba0f01e5	-0.00054552994
202	0x3cf2a494	0.029619493
203	0xbc984e21	-0.018591942
204	0xbdce1e25	-0.10064343
205	0xbc9408dd	-0.018070633
206	0x3e01a86b	0.12661903
207	0xbe53a4d1	-0.20668341
208	0x3e80636d	0.25075856
209	0x3d51ebb9	0.051250193
210	0x3bad68e0	0.005292043
211	0xbce1d348	-0.027566567
212	0x3d4cc89a	0.049995996
213	0xbd3694e3	-0.044575583
214	0xbc96e396	-0.018419068
215	0xbe779a34	-0.24179918
216	0xbd0793b2	-0.033099838
217	0xbd0b2625	-0.033971924
218	0x3c966490	0.018358499
219	0xbd3783c7	-0.044803407
220	0x3cab054b	0.020876547
221	0x3e433a4b	0.19065206
222	0xbbdfc69a	-0.006829095
223	0xbc3ff9bc	-0.011717256
224	0xbd8016ee	-0.062543735
225	0xbd420df1	-0.047376577
226	0x3d8bf942	0.068346515
227	0xbd7c625f	-0.06161725
228	0x3c324ae8	0.010882117
229	0xbcb5d554	-0.02219645
230	0xbcaf8cd0	-0.02142945
231	0x3cb37e20	0.021910727
232	0xbd407334	-0.046984866
233	0x3df992eb	0.121862255
234	0xbd13fd37	-0.036130156
235	0xbcd075ca	-0.025446791
236	0x3e68a560	0.22719336
237	0xbcbaeb1e	-0.02281719
238	0x3c07ab52	0.008280592
239	0x3d1e0388	0.038577586
240	0xbc793ef9	-0.015212768
241	0xbbe469bb	-0.006970612
242	0xbe1f3fe4	-0.15551716
243	0xbeb45138	-0.35218215
244	0x3daab394	0.08335033
245	0xbe331c54	-0.17491275
246	0xbc807b85	-0.015683899
247	0x3b0802cf	0.0020753627
248	0xbb9d5bf4	-0.0048022214
249	0x3d39c784	0.04535629
250	0xbd0f68b8	-0.035011977
251	0x3c9bc785	0.019016037
252	0x3e18fdc4	0.14940554
253	0xbe7a1591	-0.2442229
254	0xbdfeb586	-0.124369666
255	0xbe763794	-0.24044639

l3.bias f4 [6]
0	0x3ee5c195	0.44874254
1	0xbdd213d6	-0.1025769
2	0x3c74f2b2	0.014950441
3	0xbdeddfd9	-0.11614961
4	0xbc2a9945	-0.010412519
5	0x3d85a3fe	0.0652542
