average data/Average_TD3_40_Peg-in-hole-triple_assembly_seed_4/_actor.pth (torch_old, 510312 bytes, 6 tensors)

l1.weight f4 [400, 12]
0	0xbeba6c66	-0.36410826
1	0x3ef2d24f	0.47426078
2	0xbd22c849	-0.039741788
3	0xbeb59128	-0.35462308
4	0xbee359b6	-0.44404382
5	0x3d04136e	0.032245092
6	0x3f333915	0.70008975
7	0x3ebde24f	0.37086722
8	0xbe52c1f3	-0.20581798
9	0x3e0c1b77	0.13682352
10	0xbf4fa967	-0.8111786
11	0xbe17778c	-0.14791697
12	0x3f1e2d10	0.6178751
13	0xbcc4c87c	-0.02402138
14	0x3da3f230	0.08005178
15	0x3e23a121	0.15979435
16	0xbcc7c4b0	-0.02438578
17	0xbedbc57c	-0.42924106
18	0xbddcc4ad	-0.107797004
19	0xbf0aeeda	-0.5427071
20	0x3dcec376	0.10095875
21	0x3dfc7a96	0.12328069
22	0x3ef342b6	0.47511834
23	0xbd4ad377	-0.049518075
24	0x3f13aef5	0.5768884
25	0xbf07d224	-0.53055024
26	0x3de03d6d	0.10949216
27	0x3f1553d2	0.58331025
28	0x3d0fb3bc	0.035083517
29	0xbefaa5bf	-0.4895458
30	0x3ebe7f36	0.3720643
31	0x3f125903	0.5716707
32	0x3d873001	0.06600953
33	0x3ef55dd6	0.47923154
34	0xbf350b4e	-0.70720375
35	0x3e93f1f9	0.28895548
36	0xbde69a08	-0.11259848
37	0x3e4a391a	0.19748345
38	0x3e6e59bc	0.23276418
39	0x3d9bf578	0.07615179
40	0x3db58cd8	0.088647544
41	0x3e5af19c	0.21381229
42	0x3e8187d6	0.25298947
43	0xbe3af4a8	-0.18257391
44	0xbdf32f44	-0.118742496
45	0x3e78e384	0.2430554
46	0x3e1fa94c	0.15591925
47	0xbe0ab328	-0.13544905
48	0x3e674cae	0.22587845
49	0x3ed7bcb3	0.42136154
50	0xbc01cbbc	-0.007922109
51	0x3d05c81f	0.032661553
52	0xbea1d8c2	-0.31610686
53	0xbde36a53	-0.11104264
54	0x3d46bb5b	0.04851852
55	0x3ea06611	0.3132787
56	0xbe08656b	-0.13319938
57	0x3ed9816c	0.42481554
58	0xbda05d69	-0.078303166
59	0x3c7d85e8	0.01547382
60	0xbedefe5b	-0.43553433
61	0x3f449b58	0.76799536
62	0xbde7b0ff	-0.11313056
63	0x3d3e24f4	0.04642196
64	0x3e5809c1	0.21097471
65	0x3dfa2327	0.12213736
66	0x3cd07480	0.025446177
67	0xbf1222bd	-0.57084256
68	0xbde6eaa3	-0.11275222
69	0x3e77b888	0.24191487
70	0x3e9300d3	0.28711566
71	0xbf7a3645	-0.9773906
72	0xbf708673	-0.93955153
73	0xbf1d794b	-0.61513203
74	0xbc3b2677	-0.011422745
75	0x3ebd2113	0.36939296
76	0x3e88ce17	0.26719734
77	0xbe29ed97	-0.1659454
78	0x3e419b9d	0.18907018
79	0xbec5d8ec	-0.3864206
80	0xbe3ab164	-0.18231732
81	0x3ef74b39	0.48299578
82	0x3bac1893	0.005251953
83	0xbe32270c	-0.17397708
84	0x3e2e9878	0.1705035
85	0xbe8b2479	-0.27176264
86	0x3e1b23f2	0.15150431
87	0x3ebdbbd6	0.3705737
88	0xbeab1258	-0.33412433
89	0xbe4e331d	-0.20136686
90	0xbd298a9c	-0.041391954
91	0x3dc0e84d	0.09419308
92	0x3e300d64	0.17192608
93	0x3dd450d7	0.103669815
94	0x3da6bd0e	0.08141528
95	0x3e8340d9	0.25635412
96	0xbe8fc36a	-0.28078777
97	0x3e10c348	0.14136994
98	0x3e8e919c	0.27845466
99	0xbe575040	-0.21026707
100	0xbe14ceea	-0.14532056
101	0x3e7d1904	0.24716574
102	0x3e66e094	0.22546607
103	0xbce22dd0	-0.027609736
104	0xbe28b98c	-0.1647703
105	0x3d58c4e0	0.05292213
106	0xbe90c345	-0.2827398
107	0xbde98544	-0.114023715
108	0x3e4ae5b7	0.19814192
109	0xbeb669c4	-0.35627568
110	0x3e025a3d	0.12729736
111	0x3e3d7e38	0.1850518
112	0xbee55176	-0.44788712
113	0xbe8361e3	-0.2566062
114	0x3ec8889d	0.39166728
115	0x3eabc96d	0.33552113
116	0x3d859ff4	0.06524649
117	0x3e2735c2	0.163291
118	0xbc6deaaa	-0.01452128
119	0x3e01999c	0.12656254
120	0x3e9d13f2	0.3067928
121	0xbe52ac7c	-0.2057361
122	0x3d21d340	0.039508104
123	0x3ca6e64d	0.020373488
124	0x3d916ce3	0.071008466
125	0x3e2572e9	0.16157116
126	0x3ea1dd7e	0.31614298
127	0x3e32c01f	0.17456101
128	0xbd826065	-0.06366042
129	0x3df18590	0.11793053
130	0xbe93331d	-0.28749934
131	0x3e0906a8	0.13381445
132	0xbab3fdbe	-0.0013732237
133	0xbdffab62	-0.124838606
134	0x3df58587	0.11988359
135	0x3c97a35b	0.018510511
136	0x3e52d4db	0.2058901
137	0xbd42db4c	-0.04757242
138	0x3e39930c	0.181225
139	0xbdd1fc44	-0.10253194
140	0xbc80a1ae	-0.015702095
141	0x3e4b271b	0.19839136
142	0xbe78bafa	-0.24290076
143	0x3dc4d6ee	0.09611307
144	0x3dbe9122	0.09305026
145	0xbc8758f6	-0.016521912
146	0xbd0304a4	-0.031986848
147	0x3c9994f8	0.018747792
148	0xbe8071ce	-0.25086826
149	0x3dfa8363	0.12232091
150	0x3ec3e8d7	0.3826358
151	0x3f127d6a	0.57222617
152	0xbf081dc0	-0.53170395
153	0x3ea0f0d5	0.3143374
154	0xbe96bd83	-0.2944146
155	0x3eb3fad1	0.35152295
156	0xbf6a1714	-0.91441464
157	0x3dec6742	0.11543132
158	0xbd60a6bf	-0.05484652
159	0xbd0fe352	-0.0351289
160	0x3f0e3c92	0.5556117
161	0xbd37bfac	-0.044860527
162	0xbf718b9d	-0.9435366
163	0xbe2d9c15	-0.16954072
164	0xbd99068d	-0.074719526
165	0xbe9e3015	-0.3089606
166	0x3f139036	0.57641923
167	0xbd9c75e7	-0.076396756
168	0xbdd985a2	-0.106211916
169	0xbe6820eb	-0.22668807
170	0x3eaa95e3	0.3331748
171	0x3e14d278	0.14533412
172	0x3e553ea9	0.20824684
173	0xbd42f443	-0.047596227
174	0xbd51fc7b	-0.051266175
175	0xbd1929f7	-0.037393536
176	0x3d093754	0.03350003
177	0x3cafa887	0.021442665
178	0xbe319922	-0.17343572
179	0x3e6062eb	0.21912734
180	0xbe45ef50	-0.19329572
181	0x3f3088b9	0.6895862
182	0xbd5f629f	-0.05453741
183	0xbeec8369	-0.46194008
184	0xbef49f48	-0.47777772
185	0xbdb0515a	-0.086092666
186	0x3f3531f0	0.70779324
187	0x3c8a692d	0.016895855
188	0x3dd92d5d	0.106043555
189	0xbe1d1a4a	-0.1534206
190	0xbeba0d6b	-0.36338362
191	0xbf137082	-0.5759355
192	0x3eab3f18	0.33446574
193	0x3f0ea7fd	0.5572508
194	0x3e4a202d	0.19738837
195	0xbe640bf2	-0.22270182
196	0xbdd7ed3b	-0.10543295
197	0x3db75cc8	0.089532435
198	0x3edb740f	0.42861983
199	0xbf396c34	-0.7243073
200	0x3e19ecd8	0.15031755
201	0xbc8d51f7	-0.017250998
202	0x3c26c258	0.010178171
203	0xbe294238	-0.16529167
204	0xbf815ac8	-1.0105829
205	0xbd8c977d	-0.068648316
206	0xbca46fcd	-0.020072842
207	0x3e2e06e9	0.16994824
208	0x3e5507e4	0.20803791
209	0xbdadd32f	-0.08487546
210	0x3eaf68b9	0.34259585
211	0x3bb97d48	0.0056606866
212	0xbe850aae	-0.2598471
213	0x3eb430f9	0.35193613
214	0xbd495048	-0.049148828
215	0xbcca7c6c	-0.024717532
216	0x3ea7bc71	0.32760957
217	0x3d4ade99	0.049528692
218	0x3a3ecb38	0.0007278207
219	0x3b9eacd2	0.004842379
220	0xbd0362a9	-0.03207651
221	0xbf275a2f	-0.65371984
222	0xbef32a21	-0.4749308
223	0xbef89e60	-0.4855833
224	0xbceb38e2	-0.028713647
225	0xbe26f918	-0.16305959
226	0x3f2c8ebe	0.6740531
227	0xbed8f4b4	-0.42374194
228	0xbf25b8b6	-0.6473497
229	0x3e01d39d	0.1267838
230	0xbd3cf541	-0.04613233
231	0xbcd5a180	-0.026077986
232	0x3f1a40cf	0.6025514
233	0xbcb78e35	-0.022406677
234	0xbf0709a4	-0.52749085
235	0xbebdf092	-0.37097603
236	0xbda83425	-0.08213071
237	0xbe990fe0	-0.29894924
238	0x3e21ad72	0.1578882
239	0x3d983727	0.074323945
240	0xbf6005c9	-0.8750883
241	0xbe8dd658	-0.27702594
242	0x3c965f15	0.018355886
243	0x3ed41939	0.41425493
244	0x3f409f64	0.7524321
245	0xbdaa25e4	-0.08308008
246	0xbf2badc8	-0.67062044
247	0xbec977f4	-0.3934933
248	0xbe28f7d5	-0.1650079
249	0xbdfb62b4	-0.122746855
250	0xbd7a7a5a	-0.06115184
251	0xbe67db15	-0.22642167
252	0xbecc5c18	-0.39914012
253	0x3f402004	0.7504885
254	0xbd0ee33b	-0.034884673
255	0xbf36e5b0	-0.71444225

l1.bias f4 [400]
0	0x3d879f8e	0.066222295
1	0x3e694a83	0.2278233
2	0x3e9eecc9	0.31040028
3	0xbe701ea0	-0.23449183
4	0x3e9c7daa	0.30564624
5	0xbf352f5b	-0.70775384
6	0x3ec4a1dc	0.3840474
7	0x3e5b372a	0.21407762
8	0x3d2e4f20	0.04255593
9	0x3ce5006e	0.027954306
10	0xbe888fdb	-0.26672253
11	0x3e5457e0	0.20736647
12	0x3eaa1640	0.332201
13	0xbc63cab5	-0.01390331
14	0x3e5507e1	0.20803787
15	0xbed75c0c	-0.42062414
16	0xbee0cfc1	-0.43908504
17	0xbe226d00	-0.15861893
18	0x3d56934c	0.052386567
19	0xbec60ca4	-0.3868152
20	0xbe7d92fa	-0.24763098
21	0xbed9d27d	-0.42543402
22	0xbd9d0315	-0.076666035
23	0x3dde87ed	0.108657695
24	0xbde5939e	-0.11209796
25	0xbdeb821d	-0.114994265
26	0xbd9ab7c1	-0.075545795
27	0xbe1e5b3e	-0.15464494
28	0xbe2b7ab5	-0.16746028
29	0x3f133955	0.57509357
30	0xbec935ab	-0.39298758
31	0x3d11b112	0.035569258
32	0x3d6c3738	0.05766985
33	0xbe7059eb	-0.23471801
34	0xbef260a8	-0.47339368
35	0xbe25bfa5	-0.16186388
36	0x3dc05870	0.09391868
37	0x3e5a1d0a	0.2130014
38	0xbd6c51e8	-0.0576953
39	0xbe80014c	-0.2500099
40	0x3e80a5bf	0.25126454
41	0xbdf3f44b	-0.119118296
42	0xbdd42212	-0.10358061
43	0xbef3221e	-0.47486967
44	0xbda4c2f6	-0.08044998
45	0xbe005ce4	-0.12535435
46	0x3eb00ad8	0.34383273
47	0x3de5c4af	0.11219155
48	0xbd6ab9b9	-0.057306025
49	0xbef31772	-0.47478825
50	0xbe931a63	-0.2873107
51	0x3d952fcb	0.072845064
52	0x3e30a6c5	0.17251118
53	0xbee9a86b	-0.45636305
54	0xbe4cf632	-0.20015791
55	0xbecc7d2b	-0.39939246
56	0xbe0b0eb8	-0.13579834
57	0xbe66b07d	-0.22528262
58	0x3e3cc9c7	0.18436347
59	0xbac96fa6	-0.0015368357
60	0xbe967e8c	-0.29393423
61	0x3e8b996a	0.27265483
62	0x3e6bac3c	0.23014921
63	0x3d085531	0.03328437
64	0xbdbb678e	-0.09150611
65	0x3e6117cf	0.21981739
66	0xbcff63db	-0.031175544
67	0xbe87f4ca	-0.26553947
68	0xbdbae1c1	-0.091250904
69	0x3e9982bb	0.29982552
70	0x3ee6e4a4	0.45096314
71	0xbda2e2b7	-0.07953399
72	0x3dbe44bc	0.09290454
73	0x3e3d00af	0.18457292
74	0xbd4ee2e8	-0.050509363
75	0xbeb8cdfd	-0.36094657
76	0x3e28ef31	0.16497494
77	0xbe6b9d2d	-0.23009177
78	0xbe049a46	-0.12949476
79	0xbec61298	-0.3868606
80	0x3e8d1a63	0.27559194
81	0x3e3331a4	0.17499405
82	0xbe6c0edb	-0.23052542
83	0x3cd37b0a	0.025815506
84	0x3cd83440	0.026392102
85	0x3eb71fb8	0.35766387
86	0xbdfc9cd6	-0.123346016
87	0xbd612955	-0.054971058
88	0xbe84d713	-0.2594534
89	0xbe3b38b6	-0.18283352
90	0xbe9aeb21	-0.30257514
91	0x3cd28198	0.02569656
92	0xbeac0041	-0.33593944
93	0xbaf6069f	-0.0018770284
94	0xbe18cd4b	-0.14922063
95	0x3cabf621	0.020991387
96	0xbe9b264e	-0.30302662
97	0xbe43d3c7	-0.19123755
98	0x3e2564c8	0.16151726
99	0xbeeba0d5	-0.46021143
100	0x3e295979	0.16538037
101	0x3e48fe92	0.19628361
102	0x3ca2ab9d	0.019857222
103	0xbc02d228	-0.0079846755
104	0xbee814d3	-0.45328388
105	0xbec0e4d4	-0.37674582
106	0xbe39056c	-0.18068475
107	0xbdc9d615	-0.09855286
108	0x3e8a0534	0.26957095
109	0xbe4a0c29	-0.19731201
110	0xbe8ebd86	-0.2787897
111	0x3e88f570	0.26749754
112	0x3e820165	0.2539169
113	0x3f0b369b	0.54380196
114	0xbea75ec6	-0.32689494
115	0xbe0a3341	-0.13496114
116	0xbc974b25	-0.018468449
117	0x3efb9e01	0.49143985
118	0xbd5d3ab7	-0.054011073
119	0xbe447a91	-0.1918738
120	0xbe35c966	-0.17752609
121	0x3e4f4490	0.20240998
122	0xbe6dd344	-0.23225123
123	0xbe079d76	-0.1324366
124	0x3dc8d146	0.09805541
125	0xbe6d46e3	-0.23171572
126	0xbf02e8de	-0.5113658
127	0xbe7065bd	-0.2347631
128	0xbcd3b057	-0.025840921
129	0xbea35e5c	-0.31907928
130	0xbe9416d6	-0.28923672
131	0x3e545625	0.20735987
132	0xbec736cb	-0.3890899
133	0xbeb29d95	-0.3488585
134	0x3e4e4d3e	0.20146653
135	0x3df2c5b0	0.11854112
136	0x3de62a2a	0.11238511
137	0xbe35a0e0	-0.1773715
138	0x3e4f42b8	0.20240295
139	0xbeac2d3d	-0.33628264
140	0xbd853840	-0.065048695
141	0x3e2386da	0.1596941
142	0xbdff160b	-0.12455376
143	0x3dfe86de	0.124280676
144	0xbe11189b	-0.14169542
145	0xbe37b339	-0.17939462
146	0x3d2408f8	0.040047616
147	0xbe78dbd5	-0.2430261
148	0x3ef0f92d	0.47065106
149	0xbde85f32	-0.11346282
150	0xbe843a60	-0.25825787
151	0xbd6a985c	-0.057274207
152	0xbde6a4c7	-0.112618975
153	0xbe877ca3	-0.26462278
154	0xbe873d0e	-0.2641377
155	0xbe59cdab	-0.21269862
156	0xbe8470d1	-0.25867322
157	0xbebfb08e	-0.37439388
158	0xbd761288	-0.060076267
159	0x3a88d8b7	0.0010440563
160	0x3e88c996	0.26716298
161	0xbec056b8	-0.3756616
162	0xbdd5006d	-0.10400472
163	0xbc22c7bf	-0.0099353185
164	0xbf03afc1	-0.51440054
165	0xbeda86c4	-0.42680943
166	0x3e79abd2	0.2438195
167	0xbe09647c	-0.13417238
168	0x3f0924bb	0.5357167
169	0xbe34f3a5	-0.17671068
170	0xbe3c47e1	-0.18386795
171	0xbc1f305f	-0.009716122
172	0x3df48fbc	0.11941478
173	0x3f0e89e2	0.5567914
174	0xbf026307	-0.50932354
175	0xbebbe0b7	-0.3669488
176	0x3f22f5a0	0.63656044
177	0xbe31b015	-0.17352326
178	0xbe756493	-0.23964147
179	0x3eb26b16	0.34847325
180	0x3e31a61a	0.17348519
181	0x3e69d382	0.2283459
182	0xbf1ae44d	-0.6050461
183	0xbf27abf4	-0.65496755
184	0xbe90adcd	-0.282576
185	0xbe544ab1	-0.20731618
186	0x3e83c1b8	0.25733733
187	0x3d5746ac	0.052557632
188	0xbf0fd944	-0.56190896
189	0xbd82c1e7	-0.0638464
190	0xbe78f8bc	-0.24313635
191	0x3e341f46	0.17590055
192	0xbf05c402	-0.5225221
193	0x3e5b2cd4	0.2140382
194	0xbee33765	-0.443782
195	0x3df685fa	0.12037273
196	0xbe013d08	-0.12620938
197	0xbf01d57c	-0.50716376
198	0xbdad7297	-0.08469122
199	0xbec6d6b9	-0.38835695
200	0x3dec95dc	0.11552021
201	0xbe077a07	-0.13230143
202	0x3d428a34	0.047495082
203	0xbe7dd889	-0.24789633
204	0x3dc924d0	0.098214746
205	0xbd84a716	-0.064771816
206	0xbcb7e5b1	-0.022448393
207	0xbc7fdb4f	-0.015616252
208	0xbd2788a7	-0.040901806
209	0xbe9b2753	-0.3030344
210	0xbe8203ea	-0.2539361
211	0x3d5fb191	0.0546127
212	0xbf1075b5	-0.56429607
213	0x3e978781	0.2959557
214	0xbeab3786	-0.334408
215	0xbd44d5a8	-0.04805532
216	0x3ec46203	0.38356027
217	0xbefe0381	-0.49612048
218	0xbed9da4e	-0.42549366
219	0xbddaa525	-0.1067603
220	0xbde620aa	-0.11236699
221	0xbe0d0e41	-0.13774969
222	0xbe397ee8	-0.18114817
223	0x3ea9c73d	0.3315982
224	0x3d1cda79	0.03829429
225	0xbea05a41	-0.31318858
226	0x3e5f0ea9	0.21782936
227	0xbec5ec47	-0.38656828
228	0xbf10b042	-0.5651895
229	0x3e3c1610	0.18367791
230	0xbec75aca	-0.38936454
231	0x3ec032c3	0.37538728
232	0xbd49f3f4	-0.049304917
233	0x3ce7c5b0	0.028292507
234	0x3d3be5f8	0.045873612
235	0xbc537479	-0.012906187
236	0x3ebba213	0.3664709
237	0x3effe72d	0.4998106
238	0x3eb24db8	0.3482492
239	0xbec0a5d0	-0.37626505
240	0xbd916970	-0.07100189
241	0x3ea2b19a	0.31776124
242	0xbddf7248	-0.10910469
243	0x3e276bc5	0.16349705
244	0x3e1ba2ff	0.15198897
245	0xbe89a83d	-0.26886168
246	0xbedc8c80	-0.43075943
247	0xbf1efc54	-0.6210377
248	0x3de310c7	0.110871844
249	0x3e9019d6	0.2814471
250	0xbec0e4f0	-0.37674665
251	0xbc858bcf	-0.016302017
252	0xbf10e48c	-0.56598735
253	0x3ed12a77	0.4085271
254	0xbeffef04	-0.49987042
255	0x3eae2876	0.34015244

l2.weight f4 [300, 400]
0	0xbe430702	-0.19045642
1	0x3c93008e	0.0179446
2	0x3e928dd1	0.28623822
3	0xbc5f1354	-0.013615448
4	0xbe1ff9d9	-0.15622653
5	0xbccacc80	-0.024755716
6	0x3ddaa678	0.10676283
7	0xbd136f41	-0.035994772
8	0x3d4118d9	0.047142837
9	0x3e263301	0.16230394
10	0x3d335376	0.043780766
11	0xbc4e22de	-0.012581555
12	0xbddd925d	-0.10818932
13	0x3e435ae0	0.19077635
14	0x3d104131	0.03521842
15	0xbe738d2e	-0.23784325
16	0xbe4678fe	-0.19382092
17	0xbd9a4324	-0.07532337
18	0x3e029aa4	0.12754303
19	0x3e448ff6	0.19195542
20	0x3e41f8eb	0.18942611
21	0xbd8ea9d9	-0.069659896
22	0x3bf3db68	0.0074419267
23	0x3dc7bb71	0.097525485
24	0xbe1caee7	-0.15301095
25	0xbdd459ad	-0.10368667
26	0xbe8bf6d2	-0.27336746
27	0xbd807bc0	-0.062736034
28	0x3e046093	0.12927465
29	0x3cf01c11	0.029310258
30	0x3dd76578	0.105174005
31	0x3ce60442	0.028078202
32	0x3e73a9a5	0.23795183
33	0xbe4ae909	-0.19815458
34	0xbdf86729	-0.12129051
35	0xbcfc229a	-0.030778218
36	0xbdedf5d8	-0.116191566
37	0x3c4a7414	0.012356777
38	0x3ca77c02	0.020444874
39	0xbdbaa6da	-0.09113856
40	0x3dc4d72b	0.096113525
41	0x3d9ee970	0.077593684
42	0x3d9112a4	0.070836335
43	0x3ec034aa	0.3754018
44	0xbe917f47	-0.28417417
45	0xbcb09500	-0.021555424
46	0xbdbc41af	-0.09192216
47	0xbd36463d	-0.04450058
48	0xbe58f4a8	-0.21187079
49	0xbd8020e4	-0.062562734
50	0x3c741864	0.014898393
51	0xbe342483	-0.17592053
52	0x3d602fe4	0.054733172
53	0xbeaa2d62	-0.3323775
54	0x3e09fbff	0.13475035
55	0xbde58938	-0.11207813
56	0xbdd590e0	-0.10428023
57	0xbe0000d4	-0.12500316
58	0xbb0757c7	-0.0020651685
59	0xbe12a94a	-0.14322391
60	0x3ddc6e78	0.10763258
61	0xbc54de6d	-0.012992484
62	0xbe0a6a07	-0.13517009
63	0x3e3b5460	0.18293905
64	0x3dce5175	0.100741304
65	0xbcec84fa	-0.028872002
66	0x3e4a8154	0.19775897
67	0xbdfa8eb6	-0.12234251
68	0x3de8fe3b	0.113766156
69	0x3e0afd3d	0.13573165
70	0x3ca4ae1b	0.020102551
71	0x3d75ffce	0.060058407
72	0xbcf60fcd	-0.030036831
73	0x3e120f63	0.14263682
74	0xbe239936	-0.15976414
75	0xbe8a2dc7	-0.2698805
76	0xbd4c0cfd	-0.049817074
77	0xbd36d913	-0.04464061
78	0x3d5455a9	0.051839504
79	0x3d0d8910	0.03455454
80	0xbcc93523	-0.02456147
81	0x3d3a660b	0.045507472
82	0x3c33a431	0.010964439
83	0xbbd8eb4e	-0.0066198474
84	0xbe21b414	-0.1579135
85	0x3d407424	0.04698576
86	0xba977e5c	-0.0011558044
87	0x3db2fd73	0.08739748
88	0xbe3ee2f2	-0.1864126
89	0x3e41a065	0.18908842
90	0xbe135c18	-0.143906
91	0xbe4b044b	-0.19825856
92	0xbcf73bdc	-0.03017991
93	0xbcb1b83a	-0.021694291
94	0x3e55a4b5	0.20863612
95	0xbd1882c6	-0.03723409
96	0x3c236aa9	0.00997416
97	0xbe3f01c6	-0.1865302
98	0xbdbf2581	-0.09333325
99	0xbeaa584d	-0.33270493
100	0xbd1f48ce	-0.03888779
101	0xbc271a78	-0.010199182
102	0x3e1d31f0	0.15351081
103	0xbd9e1d2a	-0.07720406
104	0x3d9f1c77	0.07769101
105	0xbd80b9ce	-0.062854394
106	0xbe7e6616	-0.2484363
107	0xbd6d4933	-0.057931136
108	0xbe28341c	-0.16426128
109	0x3a197400	0.0005853772
110	0x3ec0f706	0.37688464
111	0x3d5331e5	0.051561255
112	0xbcf6c43d	-0.03012287
113	0xbe07faa8	-0.13279212
114	0xbe9054d6	-0.28189725
115	0x3d27c7dc	0.040962085
116	0x3d6171f4	0.055040315
117	0x3e17f490	0.14839387
118	0x3e243fa9	0.1603991
119	0xbe082bcf	-0.13297962
120	0x3d15a995	0.03653868
121	0xbdc67cbc	-0.0969176
122	0x3ba95c58	0.005168479
123	0x3e8d7334	0.27626956
124	0xbc14ee86	-0.009090072
125	0xbe2e1538	-0.17000282
126	0x3d04e7a7	0.032447483
127	0x3df8aea3	0.12142684
128	0x3db31a93	0.08745303
129	0xbe0a514e	-0.13507578
130	0x3d307061	0.043075923
131	0xbde2d6f6	-0.11076157
132	0x3ede6ae3	0.43440923
133	0xbdc113fc	-0.0942764
134	0xbd7a1306	-0.0610533
135	0x3e5fe48c	0.21864527
136	0xbde32f1c	-0.1109297
137	0x3c883a96	0.016629498
138	0x3e73d6af	0.23812364
139	0xbdc70399	-0.09717483
140	0xbe21673d	-0.15762039
141	0x3d133305	0.035937328
142	0xbd768420	-0.060184598
143	0x3c140ff4	0.009037007
144	0xbdc5dc3f	-0.09661149
145	0xbc2ffeca	-0.010741899
146	0x3d22e357	0.03976759
147	0x3ca44c7a	0.020055998
148	0x3c9695e4	0.01838202
149	0x3e12b1ef	0.14325689
150	0xbdc120d3	-0.09430089
151	0x3de6fd4f	0.112787835
152	0xbe190407	-0.14942943
153	0xbdc4aad0	-0.096028924
154	0xbe04f462	-0.1298385
155	0xbd49c6e9	-0.04926196
156	0x3e2f4988	0.17117894
157	0xbd878f4e	-0.0661913
158	0xbe413ad1	-0.18870093
159	0x3dd05285	0.10171989
160	0xbd22a026	-0.03970351
161	0xbd608e1c	-0.054823026
162	0xbe5e8542	-0.21730521
163	0xbe0a6d2c	-0.13518208
164	0xbce77b4c	-0.028257035
165	0x3d1ccb07	0.03827956
166	0x3d727ff0	0.059204042
167	0x3d82f1ad	0.06393752
168	0xbe026ae9	-0.12736095
169	0xbe2796cd	-0.1636612
170	0xbb6ddfe0	-0.003629677
171	0x3e45db5c	0.1932196
172	0x3beeb770	0.007285051
173	0x3cc886e6	0.024478387
174	0xbe2c5cd0	-0.1683228
175	0xbe24717a	-0.16058913
176	0xbd8f0fdb	-0.06985446
177	0xbbd267c0	-0.0064210594
178	0xbe88409c	-0.26611793
179	0x3e099829	0.1343695
180	0x3e26b701	0.16280748
181	0x3de1f677	0.110333376
182	0xbe12012e	-0.14258263
183	0xbe817622	-0.2528544
184	0xbdcd5350	-0.10025656
185	0xbe09413b	-0.1340379
186	0x3bd780d8	0.0065766387
187	0x3e18cedb	0.14922659
188	0xbdecd76c	-0.11564526
189	0x3e946db1	0.28989938
190	0xbbea3228	-0.0071470924
191	0x3dd970af	0.10617196
192	0xbdf0656f	-0.11738097
193	0x3e8b6575	0.27225843
194	0xbe54863b	-0.2075433
195	0xbccadf4c	-0.02476468
196	0xbb4843b0	-0.0030557923
197	0x3da03e67	0.07824402
198	0xbe071c9a	-0.13194504
199	0xbe7e62aa	-0.24842325
200	0xbd37ad10	-0.04484278
201	0xbde7bca9	-0.11315281
202	0x3e161e4b	0.14659993
203	0x3ca1eadd	0.019765312
204	0x3cf564b8	0.029955253
205	0xbd10e7ad	-0.035377193
206	0x3cff1272	0.031136725
207	0xbccda8af	-0.025104849
208	0x3eb32683	0.3499032
209	0x3d58ab81	0.052897934
210	0xbd32f6e0	-0.04369247
211	0x3d9449ee	0.072406635
212	0xbe80095c	-0.2500714
213	0xbdd489c1	-0.10377837
214	0x3e0f66d3	0.14004068
215	0x3e138e7e	0.14409825
216	0x3e7d1b3c	0.2471742
217	0xbdbde33b	-0.092718564
218	0xbe838b95	-0.2569243
219	0xbc2a6559	-0.01040014
220	0x3daaa0a5	0.08331422
221	0xbcb46f9e	-0.02202588
222	0x3e40c02d	0.18823309
223	0x3cb3b1a5	0.021935293
224	0x3dd2984b	0.10282954
225	0xbd32862d	-0.04358499
226	0x3e3c6e28	0.18401396
227	0x3d9e551d	0.07731078
228	0xbe774e5f	-0.2415099
229	0xbe6fcff6	-0.23419175
230	0xbdae20a0	-0.085023165
231	0x3c4a4278	0.012344949
232	0x3b03a3d0	0.0020086654
233	0xbd079b95	-0.03310736
234	0xbd945677	-0.07243054
235	0x3c91fbc4	0.017820247
236	0xbe5a58ec	-0.21322984
237	0xbe07106d	-0.1318986
238	0x3e483944	0.19553095
239	0xbe12e6e7	-0.14345895
240	0xbe7874d5	-0.24263318
241	0x3e1bfe0d	0.15233631
242	0xbdebe5ff	-0.11518478
243	0xbd1af1a1	-0.03782809
244	0x3e34bb53	0.17649584
245	0xbde5777c	-0.112044305
246	0x3d451a73	0.048120927
247	0xbdee1648	-0.116253436
248	0x3e5e805d	0.21728654
249	0x3b3783d0	0.002800215
250	0xbe0927fe	-0.13394162
251	0xbd310808	-0.04322055
252	0xbe0e6fa1	-0.1390977
253	0x3e5a8f2e	0.21343681
254	0xbde62548	-0.112375796
255	0x3e721062	0.23639062

l2.bias f4 [300]
0	0xbd891a4d	-0.066944696
1	0x3b3e4882	0.0029034917
2	0xbe8a3b27	-0.26998255
3	0x3d9fd80b	0.07804879
4	0x3c037fc3	0.008026066
5	0xbc767dac	-0.015044611
6	0xbc822173	-0.01588509
7	0xbdbdf3af	-0.092749946
8	0x3e9b25d4	0.30302298
9	0xbe80e716	-0.25176305
10	0x3d047c15	0.032344896
11	0x3e7a4b72	0.24442843
12	0xbece0b8b	-0.40243182
13	0xbd65f3b9	-0.056140635
14	0xbd1d0a5d	-0.03833996
15	0x3daac9fe	0.08339308
16	0xba91e5a3	-0.0011131059
17	0x3e2f3cc8	0.1711303
18	0x3d945404	0.07242587
19	0xbd6a06d8	-0.057135433
20	0x3d716b22	0.05894006
21	0x3e74ccbf	0.2390623
22	0xbd51f5ca	-0.051259793
23	0xbe0e2ba4	-0.13883835
24	0xbdb07014	-0.08615127
25	0x3c718c25	0.014742886
26	0xbcd0727a	-0.025445212
27	0xbbfb95a1	-0.0076777493
28	0xbbf689d0	-0.0075237527
29	0x3c790317	0.015198491
30	0xbc6cb824	-0.014448199
31	0xbdfafafe	-0.12254904
32	0xbcf3692f	-0.029713241
33	0xbd08ad61	-0.033368472
34	0x3c4757b4	0.012166906
35	0xbc4ca797	-0.012491128
36	0xbd93d1b1	-0.0721773
37	0xbdb314e8	-0.08744222
38	0x3c8719b1	0.016491743
39	0xbd7d7c3c	-0.061886057
40	0xbcbe30b3	-0.023216581
41	0xbd9d0736	-0.07667391
42	0x3d3552a8	0.04426828
43	0xbbde8a5d	-0.0067913965
44	0x3c86e7c6	0.01646794
45	0xbbe6122a	-0.0070212083
46	0x3b9fe9d7	0.004880171
47	0x3cce96d5	0.025218407
48	0xbcdfa05a	-0.027298141
49	0x3da1725c	0.078831404
50	0xbce8fcfc	-0.028440945
51	0xbd4e3699	-0.050345037
52	0xbd48d3c2	-0.049030073
53	0xbd6bb3e6	-0.05754461
54	0xbd82917c	-0.06375405
55	0x3e144042	0.14477637
56	0x3da177a3	0.07884147
57	0x3dd4b151	0.10385383
58	0xbca46b8a	-0.02007081
59	0xbde20b7b	-0.11037346
60	0xbdc27639	-0.094952054
61	0xbb9d106b	-0.004793217
62	0xbcb5c2cf	-0.022187619
63	0xbc0a40d5	-0.008438309
64	0xbc3e4dec	-0.011615258
65	0xbc4d5274	-0.012531865
66	0xbca7885a	-0.02045076
67	0xbe1c1784	-0.15243345
68	0xbc0c5e19	-0.0085673565
69	0x3e385b2a	0.18003526
70	0xbd30057f	-0.04297399
71	0x3daaa09e	0.083314165
72	0x3c856d40	0.016287446
73	0xbdd4f909	-0.10399062
74	0xbe305077	-0.17218195
75	0x3e596d10	0.2123301
76	0xbd9562fc	-0.072942704
77	0x3d865d16	0.065607235
78	0xbe2dd3d6	-0.1697534
79	0xbbc53a5d	-0.0060189203
80	0xbe65f9f4	-0.22458631
81	0x3e2b0549	0.16701235
82	0x3d149c6f	0.036282
83	0x3d04a0b3	0.032379817
84	0xbc3b6235	-0.011436989
85	0x3e2a2c91	0.16618563
86	0xbe7d9884	-0.24765211
87	0xbdac2c9c	-0.08406946
88	0x3bebad7f	0.007192313
89	0xbd4cffdd	-0.050048698
90	0x3dbc6dec	0.092006534
91	0xbde21505	-0.110391654
92	0xbcbd1b6a	-0.023084361
93	0xbd9d52de	-0.07681821
94	0x3dd46ab8	0.103719175
95	0xbd1e169a	-0.038595773
96	0x3d253755	0.04033597
97	0xbcac38ab	-0.021023115
98	0x3db035ff	0.08604049
99	0xbd59d0ba	-0.053177573
100	0xbe309207	-0.17243205
101	0x3d5f535a	0.05452285
102	0x3c473038	0.012157492
103	0x3e311370	0.17292571
104	0xbd9cc0fb	-0.076539956
105	0x3dadd2d0	0.08487475
106	0xbe48fe5c	-0.1962828
107	0x3cc9b9dd	0.02462476
108	0xbdb830a8	-0.089936554
109	0xb9625577	-0.00021584878
110	0xbd932edb	-0.07186671
111	0xbda3f699	-0.08006019
112	0xbd06593b	-0.03279994
113	0xbd9335fc	-0.07188031
114	0xbe2e2ec9	-0.17010035
115	0xbe22d5bf	-0.1590185
116	0xbdb78b8d	-0.08962164
117	0x3c258b7e	0.010104058
118	0xbd82125e	-0.063511595
119	0xbd16e722	-0.03684152
120	0xbd199d10	-0.037503302
121	0x3e1345b3	0.14382057
122	0x3e1be94c	0.15225714
123	0x3db43cf3	0.08800688
124	0xbd4c8c49	-0.049938474
125	0x3e2db752	0.16964462
126	0x3dd1dd64	0.10247305
127	0xbd12f78f	-0.03588062
128	0xbcf41831	-0.029796692
129	0xbd3fce77	-0.04682776
130	0xbce4c8a1	-0.027927699
131	0xbcb01a69	-0.021496968
132	0xbce59770	-0.028026313
133	0xbc6eff8c	-0.014587294
134	0xbda7f2fc	-0.082006425
135	0xbda24ce5	-0.07924823
136	0xbd4ef911	-0.050530497
137	0x3c36c3f9	0.011155122
138	0x3da1c46b	0.07898792
139	0xbe367074	-0.17816335
140	0xbcfdef45	-0.030997882
141	0x3cab3f50	0.020904213
142	0x3ea2da55	0.318072
143	0xbe05b46f	-0.13057111
144	0xbb24948b	-0.0025112953
145	0xbd6439a5	-0.055719037
146	0xbe825819	-0.25457838
147	0x3eda36ef	0.42620036
148	0xbd411a7e	-0.047144406
149	0x3e5c63e6	0.21522483
150	0xbb70efe9	-0.0036764091
151	0xb90cf140	-0.00013441313
152	0x3db6da8d	0.08928404
153	0xbd083721	-0.0332557
154	0xbd43a0a1	-0.04776061
155	0xbe6cf057	-0.23138557
156	0xbe955467	-0.29165956
157	0x3e219af3	0.15781765
158	0x3e9140c8	0.28369737
159	0x3d0b225c	0.033968315
160	0xbcdddf54	-0.02708403
161	0xbe99559e	-0.29948133
162	0x3c4bba29	0.012434521
163	0xbded2906	-0.1158009
164	0xbd53c8ab	-0.051705044
165	0x3e1a1c28	0.15049803
166	0x3e19bbb9	0.15013017
167	0x3e3b3604	0.18282324
168	0xbd4b0c78	-0.049572438
169	0xbd837d79	-0.064204164
170	0x3b966096	0.0045891507
171	0x3cce3968	0.025173858
172	0xbdc9fac0	-0.0986228
173	0x3dd34a05	0.103168525
174	0x3bc9cf2a	0.006158729
175	0xbe138884	-0.14407545
176	0x3ca4d235	0.020119766
177	0xbd171b8e	-0.036891513
178	0x3d2a2207	0.041536357
179	0xbb94225c	-0.0045206975
180	0x3c5f46a9	0.013627687
181	0x3d239519	0.039937112
182	0x3cecb8f8	0.028896794
183	0xbd713b78	-0.058894604
184	0xbe904694	-0.28178847
185	0x3d1988c5	0.03748395
186	0xbde1e15a	-0.110293105
187	0xbd90b1f2	-0.070651904
188	0x3e783286	0.24238023
189	0xbd5231ce	-0.05131703
190	0x3d940833	0.072281264
191	0xbc774088	-0.015091069
192	0x3da6fd52	0.08153786
193	0x3cabeefc	0.02098798
194	0x3c7ab13f	0.015301048
195	0xbdebcce3	-0.115136884
196	0xbd939cc6	-0.072076365
197	0x3c09f0b6	0.008419206
198	0x3c706e53	0.014674741
199	0x3cf6ba38	0.030118093
200	0xbe34dba0	-0.17661905
201	0xbdaa6cc1	-0.083215244
202	0xbd446eb4	-0.047957137
203	0xbcf64a89	-0.030064838
204	0xbd67e033	-0.056610297
205	0xbd2b1e55	-0.041776974
206	0x3e25031b	0.16114466
207	0xbbbfe445	-0.0058560693
208	0xbd60e85a	-0.054909088
209	0xbce95af2	-0.028485749
210	0xbd5d714e	-0.054063134
211	0x3a6995eb	0.0008910584
212	0xbcad0f2e	-0.021125402
213	0xbd1fdf94	-0.03903158
214	0xbd2117d9	-0.039329384
215	0x3c95420e	0.018219974
216	0xbe0a9458	-0.13533151
217	0xbd996420	-0.074898005
218	0x3db0d250	0.08633864
219	0xbd649289	-0.05580381
220	0xbda70b5e	-0.08156465
221	0xbdae68b8	-0.08516067
222	0x3dd74a61	0.105122335
223	0xbe0b32da	-0.13593617
224	0xbdc09a70	-0.094044566
225	0xbd0315b6	-0.032003127
226	0xbdb13bcc	-0.086539835
227	0x3cc466cd	0.0239748
228	0x3e03af60	0.12859869
229	0xbd8858c3	-0.06657555
230	0x3d7ab96b	0.061211985
231	0xbe9daa04	-0.30793774
232	0xbd224a27	-0.0396215
233	0xbd6542b5	-0.05597182
234	0xbd5c960e	-0.05385404
235	0xbe05f3ba	-0.13081256
236	0xbd69f700	-0.057120323
237	0x3c119647	0.008885927
238	0xbdc3edec	-0.09566864
239	0xbd501993	-0.05080564
240	0x3bbe5180	0.0058080554
241	0x3e0b7854	0.1362012
242	0xbd1cb439	-0.03825781
243	0xbca9e2e6	-0.020738076
244	0xbb5b3727	-0.0033449621
245	0x3c730b01	0.0148341665
246	0xbd434998	-0.047677606
247	0xbdcdc1cc	-0.100467294
248	0xbcc51e4c	-0.024062298
249	0xbc87807a	-0.016540755
250	0xbd8564f8	-0.06513399
251	0xbd318add	-0.04334532
252	0xbd513358	-0.051074356
253	0xbd3a616a	-0.045503058
254	0xbdb539fd	-0.08848951
255	0xbdbf108e	-0.093293294

l3.weight f4 [6, 300]
0	0x3d96fb74	0.073721796
1	0xbc38d056	-0.01128014
2	0x3dae0cce	0.08498536
3	0xb99ec843	-0.00030285315
4	0x3c7a5a5e	0.015280334
5	0xbd6bec99	-0.057598684
6	0xbc0396fb	-0.008031602
7	0x3cf2c744	0.029636033
8	0x3d47fa07	0.04882243
9	0x3db187f3	0.086685084
10	0x3cf9a3a9	0.030473547
11	0x3d577b6c	0.05260794
12	0x3ba0394b	0.0048896424
13	0x3c1ccc78	0.0095702335
14	0xbd3569c0	-0.044290304
15	0x3c0dc817	0.008653662
16	0xbca0dc5c	-0.019636326
17	0x3d859cd4	0.06524053
18	0x3df159a7	0.11784678
19	0xbd54018f	-0.0517593
20	0x3b86a70f	0.0041092704
21	0x3d87d165	0.06631736
22	0xbc8d4710	-0.0172458
23	0x3c83739d	0.01604634
24	0xbc3e02ac	-0.011597317
25	0x3c2f45d4	0.010697801
26	0xbbae2ef8	-0.0053156577
27	0x3c519aa0	0.012793213
28	0xbd1f0eec	-0.03883259
29	0xbc96c3e2	-0.018403951
30	0x3c9f0f64	0.019416519
31	0x3db225c4	0.086986095
32	0xbc8c43a1	-0.017122092
33	0x3b91d0a8	0.0044499226
34	0x3c7e0a72	0.01550542
35	0x3d32cc50	0.04365188
36	0xbda3cb30	-0.07997739
37	0xbd1ddf6d	-0.038543154
38	0xbd13d576	-0.036092244
39	0x3d51afec	0.051193163
40	0x3d43afc2	0.047775038
41	0x3d8a5ef3	0.067563914
42	0xbc344bda	-0.011004413
43	0x3cc555cd	0.024088765
44	0x3d170c62	0.036877044
45	0x3b34a24b	0.0027562554
46	0xbca37fbe	-0.019958373
47	0xbd1aa208	-0.03775218
48	0x3c10b868	0.008833028
49	0x3d1add7a	0.037808873
50	0x3d58f898	0.052971452
51	0xb9153eaa	-0.00014233091
52	0x3d12a802	0.035804756
53	0x3ca22c3c	0.019796483
54	0xbd11bb14	-0.035578802
55	0xbd18f218	-0.037340254
56	0xbd9d2094	-0.076722294
57	0x3cc434e7	0.023951007
58	0x3bde20b0	0.006778799
59	0x3e4eb2e1	0.20185424
60	0x3d37257f	0.044713493
61	0xbd3ae9e7	-0.045633223
62	0x3c3de738	0.011590771
63	0xbc171844	-0.009222094
64	0x3c76872c	0.015046876
65	0x3db339ba	0.08751245
66	0x3cd10e38	0.025519475
67	0x3def0099	0.11670036
68	0xbd0ba9c4	-0.034097448
69	0x3cb1931f	0.021676598
70	0xbcd95764	-0.026530929
71	0x3d46d15a	0.048539497
72	0xbdc5331e	-0.096288905
73	0xbd490e2b	-0.049085777
74	0xbc0ddd7c	-0.008658763
75	0xbcc2e2cb	-0.023789784
76	0xbd30e6ac	-0.043188736
77	0x3b4ab2d2	0.003092934
78	0x3c22a5c1	0.009927214
79	0xbd1e19de	-0.038598888
80	0x3da1385a	0.07872076
81	0x3d4092aa	0.04701487
82	0x3d37bbf2	0.044856973
83	0xbd75e9d9	-0.060037468
84	0x3d2bcb3a	0.04194186
85	0x3db1b556	0.08677165
86	0x3d25bd17	0.040463533
87	0xbd2a5527	-0.041585114
88	0x3cf02601	0.029314997
89	0x3c83afac	0.016074978
90	0xbd681791	-0.0566631
91	0x3c7a1ba2	0.015265377
92	0x3cdd2c95	0.026998797
93	0x3c472a68	0.0121561065
94	0x3d9d01a4	0.076663285
95	0x3d2742e1	0.040835265
96	0x3d4dbb63	0.050227534
97	0x3d5c7c72	0.053829618
98	0x3d45c61a	0.048284627
99	0x3d5f16b6	0.05446502
100	0x3d746646	0.059667848
101	0x3ba5a394	0.0050549004
102	0x3cd98f35	0.026557544
103	0xbd80aa55	-0.06282488
104	0x3d6ba308	0.057528526
105	0x3d7ab5f4	0.06120868
106	0x3d02eea9	0.031965885
107	0xbc0f7720	-0.008756429
108	0x3a70d46c	0.0009186927
109	0xbd1bb268	-0.03801194
110	0x3c7ca610	0.015420452
111	0xbc9e9a61	-0.019360723
112	0x3cce7682	0.025202993
113	0xbc032400	-0.008004189
114	0x3ba80343	0.005127342
115	0x3d49e65e	0.04929196
116	0x3cadb283	0.021203285
117	0x3dd74c92	0.105126515
118	0x3c822624	0.015887327
119	0xbcfd4aff	-0.03091955
120	0x3d1bd127	0.03804126
121	0xbd626125	-0.055268425
122	0x3cd97aed	0.026547873
123	0x3ceaca93	0.028661048
124	0xbd2994e5	-0.041401763
125	0xbc00c775	-0.007860054
126	0xbc584327	-0.013199604
127	0xbd294d16	-0.04133328
128	0xbc988d4c	-0.018622063
129	0x3c4aef97	0.012386224
130	0x3cdc0bc4	0.026861079
131	0x3dac6c6a	0.08419116
132	0xbcffc0aa	-0.0312198
133	0x3c70a2e0	0.01468727
134	0xbc73f22d	-0.014889282
135	0x3d228a4e	0.03968268
136	0xbb8353b5	-0.0040077814
137	0xbbb4361f	-0.005499616
138	0x3cb674ed	0.022272551
139	0x3ca5861c	0.02020555
140	0xbc14a728	-0.009073056
141	0xbcf3958b	-0.029734394
142	0x3d1666dc	0.036719188
143	0x3de01da7	0.10943156
144	0x3c5b1214	0.013371009
145	0x3d620e47	0.055189397
146	0x3c8e8c77	0.017400963
147	0x3e2e4852	0.17019776
148	0xbc452060	-0.012031645
149	0x3db3ff8e	0.087889776
150	0x3d39101a	0.04518137
151	0xbce23358	-0.027612373
152	0x3d5dee26	0.054182194
153	0x3caf8dac	0.02142986
154	0x3d2b4504	0.041813865
155	0xbc815aa8	-0.015790299
156	0x3a05c042	0.0005102196
157	0x3caac66f	0.020846574
158	0x3dc2b970	0.09508026
159	0x3cd73e39	0.026274787
160	0xbd5c960f	-0.053854045
161	0x3c150e01	0.009097577
162	0xbd3a5d81	-0.04549933
163	0x3d1cf0f7	0.03831574
164	0xbc75b23b	-0.014996107
165	0xbc6fe92b	-0.014642994
166	0x3e14b98a	0.14523903
167	0x3d192772	0.037391134
168	0x3c11ddea	0.008903006
169	0x3c595e95	0.013267179
170	0x3ca82938	0.020527467
171	0xbc0c90ab	-0.008579413
172	0x3cb474bb	0.022028318
173	0x3b2aab7a	0.002604215
174	0x3c96d67c	0.018412821
175	0xbc85c843	-0.016330844
176	0xbcf60f65	-0.030036638
177	0xbc202880	-0.009775281
178	0x3dabd789	0.083907194
179	0x3d360a7a	0.044443585
180	0xbc8a3ed2	-0.016875658
181	0x3d0e70e1	0.03477562
182	0xbccafdcc	-0.024779223
183	0xbcac66e0	-0.021045148
184	0xbcc0b358	-0.023523018
185	0x3dde7bc6	0.10863452
186	0x3d4375a5	0.047719616
187	0x3b70170b	0.0036634828
188	0x3d52942e	0.051410846
189	0xbc9ad55f	-0.018900571
190	0xbd1b5de5	-0.03793134
191	0x3d247fb5	0.040160853
192	0x3d577453	0.05260117
193	0xbcea9e1f	-0.028639851
194	0x3d5d4c5c	0.0540279
195	0xbd3a2639	-0.04544661
196	0xbd26107a	-0.040543057
197	0x3caae9aa	0.020863373
198	0x3d35c81f	0.044380303
199	0x3b91fd26	0.0044552265
200	0x3d3f650e	0.046727233
201	0x3ce55c9e	0.027998265
202	0x3c3c9720	0.01151064
203	0x3cc3e6f2	0.023913834
204	0x3cfa791d	0.03057533
205	0xbba10b18	-0.0049146526
206	0xbd29a83d	-0.04142021
207	0xbc86e3d1	-0.016466053
208	0xbd1c01c6	-0.03808763
209	0x3c62fa97	0.013853691
210	0x3c0b036e	0.008484704
211	0xbd6b2fda	-0.05741868
212	0x3d0d9820	0.034568906
213	0x3c28637e	0.010277627
214	0xbb6a458c	-0.003574702
215	0x3c90e860	0.01768893
216	0x3c7852f9	0.015156501
217	0x3dbe9ec0	0.09307623
218	0x3c567c13	0.013091105
219	0xbd0af3ce	-0.033923917
220	0x3c8d4b89	0.017247932
221	0x3cf46264	0.029832073
222	0x3d0a204f	0.033722218
223	0x3df18e77	0.11794751
224	0x3d886d1e	0.066614375
225	0xbd58b62e	-0.052908115
226	0x3d979e6c	0.074032634
227	0xbd5fef7d	-0.054671753
228	0xbcbbcf1f	-0.022925911
229	0x3cbaeda6	0.022818398
230	0x3cb5ba58	0.022183582
231	0xbd16de46	-0.03683307
232	0xbd63af43	-0.055587064
233	0xbd2db043	-0.042404424
234	0x3b975ea8	0.004619438
235	0xbd50357b	-0.050832253
236	0xbc89ef56	-0.016837757
237	0x3d2184af	0.039433178
238	0x3cbd2f8b	0.02309396
239	0x3b97e3b0	0.0046352968
240	0x3b72362d	0.003695856
241	0x3c1e6d19	0.009669566
242	0xbd3276fd	-0.043570507
243	0x3a588bbc	0.0008260568
244	0x3a8931c1	0.0010467098
245	0x3cf05ce5	0.02934117
246	0x3d58db8f	0.052943762
247	0x3d121431	0.035663787
248	0xbd52447c	-0.051334843
249	0x3d416fc4	0.04722573
250	0xbb84fb48	-0.0040582754
251	0xbd14a999	-0.036294553
252	0x3d5db000	0.054122925
253	0x3ceabf2d	0.028655613
254	0x3d37d438	0.044880122
255	0x3c8cb3b6	0.017175537

l3.bias f4 [6]
0	0x3dd3a39c	0.103339404
1	0x3d2264c9	0.039646897
2	0xbdc25b16	-0.094900295
3	0x3cc1f22a	0.023675043
4	0xbe861c25	-0.26193348
5	0x3d8d2d14	0.068933636
