average data/Average_TD3_10_Peg-in-hole-triple_assembly_seed_1/_actor.pth (torch_old, 510312 bytes, 6 tensors)

l1.weight f4 [400, 12]
0	0x3f751763	0.9573881
1	0xbea2e955	-0.31818643
2	0xbce0b676	-0.027430754
3	0x3f13b3ad	0.5769604
4	0xbf1c1a2a	-0.60977423
5	0x3e8502c7	0.2597868
6	0x3ddb0026	0.10693388
7	0x3f0120fb	0.5044095
8	0x3d7345be	0.059392683
9	0xbf6c8548	-0.9239087
10	0xbf13407f	-0.5752029
11	0x3e5c1e43	0.21495919
12	0x3f33c7d7	0.70226806
13	0xbf01838e	-0.5059136
14	0x3d036ec8	0.03208807
15	0x3f1b2f89	0.6061941
16	0x3e18c7be	0.14919946
17	0x3f07b9db	0.5301797
18	0x3f6883f4	0.90826344
19	0x3e44bd1e	0.19212767
20	0xbcb90dd8	-0.022589609
21	0x3f1007d9	0.56261975
22	0x3ed239f1	0.4105983
23	0x3e78dd8c	0.24303263
24	0xbf8a1463	-1.0787472
25	0x3f2be5b7	0.6714739
26	0x3f25e74f	0.64806074
27	0xbe89b16a	-0.2689317
28	0xbf46795c	-0.7752893
29	0x39e5d19b	0.00043834452
30	0x3d8b6703	0.06806757
31	0x3db91e8c	0.090390295
32	0x3e7807e8	0.24221766
33	0xbe0b3f1c	-0.13598293
34	0x3e99e6d7	0.3005893
35	0xbb57dd76	-0.0032938397
36	0x3f996b9d	1.1985966
37	0xbe8c6bc5	-0.27425972
38	0x3cf031a9	0.029320555
39	0x3eb50d9e	0.35361952
40	0xbf4c0b5e	-0.79704845
41	0x3ed75a2a	0.42060977
42	0x3ec16924	0.37775528
43	0x3e2224cb	0.15834348
44	0xbe515de6	-0.20445976
45	0xbeb43e67	-0.3520386
46	0xbf9f92bf	-1.2466658
47	0xbfa31e27	-1.2743577
48	0xbfbd8bf7	-1.4808339
49	0x3f33e766	0.7027496
50	0xbd050a78	-0.032480687
51	0xbf412826	-0.75451887
52	0x3e92f16a	0.2869981
53	0xbfcdffff	-1.6093749
54	0x3f1d41af	0.6142835
55	0x3f139402	0.57647717
56	0x3a7489f0	0.00093284156
57	0xbea526f4	-0.3225628
58	0x3f4753c8	0.77862215
59	0xbef3aff9	-0.47595194
60	0xbe3f1576	-0.1866053
61	0x3e4001ee	0.18750736
62	0x3e337618	0.17525518
63	0x3e8315a6	0.25602454
64	0xbe25b40b	-0.16181962
65	0xbd42a1e0	-0.047517657
66	0xbbb73e80	-0.0055921674
67	0x3d2cb348	0.042163163
68	0xbe6056ba	-0.21908084
69	0xbe51c449	-0.20485033
70	0x3e20cf40	0.1570406
71	0xbd8aa21a	-0.067692
72	0x3f2c6ec6	0.67356527
73	0xbd8b744e	-0.06809293
74	0x3d35a78c	0.04434924
75	0xbe9e52ea	-0.30922633
76	0x3e5954ef	0.21223806
77	0x3fce8f33	1.6137451
78	0xbf49a96c	-0.7877414
79	0xbdea3ba1	-0.114371546
80	0xbeb4c192	-0.35303932
81	0xbe9add21	-0.30246833
82	0xbda21ce3	-0.07915666
83	0xbf6d957e	-0.9280623
84	0x3eed8853	0.4639307
85	0xbee39906	-0.44452685
86	0x3da66703	0.08125117
87	0x3f92bd03	1.1463932
88	0xbf42e907	-0.7613682
89	0xbe914800	-0.28375244
90	0x3f275662	0.65366185
91	0xbeb19e81	-0.3469124
92	0x3deebcc7	0.116571
93	0x3e7e7198	0.2484802
94	0xbe82cdd9	-0.25547674
95	0x3f7d0006	0.9882816
96	0xbede0d67	-0.433696
97	0x3da77019	0.08175678
98	0x3bf74a29	0.0075466824
99	0xbefdd728	-0.49578214
100	0xbe6f6235	-0.23377307
101	0x3edf612f	0.43628833
102	0x3ea1b1bb	0.3158091
103	0x3f8d0f45	1.1020285
104	0xbf312e25	-0.69211036
105	0x3f9f4bb3	1.2444977
106	0x4019399e	2.3941417
107	0x4043b25a	3.0577607
108	0x3f4c6865	0.79846793
109	0xbf0094c4	-0.50227
110	0xbb4a32e3	-0.0030853085
111	0x3f8a8f7e	1.082504
112	0x3f2574b7	0.6463122
113	0xbd6a7196	-0.05723723
114	0xbe5099f8	-0.20371234
115	0x3e652106	0.22375879
116	0x3df49a4f	0.119434945
117	0xbf115898	-0.5677581
118	0xbfbcd25d	-1.4751698
119	0xbe873788	-0.26409554
120	0xbef00d9a	-0.46885377
121	0x3dec314a	0.11532839
122	0x3eb1d179	0.34730127
123	0xbe9109cb	-0.28327784
124	0x3ddb92ca	0.10721357
125	0xbf14e2ee	-0.5815877
126	0xbf05cb6e	-0.52263534
127	0xbeb2c74d	-0.3491768
128	0x3e375e5e	0.17907092
129	0x3f74267b	0.95371217
130	0xbe8906bf	-0.2676296
131	0x3ee2c58d	0.44291344
132	0x3f159f66	0.5844635
133	0x3f14a6d8	0.58067083
134	0x3e197c98	0.14988935
135	0xbe8828c1	-0.26593593
136	0xbc035b40	-0.008017361
137	0xbde1608f	-0.11004745
138	0xbe5e0c17	-0.216843
139	0xbefbebf3	-0.49203452
140	0xbcd85013	-0.02640537
141	0xbe1409cd	-0.14456864
142	0xbe218d47	-0.1577655
143	0x3df999ac	0.12187514
144	0x3e87c39b	0.26516423
145	0xbd29fb68	-0.041499525
146	0x3e8c9cbb	0.27463326
147	0x3ee74455	0.4516932
148	0x3e1d7794	0.15377647
149	0x3e4273fa	0.18989554
150	0xbf291884	-0.6605303
151	0x3f129e8a	0.5727316
152	0x3db4208b	0.087952696
153	0x3f216134	0.63038945
154	0xbe81769e	-0.2528581
155	0x3eba2099	0.36352995
156	0xbdac25fc	-0.084056824
157	0xbe15e033	-0.14636306
158	0x3e1ef379	0.15522565
159	0xbe03e8fc	-0.12881845
160	0xbef7f984	-0.48432553
161	0xbeb24dfb	-0.3482512
162	0x3e874624	0.264207
163	0x3ebd5cff	0.36985013
164	0x3d9a1d74	0.07525149
165	0x3e7d38d9	0.24728717
166	0x3cd4c6ef	0.025973765
167	0x3eb9f743	0.36321458
168	0xbea01dd7	-0.31272766
169	0xbf8f278d	-1.1183945
170	0xbd9384fb	-0.072030984
171	0x3fb2822c	1.3945975
172	0x3f574cb0	0.8410139
173	0xbf9fb9b0	-1.2478542
174	0x3d77736c	0.06041281
175	0x3e6d87dd	0.23196359
176	0x3c9a7af3	0.018857455
177	0xbf221e59	-0.63327557
178	0xbea448a5	-0.32086673
179	0xbf8f5858	-1.1198835
180	0xbfababf0	-1.3411846
181	0x3d861fd6	0.06549041
182	0x3db6f389	0.089331694
183	0xbe9dc318	-0.30812907
184	0x3f33f5c2	0.7029687
185	0x3f4b745b	0.7947442
186	0xbf09425b	-0.53616875
187	0xbe560332	-0.20899656
188	0xbd93ca59	-0.07216329
189	0xbeec2b8a	-0.46126968
190	0xbe18ef65	-0.14935072
191	0x3e60dac1	0.21958448
192	0xbf7414d0	-0.9534426
193	0xbee7104b	-0.45129618
194	0x3cfc8739	0.030826198
195	0xbf01c040	-0.50683975
196	0x3f3b7d47	0.73238033
197	0x3ed577fb	0.416931
198	0x3f583f5a	0.84471667
199	0xbe8b7d08	-0.2724383
200	0xbe3924c9	-0.18080439
201	0x3eba0a65	0.36336055
202	0x3f074190	0.52834415
203	0xbf06673b	-0.5250127
204	0xbe717974	-0.23581487
205	0x3f0f641b	0.56012124
206	0x3d7accb9	0.061230395
207	0xbf049ade	-0.5179881
208	0xbe63b672	-0.22237566
209	0x3f120cbe	0.57050693
210	0xbeea016c	-0.4570421
211	0x3f4055c8	0.7513089
212	0xbf1e33ba	-0.6179768
213	0x3ee93c72	0.4555393
214	0x3ec5c9df	0.38630578
215	0x3f11c5e5	0.5694259
216	0xbd45eda6	-0.048322342
217	0x3f0a3d29	0.53999573
218	0x3d112f58	0.03544554
219	0xbedee767	-0.4353592
220	0xbe9076d7	-0.28215668
221	0x3f2a707c	0.6657789
222	0xbf714213	-0.94241446
223	0xbec34723	-0.3814021
224	0x3cbf5f26	0.0233608
225	0xbf2b3134	-0.66871953
226	0xbe920f65	-0.2852737
227	0x3f9f719e	1.2456548
228	0x3ef482e2	0.47756106
229	0x3fd58743	1.6681904
230	0x3da0ea88	0.07857233
231	0xbfa32df0	-1.2748394
232	0x3e80c4d3	0.25150165
233	0x3f162e53	0.58664435
234	0xbf13e165	-0.577658
235	0x3e537507	0.20650111
236	0xbe01d03b	-0.1267709
237	0xbd1f012f	-0.03881949
238	0x3eb1d4ac	0.34732568
239	0xbeab2ca0	-0.33432484
240	0xbf048670	-0.51767635
241	0xbec1ad20	-0.37827396
242	0x3e39cc8b	0.18144433
243	0xbee7d111	-0.45276693
244	0x3db5d369	0.08878214
245	0xbe16aaf7	-0.14713655
246	0xbedf98b1	-0.43671182
247	0xbf3ff576	-0.7498392
248	0x3c829896	0.0159419
249	0x3e7ec50d	0.24879856
250	0x3eeebdf0	0.46629286
251	0xbf950ed0	-1.1645145
252	0x3f96cb8e	1.178087
253	0x3e7b6f25	0.24554117
254	0xbc5ea365	-0.013588761
255	0xbcca93ad	-0.02472862

l1.bias f4 [400]
0	0x3f2fac99	0.6862274
1	0x3f6447cc	0.89172053
2	0xbea09386	-0.3136255
3	0x3dd7c1f9	0.10535044
4	0xbf866257	-1.0498761
5	0x3dc1f900	0.09471321
6	0x3f24a74c	0.64317775
7	0xbee6dfaa	-0.45092517
8	0x3f3b0c11	0.73065287
9	0x3ece8f79	0.40343836
10	0x3c1b7227	0.009487665
11	0xbdc8ce5f	-0.09804987
12	0xbb9e6123	-0.004833357
13	0xbc88e420	-0.016710341
14	0xbf51d113	-0.81959647
15	0xbeba8ee2	-0.36437136
16	0x3f33b8a4	0.70203614
17	0x3df929df	0.121661894
18	0xbe1f6d72	-0.15569094
19	0xbcc6f196	-0.024285119
20	0x3ebe2423	0.37136945
21	0xbf2fa8cb	-0.6861693
22	0xbeed8382	-0.46389395
23	0xbdd48a35	-0.103779234
24	0x3ed34008	0.4125979
25	0x3ca34d86	0.019934427
26	0xbcef62cc	-0.029221915
27	0xbe57a77d	-0.21059985
28	0xbd6abc2b	-0.057308357
29	0xbd3d07c5	-0.046149988
30	0x3e10bbd1	0.14134146
31	0x3eede236	0.46461648
32	0x3f16f935	0.5897401
33	0x3ec6bee8	0.38817525
34	0x3ef03111	0.46912435
35	0x3e307e9a	0.17235795
36	0xbe7ceab8	-0.24698913
37	0xbf3b05dd	-0.7305582
38	0xbcb744e4	-0.022371717
39	0x3f5fefd4	0.87475324
40	0x3ed3d97a	0.4137686
41	0x3ec94f01	0.39318088
42	0x3e6e42c1	0.23267652
43	0x3e8566b5	0.26054922
44	0xbd8040cb	-0.06262358
45	0x3e281c43	0.16417031
46	0xbf2879d1	-0.6581088
47	0xbed7703b	-0.42077813
48	0x3eff499e	0.49860853
49	0xbd64960b	-0.055807155
50	0x3da3ff6c	0.08007702
51	0x3e6847d9	0.22683658
52	0xbf514dfb	-0.81759614
53	0xbed6f07e	-0.41980356
54	0x3ea96e9c	0.330922
55	0x3eb7e1c8	0.35914445
56	0xbd589f6d	-0.052886415
57	0xbe824a04	-0.25447094
58	0x3ddd672a	0.108106926
59	0x3e9a0b72	0.30086857
60	0xbd4950d9	-0.049149368
61	0x3e10337a	0.14082137
62	0xbf1d171f	-0.61363405
63	0x3f52564f	0.82162946
64	0xbe89f9ef	-0.26948497
65	0xbf3366c5	-0.7007869
66	0xbe10d99f	-0.14145516
67	0xbce547e3	-0.02798838
68	0x3ebe2145	0.37134758
69	0xbea7a8e6	-0.32746047
70	0xbf3f272c	-0.74669147
71	0xbe4d54b4	-0.20051843
72	0xbec7c4ef	-0.39017436
73	0xbf766dd4	-0.96261334
74	0xbe382936	-0.1798447
75	0x3f19061c	0.5977495
76	0xbd534852	-0.051582642
77	0xbe6ffdb9	-0.23436631
78	0x3e516449	0.20448412
79	0xbe17c703	-0.1482201
80	0xbe23aeed	-0.15984698
81	0x3f3c1e33	0.7348358
82	0xbeb27a82	-0.3485909
83	0xbe50fa56	-0.20407996
84	0xbf0da71a	-0.553331
85	0x3f05ba78	0.52237654
86	0xbc067e20	-0.0082087815
87	0xbecc7837	-0.39935467
88	0x3f23d484	0.6399615
89	0x3e3577f3	0.17721538
90	0x3d992ae0	0.07478881
91	0x3e5f3c7f	0.21800421
92	0x3d727d89	0.05920175
93	0x3ec266bd	0.37969008
94	0x3e1f1e57	0.15538917
95	0xbb665fb7	-0.0035152265
96	0x3e9788e5	0.2959663
97	0xbd609f05	-0.054839153
98	0xbeb7771f	-0.3583307
99	0xbea0735f	-0.3133802
100	0xbd7ddaf7	-0.0619764
101	0x3e98243e	0.2971515
102	0xbb80ef2f	-0.003934763
103	0x3e27ea4d	0.16397972
104	0xbe896f1f	-0.2684259
105	0x3eed9ec9	0.46410206
106	0xbf3daa7a	-0.7408825
107	0xbe6a4eb2	-0.22881582
108	0xbe6a433e	-0.22877213
109	0xbc8e2dfb	-0.01735591
110	0x3f14c3b7	0.5811114
111	0x3eb29153	0.348765
112	0x3eb49f4f	0.35277793
113	0xbe61b793	-0.22042684
114	0xbf997b48	-1.1990747
115	0xbf66edb2	-0.90206444
116	0xbe9b2e2f	-0.30308673
117	0xbd616570	-0.05502838
118	0x3f03f8b9	0.51551396
119	0x3dedda93	0.11613955
120	0x3ccd4d30	0.02506122
121	0x3dca3006	0.09872441
122	0xbd5f3a17	-0.05449876
123	0xbea14d71	-0.31504396
124	0x3e84a391	0.2590604
125	0xbea9c0e2	-0.3315497
126	0x3db68c00	0.08913422
127	0x3eedab70	0.4641986
128	0x3e818123	0.25293836
129	0xbe98a3ef	-0.2981257
130	0xbeb818ea	-0.35956508
131	0xbd0d3fed	-0.034484793
132	0xbf4ef844	-0.80847573
133	0xbead1ea3	-0.33812436
134	0x3eb9047e	0.3613624
135	0x3e5e5e76	0.21715721
136	0xbeedffd2	-0.46484238
137	0xbf27ac0d	-0.65496904
138	0xbf60354b	-0.8758132
139	0xbf93b170	-1.1538525
140	0x3e460ffa	0.19342032
141	0x3f0ec22c	0.5576503
142	0xbd256326	-0.04037776
143	0x3f01ef10	0.50755405
144	0xbf0fceaa	-0.5617472
145	0xbee04428	-0.43802
146	0xbf4c4461	-0.7979184
147	0xbe07df7a	-0.13268843
148	0x3ddf5d86	0.1090651
149	0x3e34f8bb	0.17673008
150	0xbf195617	-0.5989699
151	0x3eeadce2	0.45871645
152	0xbf6ca50d	-0.9243935
153	0x3e8df492	0.27725655
154	0xbeb874ac	-0.36026514
155	0xbf9637b5	-1.173575
156	0xbf0fc9e4	-0.56167436
157	0xbf49d4eb	-0.7884051
158	0xbef74da1	-0.48301414
159	0xbd228e24	-0.039686337
160	0x3eca8015	0.39550844
161	0xbda56f18	-0.0807783
162	0x3f54f5ed	0.8318775
163	0xbca5e926	-0.020252775
164	0xbf33830c	-0.70121837
165	0x3e86a6a1	0.26299003
166	0x3cdf4dbc	0.027258746
167	0xbf936119	-1.1514007
168	0xbf1d39a7	-0.61416095
169	0x3d38a401	0.04507828
170	0xbe9daa96	-0.3079421
171	0x3d313b00	0.043269157
172	0xbe60ccfc	-0.21953195
173	0x3f087616	0.53305185
174	0xbf3b8b3c	-0.7325933
175	0x3bfb150a	0.00766242
176	0xbe619158	-0.220281
177	0xbcd59baf	-0.026075212
178	0xbe5fa70f	-0.21841072
179	0xbf05b77a	-0.5223309
180	0x3eb8b51d	0.36075678
181	0xbcfde956	-0.030995052
182	0x3e8c6d63	0.27427205
183	0x3d82dcdf	0.06389784
184	0xbe0bcd82	-0.13652614
185	0xbee50a7a	-0.44734555
186	0xbeafcb79	-0.34334925
187	0xbf06c230	-0.52640057
188	0x3dd83b10	0.1055814
189	0x3dabcd10	0.08388722
190	0xbec60826	-0.38678092
191	0xbf190009	-0.5976568
192	0xbdb446be	-0.088025555
193	0xbef476dd	-0.47746935
194	0xbd1a91c5	-0.037736673
195	0xbef57a66	-0.47944945
196	0x3e75ac28	0.23991454
197	0xbe8bd8ca	-0.27313834
198	0x3b1f7c7d	0.0024335675
199	0x3e9f7a44	0.3114797
200	0xbd53da49	-0.051721845
201	0xbea77ae2	-0.3271094
202	0x3d1b6a6e	0.037943296
203	0x3eb5425f	0.354022
204	0x3e94660f	0.28984115
205	0xbc79e612	-0.015252607
206	0x3ea283ba	0.31741124
207	0x3e0c8a05	0.13724525
208	0x3e9aac3c	0.3020953
209	0x3e5232ad	0.20527144
210	0x3eee44bf	0.46536824
211	0xbef33578	-0.4750173
212	0xbf4f95ee	-0.8108815
213	0x3f3a5c22	0.72796834
214	0x3db101e7	0.08642941
215	0xbe3bb9fe	-0.18332669
216	0xbf111b0f	-0.56681913
217	0xbe0b3a5d	-0.13596483
218	0x3f526d4c	0.82198024
219	0x3d0a23e8	0.03372565
220	0x3d96cb8d	0.07363043
221	0xbe2c6909	-0.16836943
222	0xbeef258d	-0.46708336
223	0xbf9beab1	-1.2180997
224	0x3e8d8725	0.2764217
225	0xbe88a8c0	-0.26691246
226	0x3e76ba3b	0.24094479
227	0x3e8ebaea	0.2787698
228	0xbf075e1c	-0.52877975
229	0x3e100ac2	0.14066604
230	0xbe7a3633	-0.24434738
231	0xbc29bd20	-0.010360032
232	0x3f41c3a8	0.7568917
233	0xbdacbb84	-0.08434203
234	0x3e071bdf	0.13194226
235	0xbd975d91	-0.07390893
236	0x3ed1cbe8	0.4097588
237	0x3efb69dd	0.49104205
238	0x3ebe6f9d	0.3719453
239	0xbe222131	-0.15832974
240	0xbeffd53d	-0.49967375
241	0x3d38b368	0.04509297
242	0xbf86c105	-1.0527655
243	0xbd8a22a8	-0.067448914
244	0xbf3b14fc	-0.73078895
245	0x3d05a112	0.03262431
246	0xbf8576aa	-1.0426838
247	0xbec5957d	-0.38590613
248	0xbea1ffb6	-0.31640404
249	0xbdf81a82	-0.12114431
250	0x3e3c5bee	0.18394443
251	0xbe1a3642	-0.1505976
252	0x3bcc8a1c	0.00624205
253	0x3e40fb59	0.18845882
254	0xbf853782	-1.0407565
255	0x3ddf29a8	0.10896617

l2.weight f4 [300, 400]
0	0xbf105bfe	-0.5639037
1	0xbf0f5b7f	-0.55998987
2	0xbcf49053	-0.029853975
3	0xbf3299da	-0.6976601
4	0x3d120238	0.035646647
5	0xbcca58a7	-0.024700476
6	0x3debedbc	0.115199536
7	0x3e79f246	0.24408826
8	0xbce9e977	-0.028553708
9	0xbe9e10c3	-0.30872163
10	0x3e3fa89c	0.18716663
11	0x3edc71dc	0.43055618
12	0xbe4a258e	-0.19740888
13	0x3c07ca28	0.008287944
14	0xbe41585d	-0.18881364
15	0x3d36fbcd	0.04467373
16	0xbf2c7b4d	-0.6737564
17	0xbe0abccb	-0.13548581
18	0x3eb9224e	0.36158985
19	0x3e9d7e15	0.30760255
20	0xbd986cee	-0.07442652
21	0x3eb72399	0.35769346
22	0x3e30096c	0.17191094
23	0xbf1ee14e	-0.6206254
24	0xbe946985	-0.28986755
25	0xbd2f20c1	-0.042755846
26	0xbd42e5d8	-0.047582477
27	0xbdcf516c	-0.10122952
28	0x3d0659f9	0.03280065
29	0xbdf42c39	-0.11922497
30	0xbc85078c	-0.01623895
31	0xbea09561	-0.31363967
32	0xbf28425d	-0.6572626
33	0xbea59379	-0.32339075
34	0xbe10ddc1	-0.14147092
35	0x3dd10bdd	0.10207341
36	0xbd367f30	-0.04455489
37	0x3e1259aa	0.14292017
38	0x3cb29692	0.021800313
39	0xbe25d1a8	-0.16193259
40	0x3deadb08	0.11467558
41	0xbf0c3457	-0.54767364
42	0xbe9f0825	-0.310609
43	0x3d977149	0.07394654
44	0x3d625f2e	0.05526655
45	0xbe9f0679	-0.31059626
46	0xbde45f74	-0.11151019
47	0x3e23c9cb	0.15994947
48	0xbedd99bb	-0.4328135
49	0xbe5ececf	-0.21758579
50	0xbcfe6ce3	-0.03105778
51	0xbee7ee93	-0.45299205
52	0x3daaeaf6	0.083455965
53	0xbe1f572f	-0.15560602
54	0xbe5834de	-0.21113917
55	0xbe54cf8a	-0.20782295
56	0x3e0b6a7c	0.1361484
57	0xbbf84758	-0.007576864
58	0xbe94e297	-0.29079124
59	0x3e6ed6fb	0.23324196
60	0xbd748253	-0.0596946
61	0xbb974c90	-0.0046172813
62	0x3d124f59	0.035720203
63	0xbe72fea3	-0.23729949
64	0x3d98ee9b	0.074673854
65	0x3da07f00	0.07836723
66	0xbcfc51f2	-0.030800793
67	0xbe4e6e3b	-0.20159237
68	0x3e86d14d	0.2633156
69	0xbe275f98	-0.1634506
70	0xbd628aba	-0.05530808
71	0xbd81e91f	-0.063432924
72	0x3e586c2c	0.21135014
73	0x3d7dee58	0.06199488
74	0xbcb28c2a	-0.021795351
75	0xbef387af	-0.47564456
76	0x3e97531e	0.295556
77	0x3d0b828b	0.034060042
78	0x3edc1ac6	0.42989177
79	0xbdad11ac	-0.08450636
80	0xbde6dec4	-0.11272958
81	0xbf0303b3	-0.5117752
82	0xbdb932b0	-0.09042871
83	0xbe1d16d0	-0.15340734
84	0xba689423	-0.0008872172
85	0xbf2819ce	-0.65664375
86	0x3d334b87	0.0437732
87	0x3e1a667f	0.15078162
88	0xbdc4c217	-0.09607332
89	0x3e2b5a89	0.16733755
90	0x3e1adb8b	0.15122811
91	0xbf105ccc	-0.56391597
92	0x3c639a84	0.01389182
93	0xbd596875	-0.053078134
94	0xbecd8c52	-0.40146118
95	0xbb1d01a0	-0.0023957267
96	0xbeb89880	-0.36053848
97	0x3da90145	0.08252195
98	0xbe83ffe9	-0.2578118
99	0x3c242e1f	0.010020762
100	0x3bfc67c7	0.007702801
101	0xbf0eb958	-0.5575156
102	0x3c9da7a3	0.019244974
103	0x3d9fc5c2	0.07801391
104	0x3cc3296e	0.023823466
105	0xbecf9f10	-0.40551043
106	0x3e674d95	0.22588189
107	0xbf1b3a8c	-0.6063621
108	0xbc6e6a58	-0.0145517215
109	0xbeae7242	-0.34071547
110	0xbbb142d2	-0.005409577
111	0x3d79d49e	0.060993783
112	0xbec56b56	-0.38558453
113	0xbe6c9483	-0.23103528
114	0x3dc987c3	0.098403476
115	0x3d8aaa55	0.067707695
116	0x3e9cb78e	0.3060879
117	0x3d2cf00b	0.04222111
118	0xbd65ed0c	-0.05613427
119	0xbd95f6c5	-0.07322458
120	0x3d126b3b	0.035746794
121	0x3e42c2cf	0.19019626
122	0xbec5d2d9	-0.38637426
123	0xbe838ef6	-0.25695008
124	0x3cb037e7	0.021511031
125	0xbe61ec50	-0.22062802
126	0x3d4097b5	0.04701968
127	0x3d1d56a3	0.0384127
128	0xbd23ae46	-0.039961122
129	0xbe1406a5	-0.1445566
130	0xbdbf46fd	-0.09339712
131	0xbdb8284a	-0.089920595
132	0x3e47f7f6	0.19528183
133	0xbd9bf915	-0.07615868
134	0xbe73aedb	-0.23797171
135	0xbf06bfc6	-0.52636373
136	0xbf107d62	-0.5644132
137	0xbeca7545	-0.39542595
138	0x3d0e0932	0.034676738
139	0x3ce469c4	0.027882464
140	0xbd28f51e	-0.041249387
141	0xbefdce3c	-0.49571407
142	0xbe053ebf	-0.13012217
143	0xbee71ee9	-0.4514077
144	0xbe924069	-0.28564766
145	0xbe4e089b	-0.2012047
146	0x3ee7df39	0.45287493
147	0xbd3feb99	-0.046855543
148	0x3e8571ea	0.26063472
149	0x3bce91b5	0.0063039907
150	0x3d873aa2	0.0660298
151	0xbf035aca	-0.5131041
152	0x3e30264d	0.1720211
153	0xbd852847	-0.06501823
154	0xbd24ad06	-0.04020407
155	0x3b51f893	0.003203903
156	0xbe132282	-0.14368632
157	0xbe8acd9a	-0.27109987
158	0xbd2c8517	-0.042119112
159	0xbe11dd80	-0.14244652
160	0xbf01e9cf	-0.5074739
161	0x3e3fcca1	0.18730403
162	0xbf20cd81	-0.62813574
163	0xbc3f8827	-0.011690176
164	0x3e57099d	0.20999761
165	0x3dec613a	0.11541982
166	0xbce96e69	-0.02849503
167	0x3eb16e21	0.34654334
168	0xbbe4861e	-0.006973996
169	0x3df032bd	0.117284276
170	0xbdbe3c32	-0.09288825
171	0xbd1f22fa	-0.038851716
172	0xbb99b718	-0.004691016
173	0xbf50d406	-0.8157352
174	0xbd45daa3	-0.04830421
175	0xbe816579	-0.2527273
176	0x3d9c9332	0.07645263
177	0x3daeb77a	0.08531089
178	0x3b4252e0	0.0029651448
179	0xbeb24840	-0.34820747
180	0xbea69db6	-0.325422
181	0xbd847468	-0.06467515
182	0xbeb66769	-0.3562577
183	0xbec3c3e6	-0.38235396
184	0x3e5a7588	0.21333897
185	0x3d7a300b	0.061080974
186	0xbe04a033	-0.12951736
187	0xbc142bbc	-0.00904363
188	0x3e39659a	0.18105164
189	0x3d20ab8f	0.03922611
190	0xbed222de	-0.41042227
191	0x3cd8a3d8	0.026445314
192	0x3d18b029	0.037277374
193	0xbc767d38	-0.015044503
194	0x3cf57ba7	0.029966189
195	0xbe95ff7b	-0.2929648
196	0x3c75587c	0.01497471
197	0x3dbea5d4	0.09308973
198	0x3dcc787d	0.09983919
199	0x3e4a9853	0.1978467
200	0x3d05e0bd	0.03268503
201	0x3e30e6f3	0.172756
202	0xbeae3da6	-0.3403141
203	0xbeed9fe5	-0.46411052
204	0x3e6e5bf9	0.23277272
205	0xbb51ba61	-0.003200196
206	0x3e813c14	0.25241148
207	0xbe90dc04	-0.2829286
208	0xbe556e54	-0.20842868
209	0x3c0260d8	0.00795766
210	0x3e22c02c	0.1589362
211	0x3db1b5c9	0.08677251
212	0x3e5a7db3	0.21337013
213	0xbf7fff8c	-0.9999931
214	0x3ce2f666	0.027705383
215	0xbe5ab507	-0.21358119
216	0x3d5b11dc	0.05348383
217	0xbf2d084c	-0.67590785
218	0x3d5e3213	0.054246973
219	0x3d197c45	0.03747203
220	0xbe2a8f12	-0.1665614
221	0xbe1b1da6	-0.15148029
222	0xbe762f07	-0.24041377
223	0x3e4bd44c	0.19905204
224	0xbea9427c	-0.33058536
225	0xbe0b9b5c	-0.13633484
226	0xbe3f09ee	-0.18656132
227	0x3d30b2ac	0.043139145
228	0xbe8e40db	-0.27783856
229	0xbbbd0f58	-0.0057696514
230	0x3e71744b	0.23579518
231	0xbdc3700c	-0.095428556
232	0xbe915b8f	-0.28390166
233	0x3dfa83da	0.1223218
234	0x3e65814f	0.22412609
235	0xbf971089	-1.1801921
236	0xbeb5596a	-0.3541978
237	0x3c8a0654	0.01684872
238	0x3e9b74cf	0.30362555
239	0x3e2bd0f4	0.16778928
240	0x3d798c4b	0.06092481
241	0xbeaafb81	-0.33395007
242	0x3d83c1f2	0.064334765
243	0xbec79baf	-0.38985965
244	0xbe4edc8d	-0.20201321
245	0x3cb87bd2	0.02251998
246	0x3edac1d5	0.42726007
247	0x3ead6004	0.33862317
248	0xbd3e9cc9	-0.04653624
249	0xbdd38f06	-0.10330014
250	0xbcd35137	-0.025795562
251	0xbea0b3ac	-0.3138708
252	0x3e1bb59d	0.15205999
253	0x3e48b09f	0.19598626
254	0xbde14823	-0.11000087
255	0x3db2a61f	0.08723091

l2.bias f4 [300]
0	0x3dce9303	0.10086634
1	0xbe019932	-0.12656096
2	0xbc9246ce	-0.017856028
3	0x3e32a09d	0.17444082
4	0x3ddf4859	0.10902471
5	0xbd6bcbd7	-0.057567444
6	0xbd9d0eeb	-0.07668861
7	0xbd9c393d	-0.07628105
8	0xbec41436	-0.3829667
9	0xbe8d0555	-0.2754313
10	0xbd73be6c	-0.059507772
11	0xbd53a6e4	-0.05167283
12	0xbca0e140	-0.019638658
13	0x3cf5b772	0.0299947
14	0xbd86581a	-0.06559773
15	0xbe279182	-0.163641
16	0xbee467ee	-0.44610542
17	0x3d7fe97c	0.062478527
18	0xbe8d1648	-0.27556062
19	0x3bf2fb3e	0.0074152043
20	0xbe99972a	-0.29998142
21	0xbe93e355	-0.28884378
22	0xbe8e4951	-0.2779031
23	0x3bb03c13	0.005378255
24	0x3d3a933d	0.045550574
25	0xbe50cc8f	-0.20390533
26	0xbd6a1613	-0.057149958
27	0xbd09eccb	-0.03367309
28	0x3e297fa7	0.16552602
29	0xbcf04e95	-0.029334346
30	0xbdc9f2af	-0.09860741
31	0xbd95f488	-0.07322031
32	0x3dee0fc7	0.11624103
33	0x3e44e93b	0.19229595
34	0xbd7f7530	-0.062367618
35	0xbdbd7a75	-0.092518725
36	0xbd3fa833	-0.046791267
37	0xbddadebc	-0.106870145
38	0xbe58c5e4	-0.2116924
39	0xbd491239	-0.049089644
40	0x3dd8a115	0.10577599
41	0x3d20d28a	0.039263286
42	0x3e108f6f	0.14117216
43	0xbc5a44bc	-0.013322052
44	0xbd1d72ab	-0.038439434
45	0xbdfa5868	-0.122238934
46	0xbd4fc848	-0.050728112
47	0xbdba765e	-0.09104608
48	0xbe930ade	-0.28719229
49	0xbda89488	-0.08231455
50	0xbda51616	-0.08060853
51	0xbe2abf32	-0.16674498
52	0xbe01acc9	-0.12663569
53	0xbde29eb8	-0.110654294
54	0x3c1c891a	0.009554172
55	0x3e8d74d2	0.2762819
56	0x3e122513	0.14271955
57	0xbc91d4ef	-0.01780173
58	0xbd826b60	-0.063681364
59	0xbcc33250	-0.023827702
60	0x3d88894d	0.06666813
61	0xbe077898	-0.13229597
62	0x3c8ee86a	0.017444808
63	0x3e6f31fd	0.23358913
64	0x3d93915b	0.07205459
65	0xbe667575	-0.22505744
66	0x3d5c7663	0.05382384
67	0xbe843e78	-0.2582891
68	0xbebf27b4	-0.3733498
69	0xbd5c2746	-0.05374839
70	0xbd03281d	-0.032020677
71	0xbd0067d2	-0.03134901
72	0xbd696569	-0.056981478
73	0xbe4f4abd	-0.20243354
74	0x3e812fb6	0.25231713
75	0xbd919e7f	-0.07110309
76	0xbc2487b4	-0.01004212
77	0xbe791ca4	-0.24327332
78	0xbd4e55a5	-0.050374646
79	0xbdfcdfa4	-0.123473436
80	0xbea47690	-0.32121706
81	0xba8c0ad1	-0.0010684376
82	0xbd888bf6	-0.066673204
83	0xbeee5cd5	-0.465552
84	0x3e7fdb0f	0.24985908
85	0xbdd3dbf8	-0.1034469
86	0xbe4b26d6	-0.19839033
87	0xbbfd9693	-0.007738897
88	0xbaa1ef80	-0.0012354702
89	0xbc551071	-0.013004408
90	0x3d4b09d1	0.04956991
91	0xbc82fb53	-0.015988981
92	0xbf069998	-0.52578115
93	0xbd6ac468	-0.057316214
94	0x3d50748b	0.050892394
95	0xbc67bf57	-0.01414474
96	0xbd6c8e89	-0.05775312
97	0xbda452a0	-0.08023572
98	0xbd983cf8	-0.07433504
99	0xbd264eae	-0.04060238
100	0xbe9f1a5a	-0.31074792
101	0x3da42716	0.080152676
102	0xbd0db8ce	-0.03460007
103	0x3d00522f	0.031328376
104	0xbdf75a3d	-0.120777585
105	0x3b4c7872	0.003119972
106	0x3d73d7fe	0.059532158
107	0xbd3c68eb	-0.045998495
108	0xbd23ec8f	-0.04002052
109	0xbe889028	-0.26672482
110	0xbcce5256	-0.025185745
111	0x3e209902	0.15683368
112	0xbd00c385	-0.031436462
113	0xbd5c3dc6	-0.05376985
114	0xbd8a818b	-0.067629896
115	0x3e970e64	0.29503167
116	0xbda67d03	-0.08129313
117	0xba728338	-0.00092511205
118	0xbe277c8f	-0.16356109
119	0xbec27f62	-0.3798781
120	0xbd98b851	-0.074570306
121	0xbd48fddd	-0.049070228
122	0x3dd1ca96	0.10243718
123	0x3d1041ed	0.03521912
124	0xbe129d82	-0.14317897
125	0x3d1af997	0.037835684
126	0x3caa4091	0.02078274
127	0xbe99f5c4	-0.30070317
128	0xbdf69143	-0.12039425
129	0x3d337e98	0.0438219
130	0x3c5588d7	0.013033113
131	0xbd4888f7	-0.048958745
132	0xbd9eaeb7	-0.07748168
133	0x3e32a782	0.17446712
134	0xbd67a291	-0.05655152
135	0xbd4a01ae	-0.049318008
136	0xbd2a94d1	-0.04164583
137	0x3d126311	0.03573901
138	0xbd012fce	-0.03153973
139	0x3bc4fa8f	0.006011314
140	0xbd5dd285	-0.054155845
141	0x3e9cacf9	0.30600718
142	0x3c63714d	0.0138819935
143	0x3d9f15b2	0.0776781
144	0xbec8b378	-0.39199424
145	0xbd9fb2a6	-0.07797746
146	0xbcc18abc	-0.023625724
147	0xbe82c586	-0.25541323
148	0xbdac5459	-0.084145255
149	0xbd6cb1d8	-0.057786793
150	0xbdea8e2b	-0.11452898
151	0x3e046831	0.12930371
152	0xbd3eeeea	-0.046614565
153	0xbe670d83	-0.22563748
154	0xbd360bc8	-0.04444483
155	0x3a94c9f0	0.0011351686
156	0xbe1a2a0d	-0.15055104
157	0xbd83c08e	-0.06433211
158	0x3ec661c2	0.38746458
159	0xbd375cc9	-0.04476622
160	0x3e1749f7	0.14774309
161	0xbda9ac62	-0.082848325
162	0xbd871422	-0.06595637
163	0xbd2cbc9f	-0.04217207
164	0xbde3603f	-0.11102342
165	0xbcbf34df	-0.02334064
166	0xbc79758b	-0.015225778
167	0xbd268abe	-0.04065966
168	0xbd0d11cd	-0.034440804
169	0xbd4a15d1	-0.049337212
170	0xbc3b40e3	-0.011429044
171	0x3da33be0	0.079704046
172	0xbec94ba6	-0.39315528
173	0xbdb8804f	-0.09008848
174	0xbd67a55a	-0.056554176
175	0xb95e4b41	-0.00021199604
176	0xbc6d5be0	-0.014487237
177	0x3cd453d8	0.025918886
178	0x3d4ad378	0.04951808
179	0x3e06a0b0	0.13147235
180	0xbd9d362a	-0.076763466
181	0xbc5ea19b	-0.013588334
182	0xbda151f0	-0.078769565
183	0x3d3e5ce8	0.04647532
184	0x3edd50e8	0.4322579
185	0xbc8af3bd	-0.016961927
186	0xbbebeec7	-0.0072000953
187	0xbd59487a	-0.053047635
188	0x3e9bc856	0.30426282
189	0xbd61c6ac	-0.05512111
190	0xbe2cf369	-0.16889729
191	0xbda0e022	-0.0785525
192	0xbdd256c7	-0.10270458
193	0xbda02c2e	-0.078209266
194	0xbbd71610	-0.0065639094
195	0xbd0281b1	-0.031861965
196	0x3d7bcf57	0.06147703
197	0xbd6b127d	-0.05739068
198	0xbe9a90d7	-0.3018863
199	0x3df9cc54	0.121971756
200	0xbd842f59	-0.06454343
201	0x3d76897c	0.06018971
202	0xbcf35025	-0.029701302
203	0xbd2578ce	-0.04039841
204	0xbe1fda2a	-0.15610567
205	0xbd897c3d	-0.0671315
206	0xbd7a9b6a	-0.06118337
207	0xbd481bab	-0.04885451
208	0xbd87bc42	-0.06627704
209	0x3e123988	0.14279759
210	0xbd66f3bd	-0.05638479
211	0xbc96d43f	-0.018411754
212	0xbd8c8205	-0.06860737
213	0xbe979751	-0.29607633
214	0xbd2bef5e	-0.041976325
215	0xbdff5352	-0.12467064
216	0xbd1b5406	-0.037921928
217	0xbdef40e9	-0.116823025
218	0x3dbed284	0.093174964
219	0x3cb71c44	0.022352345
220	0xbe36fb53	-0.1786931
221	0x3cb5bb83	0.02218414
222	0x3e48756a	0.1957604
223	0xbd28c1ba	-0.041200377
224	0xbd12384d	-0.035698224
225	0x3cb6c50f	0.022310762
226	0xbe66a7bb	-0.22524922
227	0xbc153082	-0.009105803
228	0x3cb56b35	0.022145847
229	0xbd8ba73b	-0.06819006
230	0xbd4c84ab	-0.04993121
231	0xbd4879a5	-0.048944134
232	0x3d811015	0.063018955
233	0xbc0fb3de	-0.008770911
234	0xbd8cdf23	-0.068784975
235	0x3d3d57c4	0.046226278
236	0x3e68c3de	0.22730967
237	0xbd8025e7	-0.06257229
238	0xbefd0fb5	-0.49426046
239	0xbb912d04	-0.004430415
240	0xbd9f7cc7	-0.07787471
241	0xbe22d498	-0.1590141
242	0x3b174a21	0.0023084956
243	0xbe65fa02	-0.22458652
244	0xbe4388d7	-0.19095169
245	0x3d99e0db	0.07513591
246	0xbdcc09e6	-0.099628255
247	0xbc69645b	-0.014245118
248	0xbd82225e	-0.06354211
249	0x3d1af954	0.037835434
250	0xbd0fc88a	-0.03510336
251	0x3c00b6b8	0.007856064
252	0x3e26e92e	0.16299888
253	0xbc04c9f2	-0.008104788
254	0xbe0437d7	-0.12911926
255	0xbc0095e4	-0.007848237

l3.weight f4 [6, 300]
0	0xbe809d27	-0.25119898
1	0xbd7ff06c	-0.062485144
2	0x3cd03ba2	0.02541906
3	0x3ea0c345	0.3139898
4	0x3baed1ed	0.0053350837
5	0xbd1a5ed1	-0.03768808
6	0x3cae0b65	0.021245668
7	0xbe44847d	-0.19191165
8	0xbeec2788	-0.4612391
9	0x3db3d88e	0.08781539
10	0xbd739d59	-0.05947623
11	0xbd41d757	-0.047324505
12	0xbdf1053e	-0.11768578
13	0x3c6404ea	0.013917187
14	0x3c3643b4	0.01112454
15	0x3dd54303	0.10413172
16	0x3ee822e1	0.4533911
17	0x3f2de1bb	0.6792256
18	0xbe8fb284	-0.28065884
19	0x3d08e72a	0.03342358
20	0x3d6915b5	0.056905467
21	0x3e105427	0.14094602
22	0xbf197dd9	-0.59957653
23	0xbd0c0f9c	-0.034194574
24	0xbc932589	-0.017962234
25	0x3dcb3658	0.099224746
26	0x3c8170eb	0.015800914
27	0xbcdfedb2	-0.027335022
28	0xbe6d0ecf	-0.2315018
29	0x3e744b2a	0.23856798
30	0x3db9a8b6	0.09065382
31	0xbc75fed3	-0.015014368
32	0x3d66dc54	0.056362465
33	0x3ed0c099	0.4077194
34	0x3df054d4	0.1173493
35	0x3f0320b6	0.5122179
36	0xbb8cd138	-0.0042974018
37	0xbd89000f	-0.06689464
38	0x3d512de5	0.05106916
39	0x3d3b26b5	0.04569121
40	0xbec3c681	-0.38237384
41	0x3df51432	0.119667426
42	0x3cc4a77d	0.024005646
43	0xbd09172e	-0.03346937
44	0xbe745cde	-0.23863551
45	0xbf302df6	-0.6882013
46	0xbe980f40	-0.29699135
47	0x3c32da06	0.010916239
48	0x3e91780e	0.28411907
49	0x3d9441b6	0.07239096
50	0x3cb99db4	0.022658207
51	0x3e892c56	0.26791638
52	0xbdc6b48c	-0.09702405
53	0xbd21534c	-0.03938608
54	0x3cf89c49	0.03034796
55	0xbd889cf1	-0.06670559
56	0xbe786eff	-0.24261092
57	0x3d236290	0.03988892
58	0x3d16b791	0.036796156
59	0xbda44fe4	-0.080230504
60	0xbe1f285c	-0.1554274
61	0xbe422aee	-0.18961689
62	0xbcc4628c	-0.023972772
63	0x3f1cced0	0.6125307
64	0xbd42fa68	-0.047602087
65	0xbd67da98	-0.05660495
66	0x3d9f3b53	0.07774987
67	0x3d575964	0.052575484
68	0xbe84370d	-0.2582325
69	0xbcae7fe8	-0.021301225
70	0xbcaf9063	-0.021431154
71	0xbc825b18	-0.015912578
72	0x3c7081f3	0.01467942
73	0xbdef02e0	-0.1167047
74	0x3cc119bf	0.023571847
75	0x3d81f905	0.06346325
76	0x3e72b6f1	0.23702599
77	0x3ecf21de	0.40455526
78	0x3cee9b14	0.029126681
79	0xbe28f442	-0.16499427
80	0x3e48be23	0.19603781
81	0xbce3aa37	-0.027791126
82	0xbca5933c	-0.020211808
83	0x3dc50434	0.09619942
84	0x3ed5d58a	0.4176448
85	0xbe160f80	-0.1465435
86	0x3da804d1	0.08204044
87	0x3b5f675f	0.0034088714
88	0x3ee821fb	0.45338425
89	0x3dbe50f4	0.09292784
90	0xbe09150d	-0.13386936
91	0x3cd0d46d	0.025491918
92	0xbdaaaf21	-0.083341844
93	0x3d2dc8ed	0.042427946
94	0xbf0f4b7f	-0.5597457
95	0xbe7d0495	-0.24708779
96	0xbc5d471b	-0.013505722
97	0x3d87218f	0.06598198
98	0x3ebac88e	0.36481136
99	0xbccf056c	-0.02527114
100	0xbea8d106	-0.32971972
101	0x3e84a9c7	0.2591078
102	0xbe17f1d9	-0.14838351
103	0x3cb4e161	0.022080125
104	0x3eaf41a5	0.3422977
105	0xbc533c7b	-0.012892838
106	0x3dbeee52	0.093228
107	0xbc853b7a	-0.016263712
108	0xbb0d5b87	-0.0021569447
109	0xbe1f9fdf	-0.1558833
110	0xbde7c4d0	-0.11316836
111	0xbec7ba58	-0.39009356
112	0xbb0b3ea0	-0.0021247044
113	0x3d860ad3	0.06545033
114	0x3ad76b47	0.0016435169
115	0x3e5b44bb	0.21412937
116	0xbe382c33	-0.1798561
117	0xbc30aa90	-0.010782853
118	0xbc036083	-0.008018616
119	0x3e73ab82	0.23795894
120	0xbc30bfb3	-0.010787892
121	0x3c7c03f6	0.015381804
122	0xbd4ee43f	-0.05051064
123	0xbe6359bb	-0.22202198
124	0x3e376803	0.17910771
125	0xbeaf879b	-0.34283146
126	0x3beb0054	0.00717167
127	0x3e985dc6	0.29759043
128	0x3d3b58f4	0.04573913
129	0xbd285cf2	-0.041104265
130	0xbd31039d	-0.043216337
131	0xbb6ab56d	-0.0035813705
132	0x3c8223d6	0.015886229
133	0xbe4b35f9	-0.19844808
134	0xbd6bc578	-0.057561368
135	0xbcf295b4	-0.0296124
136	0xbb698676	-0.0035633123
137	0x3e206032	0.15661696
138	0xbbcea144	-0.0063058455
139	0x3f00951d	0.5022753
140	0xbccbb9c2	-0.02486885
141	0x3e895fef	0.26831004
142	0x3cc3512b	0.023842415
143	0x3d4b2760	0.049598098
144	0x3de2bfbd	0.110717274
145	0xbd2dd93b	-0.042443495
146	0x3cc9758a	0.02459218
147	0xbd40ee95	-0.04710253
148	0x3b66d83f	0.0035224108
149	0x3e82bacb	0.25533137
150	0x3c26a906	0.010172134
151	0x3f026d75	0.5094827
152	0xbc00c125	-0.007858549
153	0x3db24d85	0.08706192
154	0xbd474b81	-0.04865599
155	0xbd2d37b2	-0.042289443
156	0x3e0fbb11	0.14036204
157	0x3d15b30c	0.036547706
158	0xbf00e694	-0.50351834
159	0x3d2d14d2	0.042256184
160	0x3f077a65	0.52921134
161	0xbce80e95	-0.028327266
162	0x3d9e239f	0.07721638
163	0xbd2e65a8	-0.042577416
164	0xbe916454	-0.28396857
165	0xbd1e3905	-0.038628597
166	0x3ca47e67	0.020079805
167	0x3c0a8669	0.008454897
168	0xbaeccd10	-0.0018066484
169	0xbd6c5961	-0.057702426
170	0x3bc49139	0.005998757
171	0xbca1e9f5	-0.01976488
172	0x3ace6890	0.0015747715
173	0xbd80f270	-0.06296241
174	0xbca6ac97	-0.02034597
175	0xbcb33f92	-0.021880899
176	0xbd81d6bf	-0.06339788
177	0x3d8df76c	0.069319576
178	0x3e1c525e	0.15265796
179	0x3ea6a6bc	0.32549083
180	0xbb8cfbc9	-0.004302476
181	0xbd230602	-0.03980065
182	0xbc9033bd	-0.017602796
183	0x3d0135f9	0.031545613
184	0x3f3fb3ce	0.74883735
185	0x3c014246	0.007889336
186	0xbe1e1fa5	-0.15441759
187	0x3bd14bef	0.006387226
188	0xbedd584d	-0.4323143
189	0xbcaffd68	-0.021483138
190	0xbdbdc212	-0.092655316
191	0xbbf7a918	-0.0075579993
192	0xbe27e34e	-0.16395304
193	0x3c64f65d	0.013974753
194	0xbcfb7084	-0.0306933
195	0x3c2179f6	0.009855738
196	0x3e26b77f	0.16280936
197	0x3c74cc6a	0.014941314
198	0x3e51e2d1	0.2049668
199	0x3da4878e	0.080336675
200	0x3c75f53f	0.0150120845
201	0xbe0b7310	-0.13618112
202	0x3cf2a907	0.029621614
203	0xbc9d5144	-0.01920379
204	0xbd0adeb5	-0.033903796
205	0xbcd5dbcb	-0.026105782
206	0x3de13ed8	0.109983146
207	0xbcfea08c	-0.031082414
208	0xbc0862ee	-0.008324368
209	0xbe39368b	-0.18087213
210	0x3c16cb73	0.0092037795
211	0xbd2b45c1	-0.04181457
212	0xbe5c4a42	-0.21512702
213	0xbee91863	-0.45526418
214	0xbcfc72ca	-0.030816454
215	0xbe6d3a13	-0.23166685
216	0x3e9f21de	0.31080526
217	0x3d57a7ae	0.052650146
218	0xbe5289d8	-0.20560396
219	0x3e9f93e0	0.31167507
220	0x3ebeadcf	0.3724198
221	0x3ca246c4	0.019809134
222	0xbebc4619	-0.3677223
223	0xbc3ff9a5	-0.011717235
224	0xbd78be00	-0.060728073
225	0x3de9b1ab	0.114108406
226	0xbe2b3cf8	-0.16722476
227	0x3c4f2b54	0.012644608
228	0x3cf35e7a	0.029708136
229	0x3ca96f40	0.020682931
230	0xbc9d9bd2	-0.01923934
231	0x3ea5a7ab	0.32354483
232	0x3d097d7f	0.033566948
233	0x3bcf5181	0.0063268547
234	0xbd9bc382	-0.076056495
235	0x3d39e3af	0.04538315
236	0x3d26d117	0.040726747
237	0xbdb89dbc	-0.090144604
238	0x3dea589b	0.114426814
239	0x3c22766f	0.009915932
240	0xbc2a5d76	-0.010398259
241	0xbe5cdc76	-0.21568474
242	0x3e73105c	0.2373671
243	0x3e362412	0.17787197
244	0x3ed23614	0.41056883
245	0xbdf49138	-0.11941761
246	0x3d9638ff	0.0733509
247	0x3e729fa2	0.23693708
248	0xbe2e721d	-0.17035718
249	0x3d576e32	0.052595325
250	0xbcf3da54	-0.029767193
251	0x3ca4a6a0	0.020098984
252	0xbe315163	-0.17316203
253	0x3c0bbe86	0.008529311
254	0xbe94d0a2	-0.29065424
255	0x3e491e23	0.19640402

l3.bias f4 [6]
0	0x3a20845b	0.0006123238
1	0xbcab0aa6	-0.020879101
2	0xbbb86065	-0.0056267255
3	0xbe12c787	-0.14333926
4	0x3df7aede	0.120939
5	0xbe6ddef9	-0.23229589
