average data/Average_TD3_20_Peg-in-hole-triple_assembly_seed_5/_actor.pth (torch_old, 510312 bytes, 6 tensors)

l1.weight f4 [400, 12]
0.190671 -0.21586496 0.23525274 0.18470997 0.2425468 -0.22132999 -0.19376364 0.13736281
-0.2694698 0.28531766 0.061446548 0.03728023 -0.8448753 0.00173356 -0.04729539 -0.057032194
0.66185474 0.33019653 -0.48922586 0.253869 0.05394872 -0.081783324 -0.20558438 0.06834567
0.54990244 -0.09928129 -0.008659397 0.025388703 -0.2201821 -0.090297975 0.0285475 -0.25530222
-0.38631964 0.008776566 0.24962024 0.03728027 0.072090775 -0.2626589 -0.031147262 0.2799426
0.24993134 -0.05734073 -0.41093424 0.13367426 0.22859088 0.2427522 0.31643426 0.121650316
0.038767315 0.04253517 0.20846717 -0.085786484 -0.047474325 -0.116041884 0.13900578 0.00056408404
0.2641216 -0.23258866 -0.108511254 0.1689655 -0.3764367 -0.17061828 -0.07555877 -0.13477546
-0.19768985 0.19610837 -0.018001644 0.19633682 0.28958452 -0.26151752 0.2633228 -0.0119002005
-0.04595965 0.2184614 0.26615113 0.25341433 0.1660248 0.26831347 -0.10401122 -0.018373817
-0.09873605 -0.021217138 -0.035101116 0.15423197 0.28559712 -0.19487724 -0.1250259 -0.10836976
0.1384516 -0.037963517 -0.17389412 -0.13688552 -0.20227116 0.06887263 -0.26729247 -0.16339137
-0.1065131 -0.039875776 0.22681963 0.18929091 -0.09315698 -0.26466393 -0.20648569 -0.22146691
-0.027390063 -0.1281972 -0.20174024 0.06400484 0.25960162 -0.037187304 -0.076888025 0.2752535
-0.3855969 -0.110037684 0.342587 0.12693933 -0.35593265 -0.033724677 0.15943989 0.0036193675
0.08728838 -0.12755488 0.20034811 -0.10825166 -0.15545103 0.26184654 0.07647112 -0.0019928217
-0.20118177 -0.0638973 -0.22176056 -0.19422932 0.09971738 0.0919283 -0.19318582 0.26146343
0.03911246 -0.2663578 0.27145138 -0.2331964 -0.28011808 0.30931535 -0.1685956 -0.16962254
-0.111010455 -0.0033431018 0.016620912 0.087983616 0.23093402 -0.21353316 -0.5522097 0.013313858
0.0013591032 0.114026 -0.03553934 -0.101294234 -0.15806639 -0.3148062 -0.026910352 0.15236712
-0.0773964 0.17568457 0.11992563 0.20166661 0.29994968 -0.016297033 0.008033627 0.0520224
0.37912163 0.29855964 -0.17174552 0.23824713 0.07437044 0.0014647667 -0.28123343 -0.44456816
-0.2935204 -0.22344616 -0.13474075 -0.28086784 -0.3403742 -0.14758511 -0.05881193 -0.36695093
-0.00062303676 -0.020946914 -0.09504842 0.11633638 0.323798 -0.38255468 0.043473065 0.1355155
0.4599786 0.16382012 -0.14404336 -0.021212049 -0.024972875 0.14394632 -0.07338771 -0.37716052
-0.15096286 0.045911267 -0.2558994 -0.008440457 0.18145946 -0.0031526685 0.1514447 0.20221636
0.18430409 -0.2749286 0.26163828 0.07633141 -0.28617752 0.07183349 -0.19878256 0.2672038
-0.00439456 -0.21946661 -0.19903201 0.045899495 -0.010432386 0.21913593 -0.3749703 0.2821642
0.037901144 0.018608024 -0.23793443 0.146016 0.31227165 0.2888434 -0.14965604 -0.10338514
0.10341468 0.14590186 -0.3386623 -0.174429 -0.43623593 0.33420348 0.0103680855 0.030173702
0.5402804 0.18654852 -0.015886068 0.08299087 -0.32791814 0.074194536 0.013706824 -0.14587364
0.122149125 -0.29342443 -0.053361945 -0.32361394 -0.087784395 -0.018155515 0.115231425 -0.23103344
00000000: 423f 433e b40b 5dbe 18e6 703e 9c24 3d3e
00000010: 305e 783e 54a4 62be fa69 46be d6a8 0c3e
00000020: f2f7 89be 2815 923e 60af 7b3d 28b3 183d
00000030: bf49 58bf 9f38 e33a d0b8 41bd 979a 69bd
00000040: 506f 293f 850f a93e d07b fabe 1efb 813e
00000050: 55f9 5c3d 047e a7bd b684 52be d1f8 8b3d
00000060: 68c6 0c3f fd53 cbbd 25e0 0dbc f8fb cf3c
00000070: 6b77 61be 25ee b8bd 72dc e93c f9b6 82be
00000080: b0cb c5be 96cb 0f3c 739c 7f3e 32b3 183d
00000090: 54a4 933d 3a7b 86be 8b28 ffbc a354 8f3e
000000a0: 00ee 7f3e 1dde 6abd f965 d2be e8e1 083e
000000b0: ba13 6a3e 0894 783e ac03 a23e cd23 f93d
000000c0: 7aca 1e3d 5c39 2e3d 6b78 553e d3b0 afbd
000000d0: 7074 42bd 5ea7 edbd 8857 0e3e 0adf 133a
000000e0: f23a 873e b92b 6ebe 263b debd 4b05 2d3e
000000f0: 50bc c0be 8fb6 2ebe 8ebe 9abd 9402 0abe
00000100: 356f 4abe a2d0 483e 2f78 93bc 850c 493e
00000110: 6c44 943e a0e5 85be 3fd2 863e 0ff9 42bc
00000120: 3040 3cbd 58b4 5f3e f644 883e 86bf 813e
00000130: 6802 2a3e 6260 893e d603 d5bd b084 96bc
00000140: 2036 cabd 90cf adbc 30c6 0fbd fcee 1d3e
00000150: c939 923e e68d 47be ca06 00be f7f0 ddbd
00000160: 42c6 0d3e a27f 1bbd 4d11 32be b82b 0cbe
00000170: 2c20 4fbe 180d 8d3d 8fda 88be 1150 27be
00000180: 8a23 dabd c854 23bd 6843 683e 7ad5 413e
00000190: 16c9 bebd 0882 87be fc70 53be 39c8 62be
000001a0: 2061 e0bc 2046 03be fe94 4ebe f814 833d
000001b0: 81ea 843e b751 18bd 7877 9dbd 07ee 8c3e
000001c0: f56c c5be 705b e1bd 9067 af3e 62fc 013e
000001d0: ce3c b6be e322 0abd 3644 233e e932 6d3b
000001e0: 40c4 b23d bf9d 02be 0e28 4d3e 0cb3 ddbd
000001f0: 8e2e 1fbe c010 863e e49c 9c3d 009a 02bb
00000200: 9802 4ebe 96dc 82bd 3315 63be 0de4 46be
00000210: a038 cc3d e844 bc3d 81d2 45be 89de 853e
00000220: 6334 203d 0d60 88be adfb 8a3e 09cb 6ebe
00000230: a36b 8fbe 955e 9e3e 53a4 2cbe 88b1 2dbe
00000240: 7359 e3bd f117 5bbb 9428 883c c130 b43d
00000250: f879 6c3e 70a8 5abe 9d5d 0dbf 5e22 5a3c
00000260: f023 b23a 7786 e93d b391 11bd 5a73 cfbd
00000270: 28dc 21be 472e a1be 1973 dcbc 2006 1c3e
00000280: 0182 9ebd a8e6 333e 929b f53d b181 4e3e
00000290: 0193 993e 5b81 85bc 799f 033c 7115 553d
000002a0: 3b1c c23e cfdc 983e 0fde 2fbe 0ef7 733e
000002b0: 874f 983d 6afd bf3a d4fd 8fbe 709e e3be
000002c0: 4e48 96be 12cf 64be 7bf9 09be e9cd 8fbe
000002d0: 8745 aebe 8d20 17be c7e4 70bd fee0 bbbe
000002e0: 4a53 23ba dd98 abbc bfa8 c2bd c541 ee3d
000002f0: dac8 a53e 35de c3be d010 323d 93c4 0a3e
00000300: 5182 eb3e 76c0 273e 1a80 13be e4c4 adbc
00000310: ea93 ccbc aa66 133e 4c4c 96bd 2f1b c1be
00000320: 0296 1abe 740d 3c3d 3f05 83be d849 0abc
00000330: 82d0 393e 009d 4ebb 5214 1b3e ce11 4f3e
00000340: 36ba 3c3e 71c3 8cbe 74f5 853e a453 9c3d
00000350: dc85 92be 701d 933d a88d 4bbe f0ce 883e
00000360: 3e00 90bb dbbb 60be 0ccf 4bbe 1c01 3c3d
00000370: 99ec 2abc 2b65 603e 1bfc bfbe d377 903e
00000380: 3b3e 1b3d db6f 983c 15a5 73be 3885 153e
00000390: 12e2 9f3e 48e3 933e 6f3f 19be 97bb d3bd
000003a0: 13cb d33d 4c67 153e 2565 adbe 849d 32be
000003b0: 515a dfbe b81c ab3e e7de 293c d72e f73c
000003c0: d14f 0a3f 9306 3f3e 8023 82bc 1ef7 a93d
000003d0: e3e4 a7be 4ef3 973d 9692 603c e65f 15be
000003e0: 5229 fa3d ba3b 96be 0e92 5abd bab0 a5be
000003f0: 4ec8 b3bd e0ba 94bc 74fe eb3d 0894 6cbe

l1.bias f4 [400]
0.023947 0.42237243 0.4247266 0.22052503 -0.01142016 -0.020306872 0.105590016 0.32801774
-0.1622449 0.12594453 -0.16277187 0.0026911555 -0.107927665 0.011333431 -0.08341938 -0.29473123
0.24318281 -0.26838145 -0.22540018 0.38232145 0.43864098 -0.1153539 0.21268868 -0.24295107
-0.14983328 -0.18710855 0.029923296 0.017937243 -0.03283377 0.18452114 0.057982206 0.05029866
-0.20444179 -0.39359856 -0.1711531 -0.42633465 0.18663749 -0.021751016 -0.083645426 -0.22074969
0.23502104 -0.15746732 0.015005982 0.088926174 -0.04463202 -0.07041545 0.3326769 0.28746644
-0.055123996 0.40831622 -0.054917745 -0.37857828 0.28301993 0.12450969 -0.013266231 -0.29239148
-0.04963073 -0.13885486 -0.057483867 -0.109475 -0.16714393 0.27469748 -0.32715914 -0.19937463
0.25650263 0.32153627 -0.16271436 0.052716147 0.23949881 -0.24659255 -0.07682197 0.25620806
-0.03264547 0.05514899 -0.10220857 -0.10948377 -0.19775471 0.077086546 -0.06699767 -0.34333012
-0.048488025 0.3648541 -0.20775217 0.2724271 0.1842592 -0.26930827 0.0161423 -0.46432477
-0.033486307 -0.3251814 0.27146563 -0.029535573 -0.10814799 -0.06524603 -0.09952355 -0.09622379
-0.2901217 0.46000051 -0.30915186 -0.3722393 -0.30330533 0.22156271 0.22303283 -0.14293641
0.083014704 -0.10730352 0.24762881 -0.14146079 0.103767544 -0.31464344 -0.36653617 0.05872242
-0.12484583 0.2176926 -0.04205526 0.30605063 -0.0276467 0.08982498 -0.15520942 0.25305623
-0.1365894 0.38024226 -0.12941308 0.2202096 -0.05096808 0.14780572 0.3153501 0.056065887
0.27728295 -0.20899147 -0.3263165 -0.20031962 0.059576638 0.26667598 0.059195846 0.11608811
-0.059983764 -0.20394763 -0.13769478 0.20132318 0.05439296 0.0052069225 -0.39679345 0.014011193
-0.21683724 0.1568422 -0.15017001 -0.38784322 0.02537369 0.104518026 0.36568263 0.30509928
-0.17507993 0.018416423 -0.09342915 -0.16245691 -0.32165983 -0.23801915 0.09316238 -0.23018132
0.013038069 0.04850267 -0.27089503 -0.103819 -0.05320494 -0.26971072 0.11478639 -0.14796275
0.39668655 0.2878589 0.13360229 -0.050934717 -0.1635294 -0.15585011 0.27357718 -0.010648617
-0.03104809 -0.09282958 -0.12094836 0.30742174 0.15458824 0.24289846 -0.31868488 0.1793564
-0.11365316 0.3046194 0.06670344 0.13581187 0.09157994 0.24055673 -0.44778422 -0.1634816
0.11771769 0.19016121 0.17458406 -0.27635288 0.09182368 -0.10788217 -0.2725129 0.046424717
-0.005754671 0.17381567 -0.12559398 -0.12710784 -0.31023836 -0.22214167 -0.36281142 0.20350578
0.115019485 -0.19401862 0.3446589 0.18596692 -0.15705189 0.24976234 0.15325812 -0.1987032
-0.097125456 0.005112446 -0.13713476 0.1463287 0.2256953 0.11667419 0.055025812 0.055225383
0.15358561 -0.028141474 0.057570472 -0.06930394 -0.26351163 0.049831387 -0.14706725 -0.42628336
0.06759262 0.17626908 0.39811993 0.3302532 0.167077 0.009099257 0.22424696 -0.31866375
-0.32720205 0.32222906 0.22936815 0.08045163 -0.2532556 -0.1463686 -0.06844218 0.28004515
-0.1275117 0.014824301 -0.17067665 0.18301952 -0.26048034 0.27727816 -0.21347706 -0.12877062
00000000: 802c c43c 3341 d83e c475 d93e 50d1 613e
00000010: 9f1b 3bbc 995a a6bc 943f d83d f1f1 a73e
00000020: 8723 26be 9af7 003e abad 26be 195e 303b
00000030: 2e09 ddbd dbaf 393c c8d7 aabd 03e7 96be
00000040: ea04 793e 4b69 89be 4ecf 66be a3bf c33e
00000050: 8d95 e03e aa3e ecbd 10cb 593e 2ac8 78be
00000060: e56d 19be 6299 3fbe b321 f53c 20f1 923c
00000070: b47c 06bd 1cf3 3c3e c07e 6d3d f805 4e3d
00000080: 3059 51be c085 c9be c242 2fbe 8948 dabe
00000090: e61d 3f3e 302f b2bc 4b4e abbd 350c 62be
000000a0: 5ba9 703e 1d3f 21be a6db 753c ed1e b63d
000000b0: 11d0 36bd fa35 90bd a054 aa3e cd2e 933e
000000c0: b3c9 61bd d30e d13e 6ef1 60bd 03d5 c1be
000000d0: fde7 903e f0fe fe3d 9b5a 59bc 56b4 95be
000000e0: 9849 4bbd f82f 0ebe 3474 6bbd 6e34 e0bd
000000f0: c727 2bbe 26a5 8c3e 6781 a7be dd28 4cbe
00000100: 5054 833e 67a0 a43e 989e 26be e3ec 573d
00000110: 2d3f 753e c282 7cbe d654 9dbd b42d 833e
00000120: 42b7 05bd e8e3 613d ba52 d1bd 0739 e0bd
00000130: 3680 4abe 8ddf 9d3d 1336 89bd f7c8 afbe
00000140: 619b 46bd 28ce ba3e fcbc 54be 917b 8b3e
00000150: 72ae 3c3e c6e2 89be db3c 843c fabb edbe
00000160: f028 09bd 2d7e a6be 8bfd 8a3e 96f4 f1bc
00000170: b27c ddbd b69f 85bd 01d3 cbbd fa10 c5bd
00000180: d58a 94be 3085 eb3e 2749 9ebe 2696 bebe
00000190: d64a 9bbe 56e1 623e b862 643e ec5d 12be
000001a0: 9d03 aa3d f3c1 dbbd 6892 7d3e 19db 10be
000001b0: 1484 d43d f218 a1be a1aa bbbe ec86 703d
000001c0: 2caf ffbd cfea 5e3e 2342 2cbd abb2 9c3e
000001d0: 557b e2bc 29f6 b73d 38ef 1ebe 9690 813e
000001e0: 17de 0bbe 1daf c23e dd84 04be a07e 613e
000001f0: e8c3 50bd 625a 173e 9175 a13e 58a5 653d
00000200: 08f8 8d3e dc01 56be f512 a7be 9620 4dbe
00000210: a206 743d c189 883e 5877 723d 9abf ed3d
00000220: 89b1 75bd a6d7 50be dcff 0cbe aa27 4e3e
00000230: 27cb 5e3d d59e aa3b 8328 cbbe 348f 653c
00000240: 950a 5ebe 3e9b 203e 2bc6 19be 6393 c6be
00000250: 7cdc cf3c 8c0d d63d c13a bb3e f935 9c3e
00000260: 2748 33be 0ade 963c c857 bfbd 1b5b 26be
00000270: 99b0 a4be 4bbb 73be ebcb be3d a7b4 6bbe
00000280: a09d 553c bcaa 463d c1b2 8abe 0e9f d4bd
00000290: 6ced 59bd 8617 8abe 2015 eb3d 8c83 17be
000002a0: 801a cb3e 3e62 933e 0acf 083e eca0 50bd
000002b0: 4074 27be 2c97 1fbe 4f12 8c3e 8977 2ebc
000002c0: 9058 febc 6f1d bebd c6b3 f7bd 6266 9d3e
000002d0: 614c 1e3e 60ba 783e aa2a a3be 34a9 373e
000002e0: fdc2 e8bd 13f7 9b3e d09b 883d 4412 0b3e
000002f0: 438e bb3d 8154 763e f943 e5be b867 27be
00000300: f915 f13d 9fb9 423e 2ac6 323e 207e 8dbe
00000310: 0e0e bc3d 54f1 dcbd d086 8bbe d827 3e3d
00000320: ae91 bcbb bcfc 313e b59b 00be 8f28 02be
00000330: 90d7 9ebe 1b79 63be 6bc2 b9be d263 503e
00000340: 568f eb3d d1ac 46be 2277 b03e 1d6e 3e3e
00000350: 36d2 20be b3c1 7f3e b2ef 1c3e da78 4bbe
00000360: b6e9 c6bd 4e86 a73b 0e6d 0cbe 31d7 153e
00000370: ab1c 673e e1f2 ee3d bf62 613d 0334 623d
00000380: 8c45 1d3e f388 e6bc 04cf 6b3d 39ef 8dbd
00000390: ffea 86be ff1b 4c3d cc98 16be d041 dabe
000003a0: 006e 8a3d e27f 343e 60d6 cb3e f316 a93e
000003b0: 3c16 2b3e 0d15 153c ffa0 653e e527 a3be
000003c0: 0787 a7be 35fb a43e 7cdf 6a3e d3c3 a43d
000003d0: b8aa 81be a6e1 15be 6a2b 8cbd 1462 8f3e
000003e0: 6d92 02be a0e1 723c dcc5 2ebe 7869 3b3e
000003f0: ae5d 85be 67f7 8d3e bb99 5abe 72dc 03be

l2.weight f4 [300, 400]
-0.03021655 0.084514886 -0.085246176 -0.0470618 0.016070955 0.022918604 -0.0123791285 -0.0031675822
0.039443728 -0.020695513 -0.0050981715 0.045856424 0.0676316 -0.049773566 0.03700039 0.040176913
0.04223143 -0.041460715 -0.02365474 0.052194864 -0.08011054 0.047513936 -0.004818369 0.04850536
0.040487252 -0.017536271 0.041435465 -0.013387948 -0.0004302902 -0.046261966 -0.020317677 -0.046410378
-0.006117236 -0.012757158 -0.016044261 0.02958893 -0.018440945 -0.04089639 0.013771491 0.0029086638
0.0391255 0.04029403 -0.004007104 -0.012250371 0.054409653 -0.00796896 -0.046034057 -0.06991422
0.04835676 -0.07304797 -0.04346088 -0.007861599 -0.16350512 0.006200582 0.014697429 0.02758993
-0.003439445 -0.014921411 0.026740782 -0.00723527 0.04188131 0.028197285 0.043194007 -0.039972853
0.031747192 -0.021670684 0.03266469 -0.006636555 -0.041267622 -0.009256858 0.025421027 -0.003329489
0.0044104224 -0.026497906 -0.010276176 -0.0018890372 0.029795125 -0.028477466 -0.045566514 -0.015698541
0.051590122 0.05112019 0.037440177 -0.048338618 0.027300676 0.018372798 0.009926918 -0.012401827
-0.01593893 0.049164295 -0.04347783 -0.023297485 0.021329382 -0.029369632 0.047399394 -0.004843016
0.044568084 -0.10642891 0.03647005 -0.027902862 0.051320966 0.009114208 0.007718645 -0.016628992
0.033146273 0.047994286 0.04957583 0.019236203 0.022131331 0.014846698 0.004846737 0.053530622
-0.012609128 -0.031747136 0.058327403 -0.10353477 0.013919374 -0.029519955 -0.0037648566 0.019628704
-0.015888846 -0.23605275 -0.028972404 -0.044981997 -0.18085885 0.03645939 -0.22717373 0.01946761
0.008093048 -0.0396821 0.048223205 -0.047889516 -0.034220215 -0.02254248 -0.038920395 -0.061131846
0.028004682 -0.01171278 -0.03405383 -0.05571782 0.031270616 0.18216176 0.008180298 -0.24833423
-0.026000537 -0.08624076 -0.02900362 0.048412327 -0.020649161 0.003033246 -0.07468957 -0.1259752
-0.036828656 0.02535612 -0.006435883 0.029457096 -0.015062896 0.05409336 0.03194647 -0.030121017
-0.026185364 -0.01822321 0.044635635 0.049811278 0.017452832 0.047654 -0.03246633 0.022253845
-0.03893202 0.02452029 -0.03779909 0.0023850012 0.03619167 -0.04935221 -0.03883099 0.051613227
0.05851076 0.12522174 0.08223795 -0.04519696 -0.017006332 0.03059442 0.033808507 -0.023149667
-0.0095369695 -0.038770802 0.039385054 0.13510895 -0.011375324 -0.021333246 0.028163964 -0.009496618
-0.010678084 -0.011158252 -0.010444768 0.038671486 -0.015869966 0.039826673 0.030200668 0.013826225
-0.06680684 -0.04992313 0.036786404 -0.0077535897 0.04057315 0.011309224 0.010240497 -0.017414615
0.031777076 -0.032244086 -0.049626835 0.043611232 0.001310028 -0.007533464 -0.025097454 -0.010819873
-0.027112203 -0.035934243 -0.03413589 -0.002963549 -0.04107093 0.0010022811 0.0500033 -0.00033422897
-0.043901194 -0.019726185 0.030010946 -0.013870497 -0.045636386 -0.011281021 -0.032757107 -0.006208403
-0.03594841 0.011617951 -0.10767726 0.046911836 0.035926115 0.0018264995 -0.02918867 -0.014831714
-0.07234978 0.13556466 -0.039814215 0.044226825 -0.009082567 0.008547168 -0.021991638 -0.10624609
-0.0020371615 0.048097912 0.0011648156 -0.012939355 0.0394711 -0.11358861 0.021658968 -0.03576573
00000000: b388 f7bc 2416 ad3d 8c95 aebd e0c3 40bd
00000010: 3ca7 833c ccbf bb3c d4d1 4abc 3697 4fbb
00000020: bf8f 213d a389 a9bc 900e a7bb f2d3 3b3d
00000030: 7082 8a3d 5edf 4bbd b98d 173d 8c90 243d
00000040: ddfa 2c3d b6d2 29bd 96c7 c1bc 48ca 553d
00000050: ff10 a4bd f99d 423d 69e3 9dbb 8ead 463d
00000060: f6d5 253d 3aa8 8fbc 3cb8 293d 2059 5bbc
00000070: 9398 e1b9 307d 3dbd 4271 a6bc cf18 3ebd
00000080: 1873 c8bb 6603 51bc 416f 83bc 7c64 f23c
00000090: 7711 97bc f982 27bd d2a1 613c 489f 3e3b
000000a0: 0f42 203d 5a0b 253d 064e 83bb c8b5 48bc
000000b0: a8dc 5e3d 3e90 02bc 358e 3cbd 302f 8fbd
000000c0: bd11 463d 2d9a 95bd 0904 32bd f0cd 00bc
000000d0: e36d 27be 402e cb3b 7ccd 703c 4704 e23c
000000e0: 5068 61bb ef78 74bc 7c0f db3c d815 edbb
000000f0: bd8b 2b3d fefd e63c 33ec 303d 93ba 23bd
00000100: 5809 023d b886 b1bc 69cb 053d 7577 d9bb
00000110: 3d08 29bd 14aa 17bc c23f d03c 8e33 5abb
00000120: 4e85 903b 2312 d9bc 685d 28bc 9299 f7ba
00000130: e814 f43c 9349 e9bc f4a3 3abd 3a9a 80bc
00000140: 2a50 533d 6863 513d df5a 193d b7fe 45bd
00000150: aba5 df3c 8d82 963c 83a4 223c 0831 4bbc
00000160: 5c92 82bc 8060 493d cf15 32bd 5eda bebc
00000170: f5ba ae3c 9598 f0bc de25 423d 2ab2 9ebb
00000180: 068d 363d 66f7 d9bd 9f61 153d 8b94 e4bc
00000190: ef35 523d c253 153c b0ec fc3b 8639 88bc
000001a0: 63c4 073d a895 443d 0710 4b3d 3e95 9d3c
000001b0: c44c b53c 913f 733c 60d1 9e3b ed42 5b3d
000001c0: 8496 4ebc 4909 02bd b7e8 6e3d 0a0a d4bd
000001d0: 160e 643c d5d3 f1bc d0bb 76bb 60cc a03c
000001e0: 5329 82bc d0b7 71be 8957 edbc 0b3f 38bd
000001f0: 1033 39be 7156 153d 3ba0 68be 8a7a 9f3c
00000200: b498 043c b389 22bd b285 453d cc27 44bd
00000210: 7f2a 0cbd 02ab b8bc fe6a 1fbd 6365 7abd
00000220: 136a e53c f6e6 3fbc 077c 0bbd 5e38 64bd
00000230: 9e15 003d 9d88 3a3e a806 063c 544b 7ebe
00000240: 14ff d4bc ff9e b0bd 0099 edbc 014c 463d
00000250: 6e28 a9bc 6cc9 463b d8f6 98bd a5ff 00be
00000260: a5d9 16bd a3b7 cf3c 1ae4 d2bb 0250 f13c
00000270: 5dca 76bc 0091 5d3d 4dda 023d 5ac0 f6bc
00000280: b082 d6bc d748 95bc dbd3 363d e906 4c3d
00000290: 3ef9 8e3c d730 433d 6afb 04bd b24d b63c
000002a0: 2f77 1fbd c6de c83c 38d3 1abd ae4d 1c3b
000002b0: b73d 143d 8b25 4abd 3f0d 1fbd 6468 533d
000002c0: fba8 6f3d 213a 003e 5f6c a83d 7320 39bd
000002d0: dd50 8bbc 26a1 fa3c ca7a 0a3d 5fa4 bdbc
000002e0: f340 1cbc 22ce 1ebd 3952 213d 005a 0a3e
000002f0: 915f 3abc 0fc3 aebc 1db8 e63c b497 1bbc
00000300: 21f3 2ebc 1ad1 36bc 8820 2bbc fe65 1e3d
00000310: bb01 82bc 4b21 233d 6467 f73c 6487 623c
00000320: 06d2 88bd 327c 4cbd 57ad 163d d311 febb
00000330: 0830 263d 534a 393c c2c7 273c 18a9 8ebc
00000340: ae28 023d 6012 04bd 8245 4bbd b1a1 323d
00000350: 3fb5 ab3a 47db f6bb 2d99 cdbc d645 31bc
00000360: 691a debc c92f 13bd 13d2 0bbd 1a38 42bb
00000370: fe39 28bd f95e 833a 43d0 4c3d 743b afb9
00000380: bdd1 33bd cf98 a1bc 84d9 f53c 1541 63bc
00000390: 38ed 3abd 08d4 38bc 512c 06bd dc6f cbbb
000003a0: a43e 13bd 3859 3e3c e585 dcbd a026 403d
000003b0: 4327 133d 2767 ef3a 141d efbc b800 73bc
000003c0: 1f2c 94bd 76d1 0a3e 3b14 23bd 3027 353d
000003d0: 0ccf 14bc 6c09 0c3c cf27 b4bc 8d97 d9bd
000003e0: e681 05bb 5102 453d baac 983a 97ff 53bc
000003f0: 73ac 213d 25a1 e8bd 266e b13c 167f 12bd

l2.bias f4 [300]
-0.026716953 0.038597737 0.06220411 -0.02531668 0.037705198 -0.12355664 -0.037853457 -0.0112985475
0.0797281 0.026400093 0.048731532 0.043278344 -0.014523082 -0.033380534 0.014776951 0.00080091273
-0.0419412 0.019526275 0.033275012 -0.05802714 -0.00019890915 -0.020805983 -0.06914583 -0.047680207
0.118617915 -0.032707978 0.062355567 -0.05399514 -0.082800575 -0.046778705 -0.03411925 -0.037728194
-0.0075071137 -0.03610044 0.057044808 0.03998402 0.010007397 -0.032383423 -0.093741 0.03141736
-0.014769664 -0.0577224 -0.03301641 0.011530407 -0.012900047 0.01967169 0.02307459 -0.049210384
-0.045769874 0.010567317 -0.016060965 -0.013353559 -0.053362295 -0.045963548 0.033061333 -0.03927364
-0.104434766 -0.010596112 0.04640261 0.03697468 -0.10337015 0.04690915 0.04234328 0.17689158
0.03515462 -0.019405587 0.0018085912 -0.039967585 0.017781619 -0.048492506 -0.06694115 -0.009976342
0.06434573 -0.047972385 0.11478136 0.015565425 0.025269091 0.03358746 -0.03483974 0.0076760137
0.008081514 0.07515415 0.014893002 -0.031260047 -0.054247487 -0.035512123 0.027218547 0.040664952
0.20902696 -0.018090382 0.14010571 -0.091710865 0.068928 0.04079988 0.027382703 -0.013413446
0.020447224 0.027984563 -0.02886263 -0.042578295 0.04685887 -0.099454634 -0.04167961 -0.023855947
-0.04134358 -0.012334039 0.020443778 0.04343568 -0.023042891 0.038357504 0.087315686 -0.03974612
-0.025238156 0.110110134 -0.018640008 -0.0076151947 -0.037640013 -0.04439652 -0.044767104 0.020944687
-0.03914133 -0.08020765 0.1470784 -0.085573204 -0.042817593 -0.031873524 0.031303804 0.021332508
0.022955243 -0.02204523 0.033991642 -0.045516215 0.0304461 0.008342029 0.03420643 0.010438747
-0.023126762 -0.0136666205 0.007432657 -0.1610517 0.037267037 -0.029207218 0.005689159 -0.016570702
-0.033832025 -0.11087996 -0.036818728 0.012610639 0.13615364 -0.08379036 -0.11234221 0.017667525
-0.017368505 0.14573683 -0.0045860764 0.022804987 0.022586664 -0.007641594 -0.04138104 -0.044533674
0.027040508 0.00068014517 0.034035932 -0.05688843 -0.019826354 -0.0028434934 0.14180997 -0.0503927
-0.041555803 -0.017646117 -0.048039455 0.001737724 -0.007261721 -0.06524988 -0.004701215 -0.0051961346
-0.05098131 0.035102446 0.016677635 0.050790012 0.0050145886 -0.025617007 -0.017352704 -0.07394383
0.006920079 6.4746935e-05 0.0856875 -0.09745041 0.0020937785 0.031948376 0.028367544 0.008729294
-0.013289515 -0.0022251287 0.11956772 0.08004954 0.024417149 0.039447777 -0.081552 0.030120885
-0.03346022 -0.03959022 -0.024562672 -0.032603562 -0.095419675 -0.018991139 0.03190859 0.045123864
0.02400346 -0.09040699 -0.079146795 -0.055052012 0.03287897 -0.025053555 0.015113851 -0.08128708
-0.031072242 -0.024095777 0.025223218 0.01183166 0.020093424 -0.03832316 0.011767887 -0.023966203
-0.0029715695 0.022168593 -0.012624919 -0.09683185 0.0498635 -0.05290888 -0.018478619 -0.0259662
0.021418978 0.12259069 0.016249523 -0.10603922 0.03991977 0.1024541 0.0059678317 0.04165585
0.0148064755 -0.04773789 -0.033904612 -0.03235148 0.10401384 -0.039943483 0.033583116 0.055512
0.037878238 -0.055489305 0.038711775 -0.1468117 -0.1144097 -0.054951165 -0.020030916 -0.005652418
00000000: 83dd dabc a918 1e3d bdc9 7e3d ed64 cfbc
00000010: c470 1a3d 440b fdbd 3a0c 1bbd 8b1d 39bc
00000020: 7c48 a33d 0245 d83c b79a 473d a244 313d
00000030: 39f2 6dbc 07ba 08bd 061b 723c 58f4 513a
00000040: 89ca 2bbd 91f5 9f3c 614b 083d dead 6dbd
00000050: 4592 50b9 4f71 aabc 549c 8dbd 524c 43bd
00000060: f3ed f23d cdf8 05bd 8d68 7f3d 022a 5dbd
00000070: 5993 a9bd 079b 3fbd a0c0 0bbd e188 1abd
00000080: 3cfe f5bb 0ede 13bd d1a7 693d 49c6 233d
00000090: 11f6 233c 7ba4 04bd 48fb bfbd 7daf 003d
000000a0: 76fc 71bc 536e 6cbd 373c 07bd 08ea 3c3c
000000b0: b85a 53bc 8626 a13c ec06 bd3c d490 49bd
000000c0: 3179 3bbd 8a22 2d3c 4992 83bc e3c8 5abc
000000d0: 6c92 5abd 4644 3cbd 526b 073d 65dd 20bd
000000e0: e5e1 d5bd 519b 2dbc aa10 3e3d c372 173d
000000f0: bbb3 d3bd cf23 403d 2670 2d3d 1123 353e
00000100: 4afe 0f3d 77f8 9ebc 400e ed3a 0db5 23bd
00000110: c2aa 913c 14a0 46bd 7118 89bd d073 23bc
00000120: b2c7 833d b17e 44bd 7d12 eb3d 2006 7f3c
00000130: 2001 cf3c 0193 093d 1db4 0ebd 1287 fb3b
00000140: 5468 043c 6bea 993d c701 743c 890a 00bd
00000150: 9d32 5ebd 2975 11bd 6ef9 de3c 4b90 263d
00000160: 2a0b 563e 4832 94bc df77 0f3e e8d2 bbbd
00000170: 202a 8d3d c61d 273d b151 e03c 12c4 5bbc
00000180: f080 a73c e23f e53c 5271 ecbc 9466 2ebd
00000190: 16ef 3f3d dfae cbbd 3db8 2abd 8c6d c3bc
000001a0: e357 29bd b614 4abc b679 a73c 9de9 313d
000001b0: 72c4 bcbc c21c 1d3d 91d2 b23d d4cc 22bd
000001c0: 40c0 cebc 6c81 e13d eeb2 98bc e288 f9bb
000001d0: 6a2c 1abd 20d9 35bd b65d 37bd 3194 ab3c
000001e0: a952 20bd e943 a4bd b89b 163e 0141 afbd
000001f0: 8061 2fbd d08d 02bd 6b38 003d 83c1 ae3c
00000200: a20c bc3c 3398 b4bc d23a 0b3d 366f 3abd
00000210: 196a f93c 01ad 083c 0b1c 0c3d 4707 2b3c
00000220: 5674 bdbc f6e9 5fbc a58d f33b bdea 24be
00000230: 52a5 183d fa43 efbc 206c ba3b 48bf 87bc
00000240: 7393 0abd 0815 e3bd 3ccf 16bd db9c 4e3c
00000250: dc6b 0b3e 489a abbd ac13 e6bd 7cbb 903c
00000260: 6548 8ebc 093c 153e cc46 96bb 86d1 ba3c
00000270: ab07 b93c 5666 fabb 2a7f 29bd f168 36bd
00000280: 0e84 dd3c c54b 323a 4369 0b3d d803 69bd
00000290: e16a a2bc e759 3abb a236 113e 9368 4ebd
000002a0: 6b36 2abd 978e 90bc 05c5 44bd 57c4 e33a
000002b0: bbf3 edbb bba1 85bd a60c 9abb 5644 aabb
000002c0: c7d1 50bd 95c7 0f3d 899f 883c 3009 503d
000002d0: 6b51 a43b c2da d1bc 4227 8ebc dd6f 97bd
000002e0: d4c1 e23b bfc8 8738 ee7c af3d 1594 c7bd
000002f0: c637 093b 4ddc 023d 0d63 e83c 5005 0f3c
00000300: 44bc 59bc 77d3 11bb ecdf f43d 03f1 a33d
00000310: 7906 c83c fe93 213d bc04 a7bd 13c0 f63c
00000320: 950d 09bd 5b29 22bd a837 c9bc 508b 05bd
00000330: 646b c3bd 4e93 9bbc 95b2 023d cdd3 383d
00000340: e7a2 c43c 4d27 b9bd b717 a2bd 387e 61bd
00000350: 19ac 063d 1d3d cdbc 16a0 773c d779 a6bd
00000360: 378b febc 8264 c5bc eca0 ce3c 94d9 413c
00000370: f79a a43c bff8 1cbd 18ce 403c c554 c4bc
00000380: aabe 42bb e99a b53c c0d8 4ebc c74f c6bd
00000390: ab3d 4c3d fbb6 58bd 7960 97bc 11b7 d4bc
000003a0: da76 af3c d410 fb3d b81d 853c 172b d9bd
000003b0: ea82 233d 75d3 d13d cd8d c33b 539f 2a3d
000003c0: dc96 723c ce88 43bd 90df 0abd fc82 04bd
000003d0: 3505 d53d c79b 23bd 738e 093d 8d60 633d
000003e0: 3626 1b3d c148 63bd 3d90 1e3d ce55 16be
000003f0: a24f eabd 7914 61bd e017 a4bc eb37 b9bb

l3.weight f4 [6, 300]
0.049891684 0.046495806 -0.027027527 -0.023685593 0.016227577 0.014882397 0.04742989 9.216396e-05
-0.13326421 -0.025501044 0.04957548 -0.037127387 -0.025565617 -0.199146 -0.0544188 0.010413609
0.05665537 -0.0033280323 0.0072038886 0.063072376 0.052425943 0.030688256 -0.040585816 -0.015040239
-0.09097313 -0.022776762 -0.0763183 0.011412956 -0.04151063 0.051919695 -0.042833284 -0.06081288
-0.058593582 0.016929753 0.049481202 -0.022508644 0.04910931 0.0012545993 0.003153427 0.0118710855
-0.0060610045 -0.04420084 0.06868644 -0.01750667 0.0056636143 -0.0077865124 -0.03736316 -0.043899477
0.005181075 -0.07869726 -0.021715807 -0.030471133 -0.00853281 0.07537803 -0.017466838 -0.0027957074
0.046154514 -0.0008058712 -0.031479478 -0.034780517 -0.12106647 -0.03988519 -0.056536786 0.043181088
-0.030100694 -0.027974328 0.051698312 0.072308615 -0.03767038 -0.030628648 -0.05031626 0.0027092523
0.051166393 -0.024617719 -0.11304823 -0.056948833 -0.0091209 -0.04245271 0.016410306 0.031230044
0.054734923 -0.12125321 -0.026115326 -0.036033943 0.046970285 -0.031296887 0.0029451216 0.003989637
0.15580651 0.046729427 -0.09031789 0.013819604 0.073509544 -0.03142518 -0.03778522 0.04669128
-0.049653538 -0.045285627 -0.14006208 -0.017418435 0.01257889 0.06456141 0.0026799454 0.056108385
-0.053570114 -0.07765962 -0.04289723 0.025423273 -0.033145156 -0.05836321 -0.039520666 0.05806288
0.019991904 -0.085982524 -0.021243237 -4.3578893e-05 0.03501879 -0.024775088 -0.08352046 0.006789677
-0.05907503 -0.11309284 -0.14008318 -0.1567807 0.07770312 -0.06395238 0.049559183 0.03601411
0.00073331594 0.010957077 -0.048163317 -0.021846045 -0.04127977 0.031044759 -0.009940654 0.049005806
0.037278138 -0.01794507 -0.15895422 0.043848604 0.03296429 -0.013507538 0.05571793 0.02127241
0.08063418 -0.10571763 -0.03571508 0.057674788 0.09752301 0.03773872 0.022242984 0.056398
-0.020904567 -0.09279593 0.088047154 0.008100092 -0.04349092 -0.012664495 0.0036619962 -0.047995057
0.03875503 0.021099236 0.0019488782 -0.020373758 0.019507967 -0.037457004 -0.09123926 0.02006569
-0.011070349 0.019003168 -0.037723843 -0.04352843 0.022179142 0.09455587 0.020713985 0.042675268
-0.07953292 -0.026400534 -0.03565969 -0.035953954 -0.120569445 0.09798026 -0.1568897 0.016151026
-0.024603939 -0.017316433 0.014012423 -0.033271626 -0.025078248 -0.04481883 -0.027321486 -0.039718304
-0.0099911885 -0.030099304 0.026237337 0.041747577 0.031740744 -0.017632732 -0.016498089 -0.052500736
-0.014447156 -0.104458995 -0.12836136 0.06830087 -0.092264496 0.029734734 -0.05506496 -0.04120104
0.05249913 0.016460193 0.06642114 0.027744977 -0.01633842 0.052443687 -0.043080676 0.034143116
-0.010551351 0.0331569 -0.03302764 -0.05463862 -0.019100694 -0.010787977 0.016279148 0.04336863
-0.046657056 -0.02717425 -0.045534097 0.036689933 -0.030745545 0.031617463 -0.080371395 0.028713454
-0.045297835 -0.09835164 -0.00014164689 -0.15342578 -0.021295315 -0.08352539 -0.0030261069 -0.008352824
0.051821604 0.04253076 0.018274453 0.01763723 0.033255477 -0.008197717 0.09165035 -0.012991184
-0.0136122275 -0.028298844 0.04468621 0.06376654 -0.011003071 -0.0023569427 0.022035426 0.04715518
00000000: 395b 4c3d 6372 3e3d d568 ddbc 4a08 c2bc
00000010: b2ef 843c 4cd5 733c d845 423d 2648 c138
00000020: 6a76 08be 91e7 d0bc a90f 4b3d e312 18bd
00000030: fc6e d1bc eeec 4bbe 3fe6 5ebd d89d 2a3c
00000040: 760f 683d 1e1b 5abb 990e ec3b 172c 813d
00000050: 96bc 563d f065 fb3c 503d 26bd 566b 76bc
00000060: 1f50 babd 5596 babc c54c 9cbd 68fd 3a3c
00000070: 0d07 2abd bfa9 543d f471 2fbd ed16 79bd
00000080: d3ff 6fbd 44b0 8a3c cdac 4a3d 0c64 b8bc
00000090: d826 493d 5e71 a43a baa9 4e3b f17e 423c
000000a0: 649b c6bb f10b 35bd 7aab 8c3d 266a 8fbc
000000b0: d795 b93b 0026 ffbb 1d0a 19bd f0cf 33bd
000000c0: 02c6 a93b 072c a1bd 59e5 b1bc 999e f9bc
000000d0: 33cd 0bbc cc5f 9a3d 9d16 8fbc 3038 37bb
000000e0: 840c 3d3d 1a41 53ba a0f0 00bd 0476 0ebd
000000f0: b3f1 f7bd a75e 23bd 1e93 67bd a7de 303d
00000100: bb95 f6bc 6b2a e5bc 9cc1 533d 8a16 943d
00000110: 424c 1abd eee8 fabc 6c18 4ebd b68d 313b
00000120: da93 513d 19ab c9bc d585 e7bd 2e43 69bd
00000130: d46f 15bc e5e2 2dbd e86e 863c 26d6 ff3c
00000140: ba31 603d 9a53 f8bd cfef d5bc 5498 13bd
00000150: ea63 403d 2a31 00bd f102 413b 80bb 823b
00000160: be8b 1f3e 5b67 3f3d 96f8 b8bd 9f6b 623c
00000170: 2c8c 963d b1b7 00bd adc4 1abd 5b3f 3f3d
00000180: 8261 4bbd 6c7d 39bd 6f6c 0fbe 1bb1 8ebc
00000190: b017 4e3c c638 843d 06a2 2f3b e8d1 653d
000001a0: 566c 5bbd 020c 9fbd 01b5 2fbd 7844 d03c
000001b0: 37c3 07bd 430e 6fbd 6ce0 21bd 58d3 6d3d
000001c0: 10c6 a33c 9b17 b0bd 4c06 aebc 7bc8 36b8
000001d0: dd6f 0f3d 20f5 cabc c60c abbd f07b de3b
000001e0: a9f8 71bd 389d e7bd f771 0fbe 1f8b 20be
000001f0: d022 9f3d 77f9 82bd 92fe 4a3d 8883 133d
00000200: 003c 403a 5085 333c e646 45bd 7af6 b2bc
00000210: fa14 29bd 9451 fe3c 20de 22bc 50ba 483d
00000220: f6b0 183d 8a01 93bc e5c4 22be 989a 333d
00000230: 9005 073d b84e 5dbc 7c38 643d 7a43 ae3c
00000240: 8823 a53d 7c82 d8bd fa49 12bd 663c 6c3d
00000250: 25ba c73d eb93 1a3d eb36 b63c 9701 673d
00000260: 0e40 abbc cb0b bebd 1152 b43d 40b6 043c
00000270: 8923 32bd be7e 4fbc 1afe 6f3b 7796 44bd
00000280: 98bd 1e3d 4ed8 ac3c 8071 ff3a dee6 a6bc
00000290: 2ccf 9f3c 846c 19bd a6db babd cd60 a43c
000002a0: 6960 35bc 88ac 9b3c 5184 1abd de4a 32bd
000002b0: 08b1 b53c 82a6 c13d 60b0 a93c 43cc 2e3d
000002c0: 28e2 a2bd ef45 d8bc e50f 12bd 7444 13bd
000002d0: 1ded f6bd e0a9 c83d b2a7 20be 284f 843c
000002e0: 338e c9bc 31db 8dbc 5d94 653c d447 08bd
000002f0: e670 cdbc f393 37bd 4fd1 dfbc a9af 22bd
00000300: 15b2 23bc d192 f6bc afef d63c 82ff 2a3d
00000310: 9502 023d 8572 90bc 0027 87bc 030b 57bd
00000320: c4b3 6cbc 99ee d5bd 2971 03be 54e1 8b3d
00000330: 2bf5 bcbd 4296 f33c cc8b 61bd 6cc2 28bd
00000340: 5409 573d 87d7 863c cf07 883d 6f49 e33c
00000350: 26d8 85bc 31cf 563d 5d75 30bd a7d9 0b3d
00000360: 93df 2cbc 88cf 073d fe47 07bd bfcc 5fbd
00000370: 0f79 9cbc 0ec0 30bc d95b 853c 4ea3 313d
00000380: 781b 3fbd 889c debc f681 3abd 2f48 163d
00000390: 15de fbbc 5081 013d c299 a4bd 7a38 eb3c
000003a0: 398a 39bd 966c c9bd 0c87 14b9 a61b 1dbe
000003b0: 8373 aebc 5c0f abbd a651 46bb 48da 08bc
000003c0: e442 543d bc34 2e3d 4eb4 953c f47b 903c
000003d0: e536 083d b84f 06bc 2eb3 bb3d fad8 54bc
000003e0: d205 5fbc fad2 e7bc e308 373d 0898 823d
000003f0: 3a46 34bc f076 1abb a383 b43c ca25 413d

l3.bias f4 [6]
-0.051590268 0.11439007 0.08428263 -0.016030984 0.04091479 -0.03077277
00000000: 5150 53bd 5745 ea3d 5f9c ac3d 6953 83bc
00000010: 4496 273d 2d17 fcbc
