average data/Average_TD3_40_Peg-in-hole-triple_assembly_seed_5/_actor.pth (torch_old, 510312 bytes, 6 tensors)

l1.weight f4 [400, 12]
000000 42 3f 43 3e b4 0b 5d be 18 e6 70 3e 9c 24 3d 3e
       0.190671 -0.21586496 0.23525274 0.18470997
000010 30 5e 78 3e 54 a4 62 be fa 69 46 be d6 a8 0c 3e
       0.2425468 -0.22132999 -0.19376364 0.13736281
000020 f2 f7 89 be 28 15 92 3e 60 af 7b 3d 28 b3 18 3d
       -0.2694698 0.28531766 0.061446548 0.03728023
000030 45 bb f2 be 2a 8b dd 3e a7 6c c9 bc 1d 66 da bd
       -0.474085 0.43270236 -0.024587942 -0.10664008
000040 49 09 06 3f 82 cf de 3e e0 46 f5 be 81 4d c3 3e
       0.5235792 0.4351769 -0.47905636 0.38145068
000050 95 f8 29 3e a4 0c 3b 3e 30 d5 85 be d7 17 c8 3d
       0.16598733 0.18266541 -0.26139212 0.09770172
000060 fe d6 9e 3e 54 db ed be f4 62 88 3c fa 93 4c 3e
       0.310234 -0.46456397 0.016648747 0.19978324
000070 58 06 a8 be bd c3 84 be 59 d8 70 bd ee 8e 8e be
       -0.3281734 -0.25930586 -0.058800075 -0.27843422
000080 9d 08 cc be a6 04 8e be 47 d1 7b 3e 2f af 60 3e
       -0.3985032 -0.2773792 0.24591552 0.21941827
000090 ca 99 a5 3e 83 a5 b9 bd ee 46 e0 bc bf ac 36 3e
       0.32343894 -0.09064772 -0.027377572 0.17839335
0000a0 ca 63 ce 3d 18 88 b8 3d 88 f4 92 be fb c0 69 3e
       0.10077627 0.09010333 -0.28702188 0.22827522
0000b0 1a 27 47 3e 23 17 ab 3e 4d 00 a1 3e 9f 88 86 3c
       0.1944851 0.3341609 0.31445542 0.016422568
0000c0 eb e5 a8 3e 5c 81 31 bd 2d 07 7b 3e 86 a5 6e bd
       0.32987913 -0.043336257 0.24514456 -0.058263324
0000d0 49 98 ab bd e8 c0 e2 bd 35 a8 9c 3e 06 8a 8b 3d
       -0.083786555 -0.1107195 0.30597082 0.06813435
0000e0 c0 c2 91 3e 26 7f af be 29 d5 b9 be 2d 85 6d 3e
       0.28468895 -0.34276694 -0.3629544 0.23195334
0000f0 14 3e 64 be 39 b6 b2 3d fb 49 93 bd 81 39 3d be
       -0.22289306 0.087261625 -0.07191845 -0.18478967
000100 2e 5c ba bd 5e ad e4 3e 9c 81 28 bd 54 3b 8b 3e
       -0.09099613 0.4466352 -0.04113923 0.271937
000110 d9 e5 b2 3e db 71 39 bc 9f fb 89 3e fa 6c 11 be
       0.34940985 -0.011318649 0.26949784 -0.14201728
000120 30 40 3c bd 58 b4 5f 3e f6 44 88 3e 86 bf 81 3e
       -0.04595965 0.2184614 0.26615113 0.25341433
000130 68 02 2a 3e 62 60 89 3e d6 03 d5 bd b0 84 96 bc
       0.1660248 0.26831347 -0.10401122 -0.018373817
000140 20 36 ca bd 90 cf ad bc 30 c6 0f bd fc ee 1d 3e
       -0.09873605 -0.021217138 -0.035101116 0.15423197
000150 df 4e 8d 3e 3e c2 b4 be 65 ee 30 be c6 da f2 bc
       0.27599236 -0.35304445 -0.1727844 -0.029645335
000160 b3 4c e5 bd de 17 61 be 31 c3 a8 3d 1b 61 f1 bd
       -0.1119627 -0.21981761 0.08240355 -0.117860995
000170 e6 de 41 be 6f 2d 8b be fe 9f dd be f7 11 ac bc
       -0.18932685 -0.271831 -0.43286127 -0.02100466
000180 50 e7 d9 3d 2e db 48 be 43 43 50 3d 91 d8 31 3e
       0.106398225 -0.1961486 0.050845396 0.1736777
000190 f6 e0 25 3d 76 7a e5 be 8f 18 ba be 36 22 d2 be
       0.040497743 -0.44819993 -0.36346862 -0.41041726
0001a0 2a 33 00 3d 5b 06 2a be f4 9d 2e 3d 21 20 83 3d
       0.031298794 -0.16603987 0.042631105 0.064026125
0001b0 9a ed be bd a9 34 00 be dd 64 75 bd 99 c8 9a 3e
       -0.09322663 -0.12520088 -0.059910644 0.3023117
0001c0 fc 5b d9 be 10 63 3d be 9c 29 20 3e e0 ba 69 3e
       -0.4245299 -0.1849482 0.15640873 0.22825193
0001d0 51 6a bb be 4f 5a 46 be 29 75 5b 3e 2c 1f b5 3d
       -0.3660455 -0.19370387 0.21431412 0.08843836
0001e0 40 c4 b2 3d bf 9d 02 be 0e 28 4d 3e 0c b3 dd bd
       0.08728838 -0.12755488 0.20034811 -0.10825166
0001f0 8e 2e 1f be c0 10 86 3e e4 9c 9c 3d 00 9a 02 bb
       -0.15545103 0.26184654 0.07647112 -0.0019928217
000200 98 02 4e be 96 dc 82 bd 33 15 63 be 0d e4 46 be
       -0.20118177 -0.0638973 -0.22176056 -0.19422932
000210 9d 1a b0 bd 13 f3 18 bd e8 5c 35 be ec f1 b7 3e
       -0.08598826 -0.03734119 -0.17711222 0.3592676
000220 dd 1b 8a 3d dc 2d c4 be 56 1b d5 3e fc ec 09 be
       0.06743596 -0.38316238 0.41622418 -0.13469309
000230 28 18 72 be 2a ec bb 3d 26 8d d8 be ef af 27 bd
       -0.23642027 0.09175904 -0.42295188 -0.040939268
000240 9d 9a 9b bd a2 53 02 3f d7 39 59 bd 74 c8 84 be
       -0.075978495 0.50908864 -0.053033676 -0.25934184
000250 f7 39 6d 3e 4a d2 e2 3d 6f f7 dd be 5b f7 ca 3d
       0.23166643 0.11075266 -0.4335284 0.099104606
000260 0c bc 85 3d f8 5b cb 3e a3 6e 9c bd 81 45 bd be
       0.06530008 0.39718604 -0.0763829 -0.3696709
000270 c1 60 89 bd 93 ce 02 be f7 2e 0b bd 27 13 c2 3d
       -0.067079075 -0.12774114 -0.033980336 0.09476309
000280 8a 60 02 3e e1 10 9f 3e 1c 40 19 bd 9f 62 76 3e
       0.12732139 0.31067565 -0.037414655 0.24061058
000290 ba 50 c1 3e ae c6 30 3e 3e ed 18 3e 42 12 22 be
       0.37756902 0.1726329 0.1493425 -0.15827277
0002a0 58 da 82 3e d6 57 42 3e 72 9a 5c be 63 da 6e 3e
       0.25557208 0.18978819 -0.21543291 0.23325495
0002b0 73 73 fd bc 38 cd 1e be 0b de 13 3e ac 58 f1 be
       -0.03093884 -0.15507972 0.14440171 -0.47137964
0002c0 a4 a0 6f be f1 0f eb be 3c 9f dd be 6b 4c 5b 3d
       -0.23401123 -0.459106 -0.4328555 0.053539675
0002d0 24 b8 05 be 10 b7 a9 bd bd 4e 70 bd 5e cb a9 be
       -0.13058525 -0.082868695 -0.05866884 -0.3316297
0002e0 bf 24 16 3e ff c5 83 3e c1 c8 53 bd 8a 19 92 3e
       0.14662455 0.25736997 -0.051705126 0.2853511
0002f0 d3 88 7a 3e 6e 8e ec bd e0 11 2f 3b 68 df 3f bd
       0.24466257 -0.11550604 0.0026713535 -0.046843916
000300 44 75 47 3e 03 76 f4 3d b2 aa 1a be f3 8d ef bd
       0.19478327 0.119365714 -0.15104178 -0.116969965
000310 50 da 44 bd fa 05 7a bd 27 ca 24 3e 1c b5 ef be
       -0.04805976 -0.061040856 0.1609274 -0.46817863
000320 fe 43 6d be 15 15 87 be 0c 98 d3 be e1 00 30 3e
       -0.23170468 -0.26383272 -0.4132694 0.17187835
000330 82 d0 39 3e 00 9d 4e bb 52 14 1b 3e ce 11 4f 3e
       0.18145946 -0.0031526685 0.1514447 0.20221636
000340 36 ba 3c 3e 71 c3 8c be 74 f5 85 3e a4 53 9c 3d
       0.18430409 -0.2749286 0.26163828 0.07633141
000350 dc 85 92 be 70 1d 93 3d a8 8d 4b be f0 ce 88 3e
       -0.28617752 0.07183349 -0.19878256 0.2672038
000360 4d 74 54 bc a5 53 1c be 30 03 49 be 8c 01 83 3d
       -0.012967181 -0.15266283 -0.19630122 0.063967794
000370 9c b9 fa bd ed 4a 88 3c 8f 54 d3 be a4 cc 78 3e
       -0.122424334 0.01663729 -0.4127545 0.24296814
000380 32 60 47 bd 16 65 7c 3d 22 c4 b0 bd 75 d5 55 3d
       -0.048675723 0.06161984 -0.08631159 0.05220552
000390 57 a6 57 3e ae 39 bd 3d 21 28 39 be 5f 17 9e bd
       0.21059547 0.09239517 -0.18081714 -0.077193014
0003a0 c6 fa de bd 36 e3 17 bc 43 03 4b 3c 1d 8b 65 be
       -0.10887675 -0.00927048 0.012390914 -0.22416349
0003b0 ed 8d 80 be 3a 93 0e 3b dc bf b9 be b6 7f 8e 3e
       -0.2510828 0.0021755234 -0.3627919 0.2783181
0003c0 8f db 21 3e 54 c5 84 3e 26 26 71 bc d5 40 88 3d
       0.15806411 0.259318 -0.014718568 0.06652991
0003d0 0d 12 b4 3d bb 18 c1 3e 68 0a b8 bd 94 7a b5 3d
       0.087925054 0.3771418 -0.0898636 0.088612705
0003e0 ce ca 85 3e 96 b2 ea bd 72 a9 93 bd 51 20 61 be
       0.2613129 -0.11459844 -0.072100535 -0.21984984
0003f0 4e c8 b3 bd e0 ba 94 bc 74 fe eb 3d 08 94 6c be
       -0.087784395 -0.018155515 0.115231425 -0.23103344

l1.bias f4 [400]
000000 80 2c c4 3c bd 11 45 3e ad d2 af 3e 0a 81 4e 3e
       0.023947 0.19245048 0.3434042 0.20166412
000010 d4 53 fc 3d 2a 9a 34 3b 94 3f d8 3d b7 8e 86 3e
       0.123206764 0.002755771 0.105590016 0.26280758
000020 a8 70 fc 3c 2c 31 8b 3d ab ad 26 be 71 a7 b6 bc
       0.030815437 0.06796488 -0.16277187 -0.02229664
000030 14 a4 41 be 2f a3 7b 3d ee 6e a7 bd 74 22 86 be
       -0.18910247 0.06143492 -0.08175455 -0.2619816
000040 84 58 72 3e 4b 69 89 be c1 44 50 be 04 60 b3 3e
       0.23666579 -0.26838145 -0.20338728 0.35034192
000050 5f 4e 4f 3e aa 3e ec bd 74 2b 57 3e 42 ee 6b be
       0.2024474 -0.1153539 0.2101267 -0.23040107
000060 ca b3 7e bc bb 71 44 be ac 4e a0 3d 20 f1 92 3c
       -0.015545795 -0.1918401 0.078275055 0.017937243
000070 a3 f1 da bd 80 d4 65 3d 8a 68 be 3d 50 1e 01 3d
       -0.1069062 0.05611086 0.09297283 0.03152305
000080 93 0a 25 bd 3f 98 5b be de 5e f2 bd ad 25 bf be
       -0.040293287 -0.21444796 -0.11834501 -0.37333432
000090 44 38 7c 3e 6d 63 6a be e2 ba e7 3d 8c fb 44 be
       0.24630839 -0.2288949 0.11314942 -0.19236583
0000a0 24 78 31 3e eb f8 91 be ac 59 d2 3d ce 5e 48 3e
       0.17330986 -0.28510222 0.1027101 0.19567415
0000b0 43 16 f0 3c 4b f0 0e be f7 1f 88 3e dc e4 53 3e
       0.02930749 -0.13958852 0.26586887 0.20692772
0000c0 14 9d 3f 3c 49 f3 59 3e 01 6d f0 3c 8b fc 8a be
       0.011695165 0.21284212 0.029348852 -0.271458
0000d0 df 2d a3 3e f0 fe fe 3d 88 67 e8 bc 76 9f 8c be
       0.31870934 0.12450969 -0.02836968 -0.2746541
0000e0 98 49 4b bd da d5 d4 bd 8c b4 a5 bd 6e 34 e0 bd
       -0.04963073 -0.103923514 -0.08091077 -0.109475
0000f0 f9 76 0b be 26 a5 8c 3e 89 af 48 be ae 50 e8 bd
       -0.13619603 0.27469748 -0.19598211 -0.113435134
000100 c9 2c a2 3d e2 76 a9 3e 98 9e 26 be 58 11 12 3e
       0.07918698 0.33098513 -0.16271436 0.14264429
000110 21 f8 41 3e c0 bb 8a be d6 54 9d bd eb 42 83 3e
       0.1894231 -0.27096367 -0.07682197 0.25636992
000120 07 0b fd 3c e8 e3 61 3d ba 52 d1 bd 97 8b e2 bc
       0.030889047 0.05514899 -0.10220857 -0.027654452
000130 84 f2 b6 bd e9 22 3d bc e0 14 60 bd de a5 8e be
       -0.08932975 -0.011543968 -0.054707408 -0.27860922
000140 07 de dd 3d 85 87 af 3e 86 42 5e be 77 a4 47 3e
       0.10833364 0.3428308 -0.21705064 0.19496332
000150 df ca 32 3e c4 ae 96 be c4 ea a3 3d 1b 35 b9 be
       0.17460202 -0.2943021 0.08003762 -0.3617333
000160 f0 28 09 bd 01 5e 10 be 67 33 7c 3e 5a c0 75 bb
       -0.033486307 -0.1409836 0.24628983 -0.0037498684
000170 d5 a0 0c be 6d c0 1e be e2 20 c1 bc f0 9b 36 be
       -0.13733228 -0.15503092 -0.02357525 -0.17832923
000180 07 14 64 be 3a 63 4d 3e 16 5d 6d be 25 4a a4 be
       -0.22273265 0.20057383 -0.2318004 -0.32087818
000190 1a c8 15 be fa b0 ed 3e b8 62 64 3e e1 10 fe bd
       -0.14627114 0.46424085 0.22303283 -0.12405563
0001a0 da 2a 51 bb ea e4 1a 3d 70 86 d1 3e 0b 1c d3 bd
       -0.003191641 0.037815966 0.4092288 -0.10308083
0001b0 e6 55 b5 3d 93 6f 6a be 10 5a 96 be 46 fb bd 3c
       0.088542745 -0.22894125 -0.29365587 0.023191106
0001c0 4d a0 d8 bd 22 10 42 3e 34 85 17 bb d5 40 5c 3e
       -0.1057745 0.18951467 -0.0023120167 0.21509106
0001d0 29 2f 80 bd 09 ed 42 3e 84 dc f0 bb c4 6f 84 3e
       -0.06258995 0.19035734 -0.0073505063 0.2586652
0001e0 a3 d1 f6 bd fb 37 bf 3e 1f ed ad bd a0 7e 61 3e
       -0.12051704 0.37347397 -0.08492493 0.2202096
0001f0 1d b9 e0 bc 62 5a 17 3e a2 ac 87 3d 53 5f 50 3e
       -0.027432019 0.14780572 0.06624724 0.20348863
000200 08 f8 8d 3e 44 47 b9 bd df 4f a9 be 18 e1 3c be
       0.27728295 -0.09046796 -0.3306875 -0.18445241
000210 cb d4 d1 3c dd bb 66 3e 8e 22 48 3e fd 79 69 3d
       0.025614163 0.22532602 0.19544432 0.057001103
000220 b5 6d d5 bd c4 2f ca bd 3f 4a 05 be f2 6d ce 3e
       -0.104213156 -0.09872392 -0.13016604 0.40318257
000230 5a 23 f6 3c da ef 7b 3c 5c f6 96 be bc 01 12 bc
       0.030046154 0.015377009 -0.29484832 -0.008911546
000240 e3 ac 19 be c8 21 48 3e 2b c6 19 be a4 20 aa be
       -0.15007357 0.19544137 -0.15017001 -0.33228028
000250 33 1e 52 3d ee 8d 1f 3d 82 fb 90 3e 39 62 9d 3e
       0.05129833 0.038953714 0.28316885 0.30739
000260 60 10 f9 bd 25 d3 b3 3c ad 5f 01 be 1b 5b 26 be
       -0.121613264 0.021951267 -0.12634154 -0.16245691
000270 95 9a 8b be 40 2c 4f be fc c6 2e 3c a7 b4 6b be
       -0.27266374 -0.20231724 0.010667559 -0.23018132
000280 a0 9d 55 3c 08 61 f7 3c 3f 95 6a be d8 e8 c0 bd
       0.013038069 0.030197635 -0.22908495 -0.094194114
000290 ca 94 15 3e db c9 8e be 20 15 eb 3d 8c 83 17 be
       0.1460754 -0.27888379 0.11478639 -0.14796275
0002a0 55 29 9d 3e 1b 92 92 3e 0a cf 08 3e 58 09 3f bd
       0.30695596 0.28627095 0.13360229 -0.04663977
0002b0 84 ae 1b be 8a f2 2b bd a4 01 2f 3e 91 5b ca 3c
       -0.15203291 -0.04197935 0.1709047 0.024701865
0002c0 39 6f de 3d 6c cd e9 bd bd c5 0b be d8 05 8f 3e
       0.10861058 -0.11416134 -0.1364965 0.27934146
0002d0 76 71 83 3e 60 ba 78 3e 46 25 82 be 86 f3 a6 3d
       0.256725 0.24289846 -0.25419062 0.08151917
0002e0 13 53 ab bd 58 5c 88 3e d0 9b 88 3d f3 1d 83 3e
       -0.083654545 0.26632953 0.06670344 0.25608787
0002f0 5c 45 54 bc 98 1d 31 3e 02 2a ba be 5d fa ed 3b
       -0.01295599 0.17296445 -0.36360174 0.0072625116
000300 cf ed 0e bc 4c 94 0f 3e 0b fd 2f 3e 9d 3e 71 be
       -0.00872369 0.14021415 0.17186372 -0.23559041
000310 d3 74 d6 3d 54 f1 dc bd f5 12 41 be 87 34 25 3e
       0.10471501 -0.10788217 -0.18854888 0.16133319
000320 b5 e1 74 bd bc fc 31 3e 90 a5 d0 bd e6 64 d5 3d
       -0.059785563 0.17381567 -0.101878285 0.104196355
000330 40 8c 84 be 2c 10 3b be 0a 97 8a be 45 79 a7 3e
       -0.25888252 -0.18267888 -0.2706836 0.3270971
000340 8f ff 50 3d f0 83 19 be a7 6c 8e 3e ba a3 ed 3d
       0.05102497 -0.14991736 0.2781727 0.11603494
000350 fd bf 3a be 83 9f 60 3e b2 ef 1c 3e 7e fe e4 be
       -0.182373 0.21935849 0.15325812 -0.44725412
000360 ce 13 90 bd 0a 76 c6 bd f2 5b 63 be 7c 71 3d 3e
       -0.070350274 -0.09690483 -0.22203043 0.18500322
000370 90 08 fd 3c 4d 51 0e 3e eb 37 25 3e 3c 7d 98 bb
       0.030887872 0.13898201 0.16134612 -0.004653601
000380 9b d1 16 3e d3 8b a5 bd 34 6b 9d bd 9e 42 36 bd
       0.14728396 -0.0808331 -0.07686463 -0.044497125
000390 f7 cd 88 be f1 20 be bd ed ca 14 be f7 9d b2 be
       -0.2671964 -0.09283627 -0.14530535 -0.34886143
0003a0 58 36 49 3d e2 7f 34 3e 53 5e c2 3e 1f dc 28 3e
       0.049124092 0.17626908 0.3796259 0.1649022
0003b0 3c 16 2b 3e 68 27 0e be 8b c6 6f 3e 13 e2 0e be
       0.167077 -0.1388222 0.23415582 -0.13953428
0003c0 44 29 b2 be 76 93 c5 3e 7c df 6a 3e 18 ef d1 3d
       -0.34797108 0.38589066 0.22936815 0.10250682
0003d0 4f 36 86 be ac d3 ba bd 5f 10 57 bd ea 58 89 3e
       -0.2621331 -0.091224045 -0.052505847 0.2682565
0003e0 77 80 b9 bd a0 e1 72 3c c7 12 4d be 83 a6 f3 3d
       -0.09057706 0.014824301 -0.20026694 0.11896994
0003f0 ae 5d 85 be c0 0e 91 3e bb 99 5a be f8 48 8e bd
       -0.26048034 0.28331566 -0.21347706 -0.069475114

l2.weight f4 [300, 400]
000000 b3 88 f7 bc 6a f9 82 bd 76 f6 ef bc 9b f0 8a bd
       -0.03021655 -0.06395228 -0.029292326 -0.06784173
000010 52 5c 23 be fd 5c 38 bc d4 d1 4a bc 85 fb 0b bc
       -0.15953186 -0.011252639 -0.0123791285 -0.008543854
000020 96 46 21 3e 97 b2 d8 bc 90 0e a7 bb ab dc 3b 3d
       0.15749583 -0.026452346 -0.0050981715 0.045864742
000030 91 8f b1 bb 59 61 a1 bd 99 0f 35 3d 47 f4 13 ba
       -0.005418726 -0.07879896 0.04420433 -0.0005644005
000040 8f d0 6b 3d b6 d2 29 bd ad 32 20 bd f6 00 3c 3d
       0.057571944 -0.041460715 -0.03911083 0.045899354
000050 ac 11 b2 3c f9 9d 42 3d a3 b1 8a 3d 4c 1a 0b 3d
       0.021736942 0.047513936 0.06772163 0.033960626
000060 05 f3 fd 3c 76 70 8d bd 15 9c 11 3d 20 59 5b bc
       0.03099967 -0.06906216 0.035549242 -0.013387948
000070 29 b0 35 3e b6 9a e2 3c 6a 24 43 bd f3 c4 3f bd
       0.17742981 0.027661663 -0.04764215 -0.046818685
000080 7b 1a 9f 3d 1f f3 fc bc 50 3e 32 bd d7 6f 77 3c
       0.077687226 -0.030877648 -0.043516457 0.015102348
000090 e9 7f b5 3d a6 8a 0c be cd 70 90 3b 92 36 cb ba
       0.088622876 -0.13724765 0.004407978 -0.0015503934
0000a0 37 00 34 3d 18 4e d0 3c 92 f2 e5 bc b2 e5 6d bc
       0.043945517 0.025427863 -0.028069768 -0.014520096
0000b0 02 12 5c 3d 81 46 ae bc 13 1f f4 bc 66 69 46 be
       0.05372811 -0.021273853 -0.029799974 -0.19376144
0000c0 2c 51 3b 3d 44 0a 9b 3d cb ef 52 bd ab 57 30 bc
       0.04573171 0.075703174 -0.051498216 -0.010763089
0000d0 fe 06 21 be 40 2e cb 3b 22 3b a6 bc 2f a7 5c bd
       -0.15725324 0.006200582 -0.020291869 -0.053870376
0000e0 50 68 61 bb 06 a6 f3 bc d8 f3 97 3c d8 15 ed bb
       -0.003439445 -0.029742252 0.018548891 -0.00723527
0000f0 fa c3 00 3d fe fd e6 3c 1f 7f d9 3c 70 7c 4a bd
       0.031436898 0.028197285 0.026549874 -0.04943508
000100 48 1d 29 3d e7 e6 09 3e 69 cb 05 3d d8 7d 68 bc
       0.04128769 0.13466989 0.03266469 -0.01419016
000110 47 f6 2c bd 14 aa 17 bc c2 3f d0 3c d8 c3 25 3c
       -0.042227056 -0.009256858 0.025421027 0.010117494
000120 e2 e0 7a bb 23 12 d9 bc 68 5d 28 bc b0 25 bf bc
       -0.0038281013 -0.026497906 -0.010276176 -0.0233334
000130 68 8a e7 3c c2 77 01 bd f1 e9 cd 3b bc 11 13 bd
       0.02826424 -0.03160835 0.0062839915 -0.035905585
000140 12 6a 30 3d 7b d9 7a 3d af b2 11 3d 11 95 19 3d
       0.043069907 0.06124256 0.035570797 0.037495676
000150 10 85 7e 3d 1f 29 d6 3b 84 e2 87 3d f3 63 8b bc
       0.062138617 0.0065356637 0.06635001 -0.017015433
000160 5c 92 82 bc b0 5c 2d 3d 69 e2 8e be df aa ec bc
       -0.01593893 0.04232472 -0.27907112 -0.028890071
000170 cb 02 12 3d 0c 5b 24 bd ac f3 f6 3c 1b 95 00 3c
       0.035647195 -0.04012589 0.030145489 0.0078480495
000180 5f eb 00 3d 54 f2 97 bc c1 96 a4 3c 2c 50 5f bd
       0.031474467 -0.018548168 0.020091416 -0.054519817
000190 19 84 26 3d d9 37 5a 3e b0 ec fc 3b 98 ca 0b 3e
       0.040653322 0.21310367 0.007718645 0.13651502
0001a0 e5 57 d6 3c 8a 5c 0c 3d 86 fb c8 3c da bb 41 3c
       0.026164958 0.03426794 0.024533998 0.011824572
0001b0 db 42 65 3c 8a c5 49 bb e9 04 4c bc a7 37 79 3d
       0.01399299 -0.0030787908 -0.012452343 0.06084409
0001c0 16 84 0a bd e5 de 6d bd c0 4a 31 3d c5 c9 47 bd
       -0.033817373 -0.058073897 0.043284178 -0.048776407
0001d0 42 f2 2c bc c0 e6 b2 bd dc b2 fa bc 13 03 9d 3d
       -0.010555806 -0.08735418 -0.030602865 0.07666602
0001e0 b0 0f c4 bc ab 2a 60 bd 29 88 4b bd 0b 3f 38 bd
       -0.023933262 -0.05472819 -0.0496904 -0.044981997
0001f0 f4 d9 13 bc 71 56 15 3d 5f a9 b1 be 30 88 44 bb
       -0.009024132 0.03645939 -0.34699532 -0.00299884
000200 b4 98 04 3c d2 66 0c bd bf b6 be 3c c3 92 5c bd
       0.008093048 -0.034277745 0.0232805 -0.0538509
000210 1e 23 48 bd cb e7 ca 3c ae 47 6d bd 8b 96 e3 bd
       -0.048861615 0.02476873 -0.057929687 -0.11112698
000220 98 00 91 3c ca 00 95 bc 57 bd d7 bd 14 25 99 3d
       0.017700478 -0.018188853 -0.105341606 0.07477775
000230 d8 39 ec 3b c1 cc 3d 3e 4b cd 26 bc 46 f4 c6 3d
       0.007209044 0.18535139 -0.010180782 0.0971456
000240 ba 01 1b bc ed 88 8f bd 00 99 ed bc f6 69 09 3d
       -0.009460861 -0.070085384 -0.02900362 0.033548318
000250 89 0d 10 bd 10 20 03 bc da 2f 3c be 54 97 28 3e
       -0.035169158 -0.00800325 -0.18377629 0.16463977
000260 c3 ee 4b bd 4a 37 f4 bd a5 55 59 bc 02 50 f1 3c
       -0.049788248 -0.11924608 -0.013265048 0.029457096
000270 23 77 f6 bc b4 04 cd 3c dc ce 06 3d 5a c0 f6 bc
       -0.030086106 0.025026657 0.03291212 -0.030121017
000280 b0 82 d6 bc e9 ef e3 bc 5a bf eb 3c e9 06 4c 3d
       -0.026185364 -0.027824359 0.028777767 0.049811278
000290 e0 05 b5 3d 3b 7a 83 3d 6a fb 04 bd b2 4d b6 3c
       0.08839011 0.06419798 -0.03246633 0.022253845
0002a0 29 ac 0e be c6 de c8 3c 38 d3 1a bd 09 a9 21 be
       -0.13932861 0.02452029 -0.03779909 -0.15787138
0002b0 b7 3d 14 3d 7a 1e 4d 3d d4 d5 57 bd 58 46 19 3e
       0.03619167 0.050077893 -0.052694157 0.1496824
0002c0 3c c1 87 3d fd 5c 55 bd 13 b5 99 3d 9e c8 50 bd
       0.066286534 -0.052090634 0.0750524 -0.050972573
0002d0 f6 95 97 bc 26 a1 fa 3c a3 45 74 3c 4c c8 aa 3c
       -0.018504124 0.03059442 0.014909181 0.020847462
0002e0 b8 78 d3 bc 21 7d 5c bd 39 52 21 3d 21 d1 0e 3d
       -0.0258144 -0.05383027 0.039385054 0.03486741
0002f0 87 e0 27 3e ca 07 a4 bc d5 70 86 3b 09 16 df 3d
       0.16394244 -0.020023245 0.004102806 0.10892875
000300 71 5b d7 bc 82 36 38 bd fa 42 5c 3b 16 59 20 3d
       -0.02628872 -0.044973858 0.0033609257 0.03914746
000310 72 d0 11 bd 4b 21 23 3d e2 19 3e 3e 39 7e 1b 3d
       -0.03559918 0.039826673 0.18564561 0.037962172
000320 9e f9 21 bd 32 7c 4c bd 36 36 90 3c c3 d7 cf bb
       -0.039544694 -0.04992313 0.017603975 -0.0063428595
000330 6e cd 15 3c 4f 5b 0c bb 39 63 e5 ba b0 e9 fa bd
       0.009143217 -0.002141673 -0.0017500884 -0.122516036
000340 f8 7c f7 3c b8 c6 70 bd b3 14 1e 3d a7 03 eb 3c
       0.030210957 -0.058783263 0.03859396 0.028688265
000350 35 9d 91 3c ed 9b cf 3d 2d 99 cd bc 34 70 f7 bc
       0.017775157 0.10137162 -0.025097454 -0.03020487
000360 88 f6 2b bd 72 de 6e b9 8c cd 5b bd e0 d8 99 bc
       -0.041983157 -0.00022780316 -0.05366282 -0.018780172
000370 d4 4a 72 bc 73 ce 02 bd 18 38 07 3d 08 be 25 bc
       -0.014788348 -0.031935167 0.03301248 -0.010116108
000380 5d a0 81 bd 6b 38 89 3d c9 4b 2b 3c 6f b7 7b bc
       -0.06329415 0.06700214 0.01045508 -0.015363558
000390 dd 89 a6 bc 52 e5 a5 3d 22 88 0a bd 5b ac 15 bd
       -0.02032941 0.0810038 -0.033821233 -0.036541324
0003a0 d7 d0 15 bc 38 59 3e 3c fc 41 9d bc 51 d7 8d 3d
       -0.00914403 0.011617951 -0.019196503 0.06925834
0003b0 43 27 13 3d b9 ef a0 3d 58 bb 57 bc 06 19 c3 bc
       0.035926115 0.078582235 -0.013167225 -0.023815643
0003c0 04 6b f6 bd 4f ad 27 3e 3b 14 23 bd 67 f7 07 3d
       -0.1203213 0.16374706 -0.039814215 0.033194926
0003d0 0c cf 14 bc c8 ee b3 bc 55 23 2b bd dd 9f 16 be
       -0.009082567 -0.021964446 -0.041781742 -0.1470942
0003e0 f9 e4 88 bc 51 02 45 3d 1a 26 f5 bb e1 5d 0e be
       -0.016710745 0.048097912 -0.0074813487 -0.13903
0003f0 73 ac 21 3d 1b 29 92 be 26 6e b1 3c 21 72 25 bd
       0.0394711 -0.28546986 0.021658968 -0.040392045

l2.bias f4 [300]
000000 6e 5d f6 3c 97 18 1e 3d db 47 01 bc d1 48 cf bc
       0.030073848 0.03859767 -0.007890667 -0.025303276
000010 f3 73 18 3d f3 0b c1 bd b1 26 53 bd ee 9c 1e bc
       0.037219953 -0.09426107 -0.05155057 -0.00968097
000020 e8 87 97 3a ef 44 d8 3c b8 1a 76 3c 97 86 2e 3d
       0.0011560889 0.026400058 0.015021019 0.042608824
000030 b3 89 51 bc 83 08 3d 3d 4a 4c e7 3c 4d ba 7f 3b
       -0.012789178 0.046150696 0.02823462 0.0039020956
000040 e2 f6 9a bc d9 94 b9 3c 7a 18 14 3d b7 79 52 3d
       -0.018916551 0.022653984 0.036156155 0.051385608
000050 e8 b8 c8 3d 40 71 aa bc 4a c8 8b bd 7b 7b f7 bc
       0.09800893 -0.020805955 -0.068253115 -0.030210247
000060 d9 7b b5 3d 99 b4 96 bc 5b e4 10 bd 92 f5 02 3c
       0.08861513 -0.018396663 -0.035374027 0.007993119
000070 e0 2d 97 bd cd e5 ad bd 35 64 0f bd b9 ae f0 bc
       -0.07381797 -0.08491097 -0.035007674 -0.02938019
000080 d0 43 08 bc 06 8b b9 bc ed ba 09 3d 27 c6 23 3d
       -0.008316949 -0.0226493 0.033625532 0.039983895
000090 e1 1e 4b 3d 70 ab 14 bd af 2f 08 bd 92 24 05 3d
       0.049589995 -0.036296308 -0.0332486 0.03250558
0000a0 b8 0d 15 bc da 6c 37 bd 7d a8 98 3d 08 ea 3c 3c
       -0.009097509 -0.044781543 0.074540116 0.011530407
0000b0 f3 6e 9a bd 86 26 a1 3c 3d cb 7f 3c 24 1c 5c bd
       -0.07540693 0.01967169 0.015612421 -0.053737774
0000c0 e3 a5 4c bd f6 1c f8 3c ec 7b d9 bc 75 d6 3e bc
       -0.04996289 0.030287247 -0.026548348 -0.01164781
0000d0 8d 63 5b bd 46 39 82 bc 56 38 bc 3c 1a c9 b8 bc
       -0.053561736 -0.01589645 0.022976082 -0.02255683
0000e0 d7 1b 0c bd 2e 8d dc 3b 10 9f 2f 3c c5 72 17 3d
       -0.034206238 0.006730697 0.010719076 0.036974687
0000f0 c0 08 ce bc f9 40 db bc f5 87 23 3d 6c c3 1a bd
       -0.025150657 -0.02676438 0.03992458 -0.037784025
000100 a1 30 11 3d 8d d5 c2 bc 40 0e ed 3a c7 26 34 3c
       0.035446767 -0.02378347 0.0018085912 0.010995573
000110 05 12 51 bd a0 5b 6c bc 12 3c 30 bd bb 96 38 3b
       -0.051042575 -0.014426142 -0.043026038 0.0028166014
000120 dc f0 c7 3c 50 b3 56 bd 30 9f 1e bd 15 a2 27 3c
       0.024406843 -0.0524171 -0.03872603 0.010231514
000130 42 fa 32 3c ba 25 24 3d 3d d4 02 bd 6f 87 fb 3b
       0.010923924 0.04007504 -0.031940687 0.007676057
000140 30 6e f2 3b 80 cb 7a bc b6 2a a2 3c 99 4d 3c bc
       0.0073983893 -0.015307307 0.019795757 -0.01149311
000150 81 64 06 bd 46 74 11 bd 29 23 88 3d 4b 90 26 3d
       -0.03281069 -0.035511278 0.06647331 0.040664952
000160 d4 df 80 bc 10 e6 89 3c 3b a4 31 3d ed 23 76 bd
       -0.01573173 0.016833335 0.043369513 -0.060092855
000170 42 f7 67 3c 82 08 ce bc 48 1c f7 3c ba 8a 6f 3d
       0.014158072 -0.025150541 0.030164853 0.05848191
000180 f7 b4 97 3c 17 d3 44 3d 51 b5 21 3b 4c 9a 2a bd
       0.018518908 0.048052873 0.0024674723 -0.041651055
000190 91 67 13 3d 02 9f 29 bd b0 2a 8c bc 64 6e 06 bd
       0.03598744 -0.041411407 -0.017110199 -0.03282012
0001a0 50 3c 33 bd dc 80 54 3c 09 c5 c6 3c 26 06 35 3d
       -0.04375869 0.012970176 0.024263876 0.044195317
0001b0 76 c5 ad bc c7 35 1c 3d 44 65 11 3d a0 dc 53 bb
       -0.02121232 0.038137224 0.035496965 -0.0032327548
0001c0 48 a7 96 bc 32 1f 67 bb 22 3f bf 3c 3b 66 be bb
       -0.018390313 -0.0035266397 0.023345534 -0.0058105267
0001d0 2c d1 ab bd 6f 3f a8 3b c9 04 da 3b be 92 ab 3c
       -0.08389506 0.005134515 0.0066534025 0.020943996
0001e0 3e 51 20 bd fe 11 23 bd aa 80 16 3e 16 a6 fe 3c
       -0.03913998 -0.03981208 0.14697519 0.031085055
0001f0 6b 25 f2 bb f3 f8 99 bd 48 7b be 3c 5a a3 3c 3c
       -0.0073897145 -0.075181864 0.023252144 0.011513555
000200 a2 0c bc 3c 34 66 1f bd 26 6b 08 3d 05 a8 3a bd
       0.022955243 -0.038915828 0.03330531 -0.045570392
000210 3c 32 fd 3c 61 d0 04 3c de b9 fd 3c a2 32 2a 3c
       0.030907743 0.008106322 0.030972417 0.010388048
000220 1b 25 05 3d 32 cd 7e 3c ac 1d 94 3d 58 1c 13 bd
       0.03250609 0.015551852 0.07232222 -0.035915703
000230 6d 5d 29 3d 4f d6 ed bc 96 c4 dd 3d c4 ed 9c bd
       0.041348863 -0.029032854 0.108285114 -0.07662538
000240 98 af b9 3d 67 48 9b 3d cb 8e 48 bc 6e 67 0a 3c
       0.09066695 0.07582169 -0.012241076 0.008447511
000250 aa 0c 25 3b a0 75 5d bd b5 b3 9b bc 94 8f 87 3c
       0.002518455 -0.054067254 -0.01900659 0.016547956
000260 60 aa 11 bd 20 58 4e bd 98 9d 8a 3c 86 d1 ba 3c
       -0.035562873 -0.05037701 0.01692085 0.022804987
000270 4f 83 f6 3c d9 eb fb bb f6 25 f1 bc 08 ac 41 3b
       0.03009191 -0.0076880273 -0.029437046 0.0029552002
000280 fb 7d d6 3c 8d 21 05 ba 61 1f b5 bc a5 3a 5e bc
       0.026183119 -0.0005078547 -0.02210969 -0.013563787
000290 e4 1b a2 bc 4d 9e 2b bc 0f 19 d3 3c 51 a6 f2 bc
       -0.01978869 -0.010474754 0.025768785 -0.029620321
0002a0 01 6a 4e 3c 29 b5 ae bb 5c 2d 8b bd 60 c7 eb 3a
       0.0125985155 -0.0053316546 -0.06795761 0.0017988496
0002b0 19 f3 ed bb c1 fc 0a 3c 07 3e ad 3a 1e 2d 2e 3d
       -0.0072616455 0.008483113 0.0013217338 0.042523496
0002c0 a3 f2 87 bd e4 3e 0e 3d 8a 93 b7 bc a3 45 97 bb
       -0.06638076 0.034727946 -0.02240922 -0.0046164556
0002d0 d7 c4 d9 3c 69 1d 17 3e 01 26 b8 3d 85 b6 4f bd
       0.026583118 0.14757313 0.08991624 -0.050711174
0002e0 56 6f 09 3c 15 55 c2 bc e3 15 b8 3c 16 da b8 bc
       0.008388361 -0.02372221 0.022471374 -0.022564929
0002f0 da 08 17 bb 4d dc 02 3d c8 24 c1 3c eb ba e1 3b
       -0.0023046047 0.031948376 0.023577109 0.0068887374
000300 47 04 4f bc ca 47 68 3a 36 65 57 3c 67 8b 6a bc
       -0.012635297 0.0008860795 0.013146689 -0.014315463
000310 ce 3a 9e 3d fd 93 21 3d 8b 49 08 bd 07 d9 e2 3b
       0.0772606 0.039447773 -0.03327326 0.0069228443
000320 95 0d 09 bd 60 9c 1e bd 52 b0 e1 3b 3c 98 c7 bc
       -0.03346022 -0.03872335 0.006887474 -0.024364583
000330 06 91 7f bd 1d d2 6a bc 5d 49 12 3e a7 f9 37 3d
       -0.062394165 -0.0143323215 0.14285798 0.04491582
000340 4b bd 92 3d 36 b7 d1 bc b6 31 72 3b c2 cc 61 bd
       0.07165011 -0.025600057 0.00369559 -0.055126913
000350 73 81 ea 3d 2c cd 7a bb d2 e6 9a 3c 55 de 91 bc
       0.11450472 -0.0038269265 0.018908892 -0.017806211
000360 7e 5b 0b bd 89 36 06 bd 73 60 03 3d 40 51 85 3c
       -0.0340228 -0.032766853 0.032074403 0.016274095
000370 57 ea d5 3c a5 90 40 3d dd cd 40 3c e1 98 6b 3d
       0.026112719 0.047012944 0.011767832 0.057518844
000380 c2 a6 96 bc e6 12 a0 3c c4 c7 3d bc 2e f7 8a bd
       -0.018390063 0.019540261 -0.011583272 -0.06785427
000390 ee b3 bc 3c 07 19 5b bd 62 99 b8 3d 50 64 4a 3c
       0.023035016 -0.053490665 0.090136304 0.012353018
0003a0 da 76 af 3c 44 da df 3c 5f f6 75 3c 60 f5 49 bd
       0.021418978 0.027325757 0.015012353 -0.049306273
0003b0 7a eb 56 bd 4f fc 2d bc c8 2b f4 3b df e9 29 3d
       -0.05247066 -0.010619237 0.007451508 0.041482802
0003c0 7e de 6b 3c 17 1b 46 bd 76 a8 0b bd 5c 74 ea bc
       0.014396308 -0.04836568 -0.034096204 -0.028619938
0003d0 10 36 26 bd c6 07 9b bc 63 f2 c7 3a 37 e6 91 3b
       -0.0405789 -0.018924605 0.0015254732 0.0044524926
0003e0 66 0f 1c 3d d9 e8 83 bd d9 2c ba 3c 8a 67 9b bd
       0.038100623 -0.064408965 0.022726463 -0.07588108
0003f0 12 ae 26 3d 80 e1 12 bd c3 92 86 bc e8 1b 6f bc
       0.04069335 -0.035859585 -0.016427403 -0.014594056

l3.weight f4 [6, 300]
000000 86 ee 02 3e 5a 72 3e 3d df fa 8b bd 50 08 c2 bc
       0.12786302 0.046495773 -0.06834959 -0.023685604
000010 b2 9c 83 3c cb 71 fc 3b 0c 52 45 3d 3d 0b 27 3d
       0.01606593 0.007703995 0.04817395 0.040782202
000020 b5 f4 93 bc 29 e8 d0 bc 85 bc cf 3a 5b d8 11 be
       -0.018061021 -0.025501328 0.001584903 -0.1424269
000030 fc 6e d1 bc e2 22 f3 bc 3f e6 5e bd 28 48 01 3c
       -0.025565617 -0.02967972 -0.0544188 0.007890739
000040 d6 98 db 3d a4 71 06 bb 41 f6 ff 3b 9a 75 2a 3e
       0.107225105 -0.0020514512 0.007811338 0.16646424
000050 6e 50 5a 3e e3 65 fb 3c 2d 62 0b bd df fb 39 bd
       0.21319744 0.030688232 -0.034029175 -0.04540622
000060 87 4c 9d 3c 3b 82 42 bd ce b7 0a bd a0 33 b7 3c
       0.01920153 -0.04748748 -0.033866696 0.022363484
000070 99 0c 45 bd 4a 9f 98 ba 0d cf 2a bd 1e 50 63 bc
       -0.048107717 -0.0011644152 -0.041701365 -0.013874082
000080 30 a9 07 3c 44 b0 8a 3c fd 1d 69 bc 3d 64 b8 bc
       0.008280084 0.016929753 -0.014228341 -0.022508735
000090 ba 7c 3e 3e 28 36 57 3a 07 bd a0 bc 1a 82 c9 bb
       0.18602267 0.0008209669 -0.019621385 -0.0061495425
0000a0 31 c0 5e 3d 68 4b 0d bd a6 d3 01 3e 26 6a 8f bc
       0.054382507 -0.03449574 0.12678394 -0.01750667
0000b0 d6 95 a7 3d 00 26 ff bb 4f 94 69 bd e7 ad a4 bd
       0.08182876 -0.0077865124 -0.057026204 -0.08040982
0000c0 6c 75 08 3d a1 8c fe bc b6 0d 1f 3d 00 3c 61 bd
       0.033315107 -0.031072916 0.038831435 -0.05498886
0000d0 d4 0d 07 bc e4 60 12 3d 51 44 b5 bc 85 51 a8 3c
       -0.008243043 0.035736933 -0.022127302 0.020546684
0000e0 c1 2b f3 3b 94 95 ca 3c 12 2d 15 bc 04 76 0e bd
       0.0074209874 0.024729528 -0.009104984 -0.034780517
0000f0 96 c2 4e bd 7a eb fb bd 0d 33 65 bd b8 ad d8 3c
       -0.05047854 -0.12300773 -0.05595689 0.026450023
000100 bb 95 f6 bc a4 8c 71 bd 9c c1 53 3d 0e 6e 3f 3d
       -0.030100694 -0.058972016 0.051698312 0.046735816
000110 34 a8 a0 bd 45 7a 81 3c ac 5d 79 bd 64 d9 02 be
       -0.07844582 0.015805373 -0.060880348 -0.1277824
000120 81 b4 15 3d b0 58 ca bc 8f ba 8e bd 2e 43 69 bd
       0.036549095 -0.024700493 -0.06969177 -0.056948833
000130 67 b6 30 bd d4 c2 d7 3c f0 4b 8b 3c ee d5 ff 3c
       -0.043142702 0.026338018 0.017003983 0.03122994
000140 16 14 4e 3d ef 6d 41 bd d8 f5 d5 bc 30 8b 59 bb
       0.050312124 -0.04722398 -0.026118204 -0.0033194534
000150 ff 10 34 3d 2e 31 00 bd de 61 d8 3d 80 bb 82 3b
       0.04396152 -0.0312969 0.10565542 0.003989637
000160 50 f6 9d 3b 9f ce d6 3d b2 f9 13 3d 86 93 55 bd
       0.0048206225 0.104886286 0.0361268 -0.052142642
000170 2b 73 84 3c 29 cc c3 3b 28 79 15 bd fc 19 b9 3d
       0.016168198 0.0059752655 -0.036492497 0.09038159
000180 0f c0 e1 bc c1 0b 31 bc e7 cf 8c bc 33 0c 8a bc
       -0.027557401 -0.010806025 -0.01718898 -0.01685152
000190 39 33 52 bb cb c3 e0 3c ec 60 ae 3d ea ce 65 3d
       -0.0032073988 0.027437111 0.0851458 0.05610553
0001a0 e4 8d 5b bd 05 de d5 3c 7a 09 83 bd 78 44 d0 3c
       -0.053602114 0.026106844 -0.06398292 0.025423273
0001b0 c2 cc 01 3d 89 ad 6c bd 7a 40 5c bd c4 54 0c bb
       0.031689413 -0.057782684 -0.053772427 -0.002141283
0001c0 95 e9 a2 3c c1 5b 7d 3c 32 08 9b bc 71 f6 00 3a
       0.019886771 0.01546377 -0.018924806 0.0004919535
0001d0 30 7b ea 3c d1 12 3c be da 30 13 bd ad 7a de 3b
       0.028623194 -0.18366553 -0.03593526 0.0067895264
0001e0 b2 f8 71 bd 08 a3 fa bc 23 e2 b9 3d 62 94 81 3c
       -0.059075065 -0.030595317 0.09076335 0.015817825
0001f0 40 ed 17 3d a1 9d 80 bd 92 fe 4a 3d 64 47 a5 3c
       0.037091494 -0.06280065 0.049559183 0.020175643
000200 00 3c 40 3a 50 85 33 3c 33 53 a6 3c 31 a6 af bc
       0.00073331594 0.010957077 0.020303344 -0.02144155
000210 27 1c 27 bd 94 51 fe 3c 58 0d 23 bc be 6b 45 3d
       -0.040798333 0.031044759 -0.009951912 0.048198454
000220 01 d5 8d 3d d3 c1 8f bb 7e f8 80 3d 51 b6 28 3d
       0.06925393 -0.0043871193 0.06297396 0.041189495
000230 ab a9 03 3d 10 3a 61 bc af 01 da 3d df 15 0e 3e
       0.03214423 -0.013746753 0.10644852 0.1387553
000240 a6 32 d8 3d 82 7c 9a bc 06 49 34 bd 66 3c 6c 3d
       0.105565354 -0.018858198 -0.044014953 0.057674788
000250 d0 d3 37 3d 99 4b a0 3c ff f6 0a bd 0a 10 67 3d
       0.044879735 0.019567298 -0.03392696 0.05641178
000260 9a c4 c2 bc 1d 73 03 3b fc c5 7a 3d 40 b6 04 3c
       -0.023775388 0.0020057627 0.06122397 0.008100092
000270 45 6a c6 3c 7f 80 4f bc 90 ba 39 bc e8 d5 34 bd
       0.024220595 -0.012664913 -0.011335984 -0.04414931
000280 75 c3 21 3d fb 05 b7 3c 0c fd 35 3d 42 f1 6d 39
       0.039493043 0.022341719 0.044430777 0.00022691957
000290 03 2f a8 3c ee cb 3f bd a6 18 f7 bc d1 44 68 3d
       0.02053023 -0.046825342 -0.03016312 0.056706253
0002a0 d4 93 79 bb a3 2a e3 bb 1f 86 1a bd 63 7a 32 bd
       -0.0038082497 -0.006932573 -0.037725564 -0.04357375
0002b0 02 b1 b5 3c 85 82 e1 3d 02 e0 b2 3c 3b 90 b6 3d
       0.02217913 0.11011223 0.02183533 0.089142285
0002c0 34 3b ce 3c d8 23 d5 bc 26 19 ec bc d4 8c 66 bd
       0.025174715 -0.026018068 -0.028820585 -0.056286648
0002d0 fb 7d c7 3d bd 34 ab 3d d7 fa a2 3d f8 28 87 bc
       0.09740826 0.083596684 0.07958 -0.016499028
0002e0 6e 84 07 3d 76 47 09 bd c6 50 f0 3b ea b7 0e 3c
       0.03308528 -0.033515416 0.0073338477 0.008710841
0002f0 d7 a9 ca bc f3 93 37 bd 04 c7 81 bc a8 af 22 bd
       -0.02473919 -0.04481883 -0.015841968 -0.0397183
000300 ae e8 1c bc 55 2a f2 bc 1e fe fc 3c a1 46 a5 3b
       -0.00957696 -0.029561201 0.030882891 0.00504382
000310 bb 6a 1e 3e 8f 72 90 bc 86 2d 02 bd 23 69 31 bd
       0.15470402 -0.01763275 -0.031781696 -0.043313157
000320 c4 b3 6c bc f0 56 12 3d 62 13 51 3d fc cf 82 3c
       -0.014447156 0.03572744 0.051043876 0.015968315
000330 01 f8 1d 3c a3 bc f2 3c 5a e8 85 3d 6c c2 28 bd
       0.009641648 0.029630965 0.06538458 -0.04120104
000340 b5 3a 77 3e d5 bb cd 3b b9 2a b1 3d 90 dc e1 3c
       0.24143489 0.006278495 0.08650727 0.027570993
000350 8f fe 54 3d 84 e2 46 3e 5d 75 30 bd af 63 02 3c
       0.05200058 0.19422346 -0.043080676 0.007958337
000360 68 4b 9e bc 88 cf 07 3d 89 91 fe 3c 33 cf 5f bd
       -0.019323066 0.0331569 0.031075256 -0.05464096
000370 c3 72 ed bc 30 4d 6e 3e c8 5b 85 3c a5 07 59 3d
       -0.028985387 0.23271632 0.016279116 0.052985806
000380 78 1b 3f bd 92 3a c6 bc 0f 8e 38 bd ce f1 34 3b
       -0.046657056 -0.02419785 -0.045057353 0.0027609947
000390 0e fa 3c bd 34 5b 01 3d 9a b7 81 3c 8d d3 a5 3d
       -0.04613691 0.03158112 0.015834618 0.08096991
0003a0 39 8a 39 bd c6 b0 3e bd 18 1c 33 b9 fe 68 2e bd
       -0.045297835 -0.046555303 -0.00017081236 -0.042580597
0003b0 ae b1 a4 bc ad 95 d8 bc 4a d9 c0 bb fc 12 bb bb
       -0.020104256 -0.026438558 -0.005885278 -0.00570905
0003c0 e4 42 54 3d f8 0f 20 3d 30 70 9a 3c 4a 52 d7 3c
       0.051821604 0.03907773 0.018852323 0.026284356
0003d0 58 d5 98 3b 97 e1 ca bc 4c 60 3e 3d 59 60 59 bc
       0.0046641044 -0.024765773 0.046478555 -0.0132676
0003e0 e7 7a 4f bc f5 e9 1d 3a 16 20 a9 3d e0 55 68 3d
       -0.01266358 0.0006023937 0.08258073 0.05672252
0003f0 92 50 9a 3c f0 76 1a bb 2e 97 b4 3c ca 25 41 3d
       0.018837247 -0.0023569427 0.022044744 0.04715518

l3.bias f4 [6]
000000 d8 5b 8f bc d7 1f 5b 3c e5 1c 09 bb 4c ef 32 3c
       -0.01749985 0.01337429 -0.0020921763 0.010921311
000010 ce 83 73 3d 52 6f d8 bc
       0.05945187 -0.02642027
