average data/Average_TD3_10_Peg-in-hole-triple_assembly_seed_5/_actor.pth (torch_old, 510312 bytes, 6 tensors)

l1.weight f4 [400, 12]
0	0x3e433f42	0.190671
1	0xbe5d0bb4	-0.21586496
2	0x3e70e618	0.23525274
3	0x3e3d249c	0.18470997
4	0x3e785e30	0.2425468
5	0xbe62a454	-0.22132999
6	0xbe4669fa	-0.19376364
7	0x3e0ca8d6	0.13736281
8	0xbe89f7f2	-0.2694698
9	0x3e921528	0.28531766
10	0x3d7baf60	0.061446548
11	0x3d18b328	0.03728023
12	0xbe8a5c6a	-0.2702363
13	0x3ddfa6ef	0.10920512
14	0x3d66c534	0.05634041
15	0x3d4c0d79	0.049817536
16	0x3e8d41ad	0.2758917
17	0x3dc70363	0.09717443
18	0xbe857d24	-0.26072037
19	0x3e7d1945	0.24716671
20	0x3e08d75e	0.13363406
21	0xbdda4a1a	-0.10658665
22	0xbe5da8a0	-0.21646357
23	0x3e13eb90	0.14445329
24	0x3e9c1099	0.30481413
25	0xbe53df2d	-0.20690604
26	0x3ae3c98c	0.0017378791
27	0x3da00a4a	0.078144625
28	0xbe3f2858	-0.18667734
29	0xbcc39a5c	-0.023877315
30	0xbe46b8dd	-0.19406457
31	0xbe3a179e	-0.18173072
32	0xbe9383db	-0.28811535
33	0xbd32ecff	-0.04368305
34	0x3e568c56	0.20951971
35	0x3dbcab48	0.09212357
36	0x3ea803db	0.3281544
37	0xbe6c0a29	-0.23050751
38	0xbd1d6745	-0.038428564
39	0x3e83122f	0.2559981
40	0x3d31f01d	0.04344188
41	0xbd3a3d5a	-0.045468666
42	0xbe9874f8	-0.2977674
43	0x3db9ae93	0.090665005
44	0x3e670c43	0.22563271
45	0x3e62be5a	0.22142926
46	0x3e8a1b1d	0.2697381
47	0x3c5e70c1	0.013576687
48	0x3e3b615f	0.18298863
49	0xbdf89338	-0.12137455
50	0x3e4c86f7	0.1997336
51	0xbc964cb1	-0.018347116
52	0xbd7786ee	-0.060431413
53	0xbe165baf	-0.14683412
54	0x3e1c4f8d	0.15264721
55	0x3e15b587	0.14620028
56	0x3e64a9e7	0.22330438
57	0xbe245830	-0.16049266
58	0xbe0a668f	-0.13515685
59	0x3e6ad97b	0.22934525
60	0xbe468433	-0.19386367
61	0xbe3fae84	-0.18718916
62	0xbdd13f43	-0.10217144
63	0xbdae0cf7	-0.084985666
64	0xbe26b29c	-0.16279072
65	0x3e500eaf	0.20318101
66	0xbd0e47be	-0.034736387
67	0x3e5594c6	0.20857534
68	0x3e6638ce	0.22482607
69	0xbe083361	-0.1330085
70	0x3e932ae6	0.28743666
71	0xbdfe1164	-0.12405661
72	0xbd3c4030	-0.04595965
73	0x3e5fb458	0.2184614
74	0x3e8844f6	0.26615113
75	0x3e81bf86	0.25341433
76	0x3e2a0268	0.1660248
77	0x3e896062	0.26831347
78	0xbdd503d6	-0.10401122
79	0xbc9684b0	-0.018373817
80	0xbdca3620	-0.09873605
81	0xbcadcf90	-0.021217138
82	0xbd0fc630	-0.035101116
83	0x3e1deefc	0.15423197
84	0x3e7e812a	0.2485396
85	0xbe3f2bec	-0.18669099
86	0xbe227a1b	-0.15866892
87	0xbddaf387	-0.106909804
88	0x3c9ccf0f	0.019141702
89	0xbda25150	-0.079256654
90	0xbdf6ac5c	-0.12044594
91	0xbde824d6	-0.11335151
92	0xbe22d8e4	-0.1590305
93	0xbd1ab79b	-0.037772756
94	0xbe8227fe	-0.25421137
95	0xbde69e11	-0.112606175
96	0xbdda238a	-0.1065131
97	0xbd2354c8	-0.039875776
98	0x3e684368	0.22681963
99	0x3e41d57a	0.18929091
100	0xbdbec916	-0.09315698
101	0xbe878208	-0.26466393
102	0xbe5370fc	-0.20648569
103	0xbe62c839	-0.22146691
104	0xbce06120	-0.027390063
105	0xbe034620	-0.1281972
106	0xbe4e94fe	-0.20174024
107	0x3d8314f8	0.06400484
108	0x3dc7e49e	0.09760402
109	0x38f00363	0.000114447226
110	0xbdb5bb38	-0.088736
111	0x3e59d194	0.21271354
112	0xbea53bbb	-0.32272133
113	0x3d486e44	0.048933282
114	0x3e692bad	0.22770567
115	0x3da13215	0.078708805
116	0xbe818d79	-0.25303248
117	0xbe113bfa	-0.14183035
118	0x3e698720	0.22805452
119	0xbcb55fdb	-0.022140434
120	0x3db2c440	0.08728838
121	0xbe029dbf	-0.12755488
122	0x3e4d280e	0.20034811
123	0xbdddb30c	-0.10825166
124	0xbe1f2e8e	-0.15545103
125	0x3e8610c0	0.26184654
126	0x3d9c9ce4	0.07647112
127	0xbb029a00	-0.0019928217
128	0xbe4e0298	-0.20118177
129	0xbd82dc96	-0.0638973
130	0xbe631533	-0.22176056
131	0xbe46e40d	-0.19422932
132	0xbdc70b28	-0.09718925
133	0x3cfb1e2a	0.030654032
134	0xbe5a9859	-0.21347179
135	0x3e9667c9	0.29376057
136	0x3e5037bb	0.2033376
137	0xbe964069	-0.29346016
138	0x3e79535a	0.24348202
139	0xbe354b2d	-0.17704459
140	0xbe759b97	-0.23985134
141	0x3e99052b	0.29886755
142	0xbe25a4c5	-0.16176136
143	0xbd8b220e	-0.06793605
144	0xbbf23b91	-0.007392355
145	0x3e195163	0.14972453
146	0xbd7bc5fd	-0.061468113
147	0xbd81cda7	-0.06338053
148	0x3d98cb00	0.07460594
149	0xbe3c73c0	-0.1840353
150	0xbe5868ac	-0.21133679
151	0x3e35aaca	0.17740932
152	0x3d930d4e	0.07180272
153	0x3e4c8418	0.19972265
154	0xbdf242c4	-0.11829141
155	0xbe67daf9	-0.22642125
156	0xbdba8881	-0.09108067
157	0xbe9656b0	-0.29363012
158	0xbd346695	-0.044043142
159	0x3e172b58	0.14762628
160	0x3d762ea8	0.06010309
161	0x3e059780	0.13046074
162	0xbb096e80	-0.0020970404
163	0x3e45ffee	0.1933591
164	0x3e82f439	0.25576952
165	0x3d797d1d	0.060910333
166	0x3dc23d1c	0.09484312
167	0xbdbcd11a	-0.092195705
168	0x3e619198	0.22028196
169	0x3e85249e	0.260045
170	0xbe430022	-0.1904302
171	0x3e86959d	0.2628602
172	0x3d7eceae	0.062208824
173	0xba829925	-0.0009963854
174	0xbe5e99d3	-0.21738367
175	0xbebf1c12	-0.37326103
176	0xbe6770f7	-0.22601686
177	0xbe9e50dd	-0.3092107
178	0xbe5d91ca	-0.21637645
179	0xbe1ddba7	-0.15415822
180	0xbe959725	-0.29216877
181	0xbe8a2487	-0.26980993
182	0xbd608de3	-0.054822814
183	0xbe6f3756	-0.23360953
184	0x3b895d50	0.004192032
185	0x3c816028	0.015792921
186	0xbcbb43bc	-0.022859447
187	0x3e805061	0.25061324
188	0x3e340c99	0.1758293
189	0xbe07a3a0	-0.13246012
190	0xbc8aceec	-0.016944371
191	0xbd05df83	-0.03268386
192	0x3e75136a	0.23933187
193	0x3dfa6134	0.12225571
194	0xbe064390	-0.1311171
195	0xbcf32924	-0.029682703
196	0x3d1958d8	0.037438244
197	0x3dab1875	0.08354274
198	0x3c5a35bc	0.013318475
199	0xbe9ab5b5	-0.30216756
200	0xbe299dee	-0.16564152
201	0xbcd9b91d	-0.026577527
202	0xbe917a73	-0.28413734
203	0x3db6971f	0.08915543
204	0x3e39d082	0.18145946
205	0xbb4e9d00	-0.0031526685
206	0x3e1b1452	0.1514447
207	0x3e4f11ce	0.20221636
208	0x3e3cba36	0.18430409
209	0xbe8cc371	-0.2749286
210	0x3e85f574	0.26163828
211	0x3d9c53a4	0.07633141
212	0xbe9285dc	-0.28617752
213	0x3d931d70	0.07183349
214	0xbe4b8da8	-0.19878256
215	0x3e88cef0	0.2672038
216	0x3e469818	0.19393957
217	0xbe522062	-0.20520166
218	0xbe62d843	-0.2215281
219	0x3d1948c7	0.03742292
220	0xbd5fde82	-0.05465556
221	0x3dac5f7b	0.08416649
222	0xbe80f5f9	-0.25187662
223	0x3e845617	0.2584693
224	0x3beceee4	0.0072306264
225	0x3c3b7f21	0.011443884
226	0xbe66bfe7	-0.22534142
227	0x3d8f3170	0.06991851
228	0x3e827acb	0.2548431
229	0x3ea299d4	0.31757987
230	0xbe3971c4	-0.18109804
231	0xbe0efb6c	-0.13963097
232	0x3d13622b	0.035982292
233	0x3e4e2935	0.20132907
234	0xbe39c626	-0.18141994
235	0xbe39437a	-0.18092147
236	0xbe883ebe	-0.26610368
237	0x3e4ef245	0.20209606
238	0xbe0fa5b2	-0.14028051
239	0x3def112c	0.11673197
240	0x3e396330	0.18104243
241	0x3d31f335	0.04344483
242	0xbce41627	-0.027842594
243	0x3e2ef2cf	0.17084812
244	0xbc224d82	-0.009906175
245	0x3e2777b1	0.16354252
246	0xbdcb88f6	-0.099382326
247	0x3cde56a8	0.02714093
248	0x3e01d9f2	0.12680796
249	0xbe70bb87	-0.23509036
250	0xbd8904e3	-0.06690385
251	0xbe815727	-0.25261804
252	0xbdb3c84e	-0.087784395
253	0xbc94bae0	-0.018155515
254	0x3debfe74	0.115231425
255	0xbe6c9408	-0.23103344

l1.bias f4 [400]
0	0x3cc42c80	0.023947
1	0x3e4d4117	0.20044361
2	0x3e8f557b	0.27994904
3	0x3e80e7de	0.251769
4	0x3ca38145	0.019959101
5	0x3dd55c0c	0.10417947
6	0x3dd83f94	0.105590016
7	0x3e805b7b	0.25069794
8	0xbe262387	-0.1622449
9	0x3da97767	0.08274727
10	0xbe26adab	-0.16277187
11	0x3cee1466	0.029062461
12	0xbe013f53	-0.12621813
13	0x3e16e872	0.14737108
14	0xbe112b5d	-0.14176698
15	0xbe51fb18	-0.20505941
16	0x3e3f8272	0.18702105
17	0xbe89694b	-0.26838145
18	0xbdeb15e0	-0.11478782
19	0x3e9e3f0f	0.30907485
20	0x3e9ff73d	0.31243315
21	0xbdec3eaa	-0.1153539
22	0x3e0a84b3	0.13527183
23	0xbdaa274b	-0.08308276
24	0x3d294f48	0.041335374
25	0xbe08cab8	-0.13358581
26	0x3e27765e	0.16353747
27	0x3c92f120	0.017937243
28	0xbe4b36ca	-0.19845119
29	0x3dfd29dc	0.123615
30	0x3e292e95	0.16521676
31	0x3d490f5c	0.049086913
32	0xbe389761	-0.18026496
33	0xbe2cebea	-0.16886869
34	0xbd436498	-0.047703356
35	0xbe496dad	-0.19670744
36	0x3e42bf69	0.1901833
37	0xbe6a4bae	-0.22880432
38	0x3db9afb8	0.09066719
39	0xbe8214d8	-0.25406528
40	0x3e7024a1	0.23451473
41	0xbe2b6d81	-0.16740991
42	0x3e54c824	0.20779473
43	0x3e2bdb4a	0.16782871
44	0x3de3b929	0.11119301
45	0xbe475b6f	-0.19468473
46	0x3e78d432	0.24299696
47	0x3e02bb7c	0.12766832
48	0x3c914efa	0.017737854
49	0x3e9738dc	0.29535568
50	0x3db22744	0.086988956
51	0xbe854a0c	-0.26033056
52	0x3e6209cd	0.22074051
53	0x3dfefef0	0.12450969
54	0x3cd5e8d3	0.026111996
55	0xbe819023	-0.2530528
56	0xbd4b4998	-0.04963073
57	0xbcad6ff7	-0.021171553
58	0xbd2206e4	-0.039557353
59	0xbde0346e	-0.109475
60	0xbc981721	-0.018565716
61	0x3e8ca526	0.27469748
62	0xbe0ad77b	-0.13558762
63	0xbc5a4e43	-0.013324323
64	0x3e50b976	0.20383248
65	0x3e503827	0.2033392
66	0xbe269e98	-0.16271436
67	0x3e8e7696	0.2782485
68	0x3e89d2a4	0.2691852
69	0xbe7c82c2	-0.24659255
70	0xbd9d54d6	-0.07682197
71	0x3ecaf5ff	0.39640805
72	0x3e18de45	0.14928539
73	0x3d61e3e8	0.05514899
74	0xbdd15ed0	-0.10223162
75	0x3dbb94f7	0.09159272
76	0xbdba7bb9	-0.091056295
77	0x3d9812d9	0.0742547
78	0xbcac2bc4	-0.021016963
79	0xbe47af4f	-0.19500469
80	0x3e094a62	0.13407281
81	0x3e8a2e85	0.26988617
82	0xbe38cf68	-0.18047869
83	0x3e0e1941	0.13876821
84	0x3e2db708	0.16964352
85	0xbe917cba	-0.2841547
86	0x3e17288f	0.14761566
87	0xbe8fdb2e	-0.28096908
88	0xbd0928f0	-0.033486307
89	0xbe1c7c00	-0.15281677
90	0x3e8113ef	0.2521052
91	0x3e072ffe	0.13201901
92	0xbe2b617c	-0.16736406
93	0xbe2d1639	-0.16903009
94	0x3dfffd91	0.12499536
95	0xbdbea372	-0.093085185
96	0xbe5d4e08	-0.21611798
97	0x3e4d633a	0.20057383
98	0xbdb287b9	-0.08717293
99	0xbe7284fb	-0.2368354
100	0xbe11477b	-0.14187424
101	0x3e8bcd1a	0.27304918
102	0x3e6462b8	0.22303283
103	0xbe0486a6	-0.1294199
104	0x3d154277	0.03644034
105	0x3dc7f64e	0.09763776
106	0x3e7d9268	0.24762881
107	0xbe0289e8	-0.1274792
108	0x3db055b5	0.08610097
109	0xbe209281	-0.15680887
110	0xbe5cb664	-0.21553952
111	0x3cff2856	0.031147163
112	0xbca44e29	-0.0200568
113	0x3d0fa372	0.035067983
114	0x3d9a144b	0.07523402
115	0x3e4888b4	0.19583398
116	0xbbbd7886	-0.00578219
117	0x3da3b12b	0.079927765
118	0xbe1eef38	-0.15520942
119	0x3e64a7e0	0.22329664
120	0xbcdc59a2	-0.026898209
121	0x3e905158	0.2818706
122	0x3cad07d2	0.021121893
123	0x3e617ea0	0.2202096
124	0xbe5c2fc5	-0.21502598
125	0x3e175a62	0.14780572
126	0x3cb1a518	0.021685168
127	0x3d65b134	0.056077197
128	0x3e8df808	0.27728295
129	0xbcf176e5	-0.029475639
130	0xbe88d559	-0.2672527
131	0xbe294034	-0.16528398
132	0x3e4c2dac	0.19939297
133	0x3e68d690	0.22738099
134	0x3d727758	0.059195846
135	0x3e149e0b	0.14513414
136	0x3b52a0eb	0.0032139372
137	0xbd64df32	-0.055876918
138	0xbdb815e3	-0.089885496
139	0x3e62cfe1	0.22149612
140	0x3dcb9c68	0.099419415
141	0x3db5fe0b	0.088863455
142	0xbe27695b	-0.16348784
143	0xbd972dfa	-0.07381816
144	0xbd9fb626	-0.07798414
145	0x3e6dbdaa	0.23216882
146	0xbe19c62b	-0.15017001
147	0xbe8d1e55	-0.27562204
148	0x3e2af000	0.16693115
149	0x3dd4ced6	0.10391013
150	0x3e433f62	0.19067147
151	0x3e6689cc	0.22513503
152	0xbca15b09	-0.01969673
153	0x3de1de95	0.11028782
154	0xbe0c6b7b	-0.13712876
155	0xbe265b1b	-0.16245691
156	0xbe202bd6	-0.15641722
157	0xbddd61f1	-0.108096965
158	0x3e219117	0.15778004
159	0xbe6bb4a7	-0.23018132
160	0x3c559da0	0.013038069
161	0x3c96d205	0.018410692
162	0xbe8309c5	-0.2559339
163	0xbdc0e8d8	-0.094194114
164	0xbd59ed6c	-0.05320494
165	0xbe7d625e	-0.24744555
166	0x3deb1520	0.11478639
167	0xbe17838c	-0.14796275
168	0x3e9f6d14	0.31137908
169	0x3e93623e	0.2878589
170	0x3e08cf0a	0.13360229
171	0xbe4770a0	-0.19476557
172	0xbe1bae84	-0.15203291
173	0xbe1f972c	-0.15585011
174	0x3e5aa246	0.21350965
175	0xbb6b8118	-0.00359351
176	0x3c80ff56	0.015746754
177	0xbe63d48f	-0.22249053
178	0xbe5f734c	-0.21821326
179	0x3e928de1	0.2862387
180	0x3e7d2b2c	0.247235
181	0x3e78ba60	0.24289846
182	0xbdd87162	-0.10568501
183	0x3e2f49dc	0.17118019
184	0x3c6f90c7	0.01462192
185	0x3e59401b	0.2121586
186	0x3d889bd0	0.06670344
187	0x3d954cab	0.07290014
188	0xbd071058	-0.03297457
189	0x3e6f3f5e	0.23364016
190	0xbe81bef8	-0.2534101
191	0xbe1299a5	-0.14316423
192	0x3de33c9d	0.110955454
193	0x3e4be8a6	0.19912967
194	0x3e32c62a	0.17458406
195	0xbe905b73	-0.2819477
196	0x3e547e7d	0.20751376
197	0xbddcf154	-0.10788217
198	0xbe8fee71	-0.28111604
199	0x3d3e27d8	0.046424717
200	0xba3d7fbd	-0.00072288123
201	0x3e31fcbc	0.17381567
202	0xbc23a98c	-0.009989154
203	0x3d07e304	0.033175483
204	0xbe2a207b	-0.16613953
205	0xbdbc0532	-0.091806784
206	0xbe827fe5	-0.254882
207	0x3e863116	0.26209325
208	0x3dac96b5	0.084271826
209	0xbd641c3c	-0.05569099
210	0x3e307700	0.17232895
211	0x3e681714	0.22665054
212	0xbe0fecdb	-0.14055197
213	0x3e9827fb	0.29718003
214	0x3e1cefb2	0.15325812
215	0xbe78a864	-0.24282986
216	0x3d55a78f	0.05216175
217	0xbd6f2f0d	-0.05839448
218	0xbe4c04b1	-0.19923665
219	0x3e8b9822	0.27264506
220	0x3cfd0a45	0.030888686
221	0x3e3121e4	0.17298084
222	0x3e8216fd	0.25408164
223	0x3d1f27f1	0.03885645
224	0x3e1d458c	0.15358561
225	0xbe2b27f2	-0.16714457
226	0x3cbce059	0.023056196
227	0xbd7b8175	-0.061402757
228	0xbe49bdaa	-0.19701257
229	0xbdb4e1a8	-0.08832103
230	0xbe1bad9d	-0.15202947
231	0xbe833d74	-0.25632823
232	0x3c2ffc36	0.010741284
233	0x3e347fe2	0.17626908
234	0x3e83111a	0.25598985
235	0x3e8440eb	0.25830778
236	0x3e2b163c	0.167077
237	0xbe181fd9	-0.14855899
238	0x3e9df601	0.3085175
239	0xbe0cb9fc	-0.13742822
240	0xbe923acd	-0.28560486
241	0x3e6a4176	0.22876534
242	0x3e6adf7c	0.22936815
243	0x3e6479fc	0.22312158
244	0xbe81aab8	-0.2532556
245	0x3cd48cf7	0.025946124
246	0x3d82458d	0.06360922
247	0x3e51fc8e	0.20506498
248	0x3c4f1ec9	0.012641617
249	0x3c72e1a0	0.014824301
250	0xbddf8def	-0.109157436
251	0x3d991e39	0.07476468
252	0xbe855dae	-0.26048034
253	0x3e321d52	0.17393997
254	0xbe5a99bb	-0.21347706
255	0x3d8e7ff3	0.06957998

l2.weight f4 [300, 400]
0	0xbcf788b3	-0.03021655
1	0x3a335e12	0.00068423257
2	0xbd03b9d4	-0.03215964
3	0xbd526476	-0.05136534
4	0x3c958b2b	0.018254837
5	0x3cb1b3e8	0.021692231
6	0xbc4ad1d4	-0.0123791285
7	0xbbcd42d9	-0.0062640724
8	0x3d218fbf	0.039443728
9	0xbc88292a	-0.016621191
10	0xbba70e90	-0.0050981715
11	0x3d3681bb	0.044557314
12	0xbdc6922d	-0.096958496
13	0xbd1e6501	-0.038670544
14	0x3d119d2c	0.03555028
15	0x3d287b8a	0.04113344
16	0x3d43119c	0.047624215
17	0xbd29d2b6	-0.041460715
18	0xbd0a7592	-0.03380353
19	0x3d491fdf	0.04910266
20	0xbd2716c9	-0.040793214
21	0x3d429df9	0.047513936
22	0x3c4680fe	0.012115715
23	0x3d3bd6c3	0.04585911
24	0x3d107f3d	0.035277594
25	0xbd392352	-0.0451997
26	0x3d196792	0.037452288
27	0xbc5b5920	-0.013387948
28	0x3cdae6e3	0.026721423
29	0xbd18078d	-0.037116576
30	0xbcd9d112	-0.02658895
31	0xbd3dc0d3	-0.04632647
32	0xbb900798	-0.0043954365
33	0xbcbcbd20	-0.0230394
34	0xbc9dd4c5	-0.019266495
35	0x3cd7737b	0.026300183
36	0xbc889905	-0.016674528
37	0x3b439e83	0.002984912
38	0x3c50f23d	0.012753067
39	0xbc188118	-0.009308122
40	0x3d1a9a0e	0.037744574
41	0x3d0d0902	0.03443242
42	0xbb15457c	-0.0022777012
43	0xbc7bbf7f	-0.01536548
44	0x3d570616	0.05249604
45	0xbca913b2	-0.020639274
46	0xbca4635a	-0.020066906
47	0xbc1bb092	-0.009502547
48	0x3d3475a3	0.0440575
49	0xbd034070	-0.032043874
50	0xbd384d7a	-0.044995762
51	0xbc5384a4	-0.012910042
52	0x3d1a6b65	0.037700076
53	0x3bcb2e40	0.006200582
54	0xbb603074	-0.0034208568
55	0x3cfebb80	0.031095266
56	0xbb616850	-0.003439445
57	0xbcbff9ff	-0.023434637
58	0x3ca88477	0.020570977
59	0xbbed15d8	-0.00723527
60	0x3d430731	0.04761428
61	0x3ce6fdfe	0.028197285
62	0x3d255cda	0.040371753
63	0xbd2d2064	-0.04226722
64	0x3cd270e3	0.025688594
65	0xbc3a711f	-0.011379509
66	0x3d05cb69	0.03266469
67	0xbc05057c	-0.008118983
68	0xbd198c55	-0.037487347
69	0xbc17aa14	-0.009256858
70	0x3cd03fc2	0.025421027
71	0x3d8db648	0.06919533
72	0x3b56ee48	0.0032795835
73	0xbcd91223	-0.026497906
74	0xbc287730	-0.010282323
75	0xbc18c3a7	-0.009323991
76	0x3cd29181	0.025704147
77	0xbcf502db	-0.029908588
78	0x3cdd75f5	0.027033785
79	0xbcb7c041	-0.022430541
80	0x3d3c0c2d	0.04591005
81	0x3d513887	0.0510793
82	0x3d11b2af	0.035570797
83	0x3cd58025	0.02606208
84	0x3d116ad0	0.035502255
85	0x3ce88ffa	0.028388966
86	0xbc4ca57f	-0.012490629
87	0xbc60413f	-0.013687431
88	0xbc82925c	-0.01593893
89	0x3d26d5ee	0.040731363
90	0xbc4c6d5c	-0.012477245
91	0xbc917561	-0.017756166
92	0x3ca6efbe	0.02037799
93	0xbcf4ff11	-0.029906781
94	0x3d3d8511	0.04626948
95	0xbb064b95	-0.0020491828
96	0x3d23f5ca	0.040029325
97	0xbc97f254	-0.018548168
98	0x3d0017fa	0.031272866
99	0xbd083500	-0.03325367
100	0x3d548077	0.051880326
101	0x3a3ba309	0.0007157778
102	0x3bfcecb0	0.007718645
103	0xba805c38	-0.0009793108
104	0x3cd51155	0.026009241
105	0x3d2ab886	0.04167988
106	0x3d4b1007	0.04957583
107	0x3c9db22a	0.019249994
108	0x3cabe27b	0.020982018
109	0x3b07f7f2	0.0020747152
110	0x3bddb0be	0.006765454
111	0x3d4cef90	0.050033152
112	0xbb903e0d	-0.0044019283
113	0x3c937188	0.017998472
114	0x3d436869	0.047706995
115	0xbd19203a	-0.03738425
116	0xbcac06bf	-0.02099931
117	0xbd21a972	-0.039468236
118	0xbb76bbd0	-0.0037648566
119	0x3d36186e	0.04445689
120	0xbc646b48	-0.0139415935
121	0x3d56aace	0.052408986
122	0xbd011887	-0.03151753
123	0xbd383f0b	-0.044981997
124	0xbc8e1452	-0.017343674
125	0x3d155671	0.03645939
126	0x3cd60261	0.026124181
127	0x3c9f66f1	0.019458266
128	0x3c0498b4	0.008093048
129	0xbd28279b	-0.041053396
130	0x3cf1bc97	0.029508872
131	0xbd35145b	-0.044208866
132	0xbcdd4e0d	-0.027014757
133	0xbae14670	-0.001718713
134	0xbd1f6afe	-0.038920395
135	0x3c090923	0.008363995
136	0x3cac3ec3	0.02102602
137	0xbc467b87	-0.012114412
138	0x3c8c9b7e	0.017163988
139	0xbd228131	-0.039673988
140	0x3c8859e3	0.016644424
141	0x39e16f7f	0.00042998415
142	0xbb199b6d	-0.0023438588
143	0xbbaacbd1	-0.005212285
144	0xbc7703ea	-0.015076617
145	0xbc836973	-0.016041493
146	0xbced9900	-0.02900362
147	0x3d2a375a	0.041556694
148	0xbc830793	-0.015994823
149	0xbaea358b	-0.001786874
150	0x3cc69fa4	0.024246044
151	0xbd70bc39	-0.058773253
152	0xbd2df4a1	-0.042469624
153	0x3c42caa2	0.011889132
154	0xbc5a437d	-0.0133217545
155	0x3cf15002	0.029457096
156	0xbc0a64b1	-0.008446858
157	0x3d4b1101	0.049576763
158	0x3cd922c6	0.02650584
159	0xbcf6c05a	-0.030121017
160	0xbcd682b0	-0.026185364
161	0xbcd18370	-0.02557537
162	0x3d08f85c	0.03343998
163	0x3d4c06e9	0.049811278
164	0x3c8ef93e	0.017452832
165	0x3d0637db	0.03276811
166	0xbd04fb6a	-0.03246633
167	0x3cb64db2	0.022253845
168	0xbc9c1bd5	-0.01905624
169	0x3cc8dec6	0.02452029
170	0xbd1ad338	-0.03779909
171	0x3c7a0b79	0.015261524
172	0x3d143db7	0.03619167
173	0xbd4a258b	-0.04935221
174	0xbd35d17a	-0.044389226
175	0x3b9a18e7	0.0047026756
176	0x3d4ca890	0.04996544
177	0x3aceb101	0.0015769304
178	0x3cd409ef	0.025883643
179	0xbd234743	-0.039862882
180	0xbc95fe09	-0.01830961
181	0x3cfaa126	0.03059442
182	0x3cc4da26	0.024029803
183	0xbcde658e	-0.027148034
184	0xbc7a55de	-0.015279261
185	0x3d882bf7	0.06649011
186	0x3d215239	0.039385054
187	0xbc887b8c	-0.016660474
188	0x3c61eae5	0.013788913
189	0xbcba0a3d	-0.02270996
190	0x3cb5e8d4	0.022205748
191	0xbc1ed5f7	-0.009694568
192	0xbc893ff3	-0.016754126
193	0xbc437cba	-0.011931593
194	0xbc2b2088	-0.010444768
195	0x3d0fa7cd	0.035072137
196	0xbc9dc5e8	-0.019259408
197	0x3d23214b	0.039826673
198	0x3cc8be4b	0.024504801
199	0x3c628764	0.013826225
200	0xbd0c97cf	-0.034324463
201	0xbd4c7c32	-0.04992313
202	0x3cfb3e72	0.030669425
203	0xbbc819f9	-0.006106612
204	0x3d33d6c3	0.043905985
205	0x3c9698b7	0.018383367
206	0xbac44e37	-0.0014976923
207	0xbca2b619	-0.019862222
208	0x3d017d92	0.031613894
209	0xbd1f09a9	-0.038827572
210	0xbd98be76	-0.074582025
211	0x3d09f884	0.03368427
212	0x3b7d7230	0.0038672797
213	0x3a2665aa	0.00063475466
214	0xbccd992d	-0.025097454
215	0xbc9bd21c	-0.019021086
216	0xbcf2d6ff	-0.029643534
217	0xbc0b8e1a	-0.008517766
218	0x3c96ba60	0.018399417
219	0xb9f0e8ac	-0.0004594972
220	0xbc724ad4	-0.014788348
221	0x3bc379a7	0.00596543
222	0x3d30ec60	0.043194175
223	0xbc09fe7c	-0.00842249
224	0xbd33d1bd	-0.043901194
225	0xbbbcf218	-0.0057661645
226	0x3c8c278e	0.017108705
227	0xbc0f6c1c	-0.008753803
228	0xbcd8b496	-0.026453298
229	0xbc3cbe79	-0.011520022
230	0xbd2244a4	-0.039616242
231	0xbc688679	-0.014192217
232	0xbd0470b8	-0.03233406
233	0x3c3e5938	0.011617951
234	0xbc0e79b7	-0.008696011
235	0x3d385109	0.044999156
236	0x3d132743	0.035926115
237	0x3c912aa0	0.01772052
238	0xbd21a711	-0.039465968
239	0xbc841a81	-0.01612592
240	0xbd264b8d	-0.040599395
241	0x3cdde681	0.027087452
242	0xbd23143b	-0.039814215
243	0x3d35d369	0.04439107
244	0xbc14cf0c	-0.009082567
245	0x3c0dc096	0.008651873
246	0xbceada7d	-0.028668636
247	0xbcd03049	-0.02541365
248	0xbc1f2d5e	-0.009715406
249	0x3d450251	0.048097912
250	0xbb34f3e6	-0.0027611195
251	0x3a8eb10d	0.0010886505
252	0x3d21ac73	0.0394711
253	0xbd6231fd	-0.055223454
254	0x3cb16e26	0.021658968
255	0xbd1fdb24	-0.03902735

l2.bias f4 [300]
0	0x3ce89dc0	0.028395534
1	0x3d1e18ad	0.03859775
2	0x3cd89f33	0.0264431
3	0xbccf6555	-0.025316874
4	0x3d153ed8	0.036436886
5	0xbd740f4e	-0.05958491
6	0xbd332567	-0.04373684
7	0xbc230efa	-0.009952301
8	0x3cd513e9	0.02601047
9	0x3cd8450e	0.026400115
10	0x3d4b3300	0.049609184
11	0x3d31363a	0.043264605
12	0xbc51ce92	-0.012805598
13	0x3d4a0c94	0.0493284
14	0x3ce74c4a	0.02823462
15	0x3b9cd93c	0.0047866385
16	0x3c8b7922	0.017025534
17	0x3caba742	0.020953778
18	0x3d07f7d8	0.033195347
19	0xbc4ea08d	-0.0126115205
20	0xbd3ade30	-0.04562205
21	0xbcaa714f	-0.020805983
22	0xbd470938	-0.048592776
23	0x3bcfac1b	0.0063376552
24	0xbce4458b	-0.027865192
25	0xbcb4df72	-0.022079203
26	0xbcf2a1a2	-0.029618088
27	0xbd0765e9	-0.033056173
28	0xbd69d62f	-0.057089027
29	0xbd1d9c91	-0.03847939
30	0xbd05ad46	-0.03263595
31	0x3cea62c6	0.028611552
32	0xba6ce63c	-0.0009036993
33	0xbcb92f70	-0.022605628
34	0x3d09bb07	0.03362563
35	0x3d23c65f	0.039984103
36	0x3c368419	0.011139893
37	0xbcfdae4f	-0.030966906
38	0xbc3533ee	-0.011059744
39	0x3d081287	0.033220794
40	0xbc0f9679	-0.008763903
41	0xbd5d7b7d	-0.054072846
42	0x3d206692	0.03916032
43	0x3c3cea08	0.011530407
44	0xbc4bdd0a	-0.012442837
45	0x3ca12686	0.01967169
46	0x3d37925b	0.04481731
47	0xbd4d27ce	-0.05008679
48	0x3a94260c	0.0011302843
49	0x3cf81c3b	0.030286899
50	0xbbbd9e55	-0.005786697
51	0xba8aa3d7	-0.0010577393
52	0xbd59c458	-0.053165764
53	0xbc6d1a6a	-0.01447163
54	0x3cd330bb	0.025780072
55	0xbc794a41	-0.015215457
56	0xbbfc053c	-0.0076910537
57	0x3c1f2eca	0.009715745
58	0x3d1d350a	0.03838066
59	0x3d1772c3	0.03697468
60	0xbcbd36fa	-0.023097504
61	0x3d415d61	0.047208194
62	0x3d2f071d	0.042731393
63	0xbcf31fca	-0.029678244
64	0x3d1130a1	0.035446767
65	0xbc39dd0d	-0.0113442065
66	0x3aed0e40	0.0018085912
67	0x3c8448ae	0.016147938
68	0x3c795a8a	0.01521934
69	0xbd5d692a	-0.05405537
70	0xbd2b849f	-0.041874524
71	0xbc1c5f16	-0.009544155
72	0x3d5a9699	0.053366277
73	0xbd41f41f	-0.047351953
74	0x3c6b4dae	0.014361782
75	0x3ca4487d	0.020054096
76	0x3d55b854	0.052177742
77	0x3cf37a79	0.029721485
78	0xbd0b1121	-0.033951882
79	0x3bfb8712	0.0076760137
80	0x3c025c93	0.007956642
81	0xbc41c8f8	-0.0118277
82	0x3c6e0c8c	0.014529359
83	0xbc3c4a18	-0.011492275
84	0xbd046aa6	-0.03232827
85	0xbd11754f	-0.035512265
86	0x3ce77f06	0.028258812
87	0x3d26904b	0.040664952
88	0xbc928666	-0.017886352
89	0xbc3a454b	-0.01136906
90	0x3d86f9a3	0.06590583
91	0xbd2b9312	-0.041888304
92	0x3ccfdb1b	0.025373032
93	0x3d1ee09b	0.03878842
94	0x3cf5a5bb	0.029986253
95	0xbc986da1	-0.018606963
96	0x3cc28861	0.023746671
97	0x3ce53fe2	0.027984563
98	0x3b9c20b5	0.004764641
99	0xbd2d82fc	-0.042361245
100	0x3d4acac9	0.049509797
101	0xbcaad7cf	-0.020854859
102	0xbd165925	-0.03670611
103	0xbcbb8d3b	-0.022894492
104	0xbd24d65e	-0.0402435
105	0x3dbd3bc2	0.092399135
106	0x3cd6808b	0.026184341
107	0x3d2e52c4	0.0425594
108	0xbcb149fe	-0.021641728
109	0x3d1f5c0a	0.038906135
110	0x3d80242c	0.06256899
111	0xbb7f2057	-0.0038929188
112	0xbc96872a	-0.018374998
113	0x3cc09d33	0.023512458
114	0x3cc8a33a	0.024491895
115	0xbbbcbb9a	-0.0057596685
116	0xbd28deb2	-0.041228004
117	0xbd33d13f	-0.043900725
118	0x3d81deb3	0.06341305
119	0x3cab949b	0.020944884
120	0xbd2052b5	-0.039141376
121	0xbcd1d32c	-0.02561339
122	0x3d2b071d	0.04175483
123	0x3d2cf1d9	0.04222283
124	0x3c059f4f	0.008155658
125	0xbd035fdb	-0.032073837
126	0x3d21b55c	0.0394796
127	0x3cdadfc1	0.026718022
128	0x3cbc0ca2	0.022955243
129	0xbcb49833	-0.02204523
130	0x3d04fabc	0.03246568
131	0xbd3a6f1d	-0.045516122
132	0x3cfaddea	0.030623395
133	0x3c0e2387	0.008675463
134	0x3cf636bc	0.030055396
135	0x3c236d3f	0.009974777
136	0x3d3db0ef	0.046311315
137	0xbc328200	-0.010895252
138	0x3db2ff4d	0.08740101
139	0xbd6e8476	-0.058231793
140	0x3d16314b	0.036668103
141	0xbcde1ec2	-0.027114276
142	0x3c481942	0.012213053
143	0x3d1c0824	0.0380937
144	0xbd05087f	-0.032478806
145	0x3cfb3a5d	0.030667478
146	0x3cc1c670	0.023654193
147	0x3ae5ac36	0.0017522636
148	0x3cbe64ce	0.023241427
149	0xbd5a96ce	-0.053366475
150	0x3bcf2ff2	0.006322854
151	0x3d8ff751	0.07029594
152	0xbc87a03a	-0.016555894
153	0x3c00db02	0.0078647155
154	0x3d19147f	0.037373062
155	0x3cbacf76	0.022804003
156	0x3cee0e2d	0.029059494
157	0xbc4d8ead	-0.012546224
158	0xbce7c2c0	-0.028291106
159	0x3bb3e05f	0.0054893936
160	0x3cdb0984	0.026737936
161	0x3b14741e	0.002265222
162	0x3d147d5a	0.036252357
163	0x3cadda67	0.021222306
164	0xbca0b240	-0.019616246
165	0xbc247fbc	-0.01004022
166	0x3daa0e2c	0.08303484
167	0x3b8e2138	0.004337456
168	0x3c073160	0.008251518
169	0x3d2da402	0.04239274
170	0xbd43d30b	-0.047808688
171	0x3aebc760	0.0017988496
172	0xbbedf3b6	-0.0072617186
173	0x3c6348db	0.013872351
174	0xbb2b24e0	-0.0026114509
175	0xbbeab29e	-0.007162406
176	0xbd4c6856	-0.04990419
177	0x3d118977	0.035531487
178	0x3c8961ec	0.016770326
179	0x3cc2bc9a	0.023771573
180	0x3b663abc	0.0035130223
181	0x3d81b7a3	0.06333854
182	0x3cdb16ae	0.026744213
183	0xbd2d0488	-0.04224065
184	0x3d99cafe	0.07509421
185	0x3a97ffeb	0.0011596655
186	0x3ce2c975	0.027683953
187	0xbd1e0c30	-0.03858584
188	0x3b83ba16	0.004019986
189	0x3d02dc4d	0.031948376
190	0x3d16665e	0.03671872
191	0x3c0e84a0	0.008698612
192	0xbc5445c3	-0.012956086
193	0xbab9994b	-0.0014160065
194	0x3c090d0d	0.008364928
195	0x3d0cd108	0.034379035
196	0x3d181df7	0.03713795
197	0x3d2193fd	0.039447773
198	0xbb6da88d	-0.0036263794
199	0x3cff0c52	0.031133804
200	0xbd090d95	-0.03346022
201	0xbcdee329	-0.027207928
202	0x3bda7539	0.006666806
203	0xbc4f98b9	-0.012670689
204	0xbcf3ab8f	-0.029744891
205	0x3c12d547	0.008961982
206	0x3cf96d54	0.03044764
207	0x3d38d3cd	0.045123864
208	0x3cff7cda	0.031187464
209	0xbd0b58a5	-0.034020085
210	0xbd27cfc1	-0.040969614
211	0xbd617dfa	-0.05505178
212	0x3d37f670	0.044912755
213	0xbd2624ed	-0.04056256
214	0x3c9ae6d2	0.018908892
215	0x3b1f2660	0.0024284348
216	0xbbf478a4	-0.0074606705
217	0xbcbf2ca6	-0.02333672
218	0x3d0468f8	0.03232667
219	0x3c53c704	0.012925867
220	0x3cf6b696	0.03011636
221	0xbc8a3551	-0.016871126
222	0x3c40ce1b	0.011767889
223	0x3d1f1754	0.038840607
224	0xbb288cd0	-0.0025718696
225	0x3d415337	0.0471985
226	0xbc48a7ef	-0.01224707
227	0x3bc3ed8e	0.0059792465
228	0x3d35babf	0.044367548
229	0x3c081fb1	0.008308337
230	0xbcdde7eb	-0.027088126
231	0x3d326be1	0.043559913
232	0x3caf76da	0.021418978
233	0x3cf6d35a	0.030130077
234	0x3c91d339	0.017800914
235	0xbd5673a0	-0.052356362
236	0xbd62c6d1	-0.055365387
237	0xba586f6b	-0.00082563487
238	0x3bc3891f	0.005967274
239	0x3d2a9fe9	0.04165641
240	0x3c7296dc	0.0148064755
241	0xbd4388ce	-0.04773789
242	0xbd0b3f5b	-0.033995967
243	0xbc122ea3	-0.008922252
244	0xbcfa4f97	-0.03055553
245	0xbc98031b	-0.018556168
246	0xbb6bc019	-0.0035972653
247	0x3bb179f6	0.00541615
248	0x3d1b9168	0.037980467
249	0xbd5dc6c5	-0.05414464
250	0x3d28a8a0	0.04117644
251	0xbd53e380	-0.051730633
252	0xbd0e5801	-0.034751896
253	0xbd12e180	-0.035859585
254	0xbca09ad6	-0.019605082
255	0x3d825f71	0.0636586

l3.weight f4 [6, 300]
0	0x3ce489d6	0.027897757
1	0x3d3e7264	0.04649581
2	0xbd4c74ca	-0.049916066
3	0xbcc20848	-0.02368559
4	0x3c846fab	0.016166529
5	0xbc3c4b07	-0.011492497
6	0x3d8c687e	0.06855868
7	0x39b67f7c	0.00034808728
8	0xbd26165e	-0.040548675
9	0xbcd0e778	-0.025500998
10	0x3d4b0fb4	0.049575523
11	0xbd1812e2	-0.037127383
12	0xbcd16efc	-0.025565617
13	0xbd17b556	-0.03703817
14	0xbd5ee63f	-0.0544188
15	0x3c2a9dd8	0.010413609
16	0x3c999080	0.01874566
17	0xbb60712c	-0.0034247143
18	0x3c015098	0.00789275
19	0x3d2d7d4c	0.04235582
20	0xbbd03010	-0.0063533857
21	0x3cfb65f2	0.03068826
22	0xbd55e633	-0.05222149
23	0xbce26d80	-0.027640104
24	0xbcd99d95	-0.026564399
25	0xbd43ccbe	-0.04780268
26	0xbd0a4786	-0.033759616
27	0xbbeff5a0	-0.007322982
28	0xbd3084fd	-0.043095578
29	0x3d2dbd64	0.042416945
30	0xbd305ec8	-0.04305914
31	0x3c134b92	0.008990185
32	0x3c07e73c	0.008294877
33	0x3c8ab044	0.016929753
34	0xbc695616	-0.014241716
35	0xbcb863ff	-0.02250862
36	0x3d49e7a1	0.049293164
37	0x3ac3d5d8	0.001494105
38	0xbd15b7d1	-0.036552254
39	0x3c4084f9	0.011750453
40	0x3d62160e	0.055196814
41	0xbd0c8e4f	-0.034315404
42	0x3d5531c9	0.052049432
43	0xbc8f6a26	-0.01750667
44	0x3bc0b4bd	0.0058809207
45	0xbbff2600	-0.0077865124
46	0xbd698ba8	-0.057017952
47	0xbd33cfe8	-0.043899447
48	0x3cf28c8a	0.02960803
49	0xbcfe8c64	-0.031072803
50	0xbd08d259	-0.03340373
51	0xbd625547	-0.055257108
52	0xbc0e22a0	-0.008675247
53	0x3d0d5958	0.034509033
54	0x3cb97064	0.0226366
55	0xbb373830	-0.0027957074
56	0x3cb382c9	0.02191295
57	0x3cca9594	0.024729528
58	0xbaeb38ce	-0.0017946006
59	0xbd0e7604	-0.034780517
60	0xbd4ec296	-0.05047854
61	0xbd615f8b	-0.055022758
62	0xbd68b6d0	-0.05681497
63	0x3ce7f499	0.028314875
64	0xbcf695bb	-0.030100694
65	0xbd245933	-0.04012413
66	0x3d53c19c	0.051698312
67	0x3d5ddaa6	0.054163598
68	0xbd1b56b2	-0.037924476
69	0xbcfaea5c	-0.03062933
70	0xbd7bda4f	-0.061487492
71	0x3b318dc6	0.002709256
72	0x3d5d0ec4	0.05396916
73	0xbcca58b0	-0.024700493
74	0xbd4d738a	-0.050159015
75	0xbd69432e	-0.056948833
76	0x3bb217bd	0.0054349587
77	0xbd2de2f9	-0.042452786
78	0x3c841ab2	0.01612601
79	0x3cffd62c	0.031230055
80	0x3d4e3180	0.050340176
81	0xbd457611	-0.0482083
82	0xbc440c13	-0.011965769
83	0xbb598b30	-0.0033194534
84	0x3d4063ea	0.046970285
85	0xbd003129	-0.031296883
86	0x3b43da24	0.002988466
87	0x3b82bb80	0.003989637
88	0x3d226464	0.03964652
89	0x3d7804d2	0.060551472
90	0xbcad5124	-0.021156855
91	0xbc9f273b	-0.019427886
92	0x3d1bcbe6	0.03803625
93	0xbc881dff	-0.016615866
94	0xbd1b2d1e	-0.037884824
95	0x3d3f6aac	0.04673259
96	0xbd4be4b2	-0.049778648
97	0xbd397d6c	-0.045285627
98	0xbcce0e79	-0.025153385
99	0xbc90dd94	-0.017683782
100	0x3c8a247c	0.0168631
101	0x3d19aa34	0.037515834
102	0x3b2fa2f9	0.002680002
103	0x3d65d1e8	0.056108385
104	0xbd5b8de4	-0.053602114
105	0x3d7bc5e7	0.06146803
106	0xbd2fb501	-0.04289723
107	0x3cd04478	0.025423273
108	0x3d02ed98	0.03196487
109	0xbd70205b	-0.058624607
110	0xbcfed224	-0.031106062
111	0x3bef0f50	0.0072955266
112	0x3ca3c610	0.019991904
113	0xbc7f4da3	-0.015582475
114	0xbd22c2a8	-0.03973642
115	0xb91e6234	-0.00015104638
116	0x3d0ef9e7	0.034906294
117	0xbccaf51e	-0.024775084
118	0xbccd3e87	-0.02505423
119	0x3bde7c23	0.0067897006
120	0xbd71f8a8	-0.059075028
121	0xbcee5c42	-0.029096726
122	0x3d236660	0.039892554
123	0x3d23a04a	0.039947785
124	0x3c8b80ec	0.017029248
125	0xbd839d75	-0.06426517
126	0x3d809d4e	0.062800035
127	0x3d138388	0.03601411
128	0x3a403c00	0.00073331594
129	0x3c338550	0.010957077
130	0x3ca7ad38	0.02046834
131	0xbcb2f673	-0.021846032
132	0xbd2a120f	-0.04152113
133	0x3cfe5194	0.031044759
134	0xbc22a6b6	-0.009927442
135	0x3d48b9b7	0.049005236
136	0x3cd705ee	0.026247945
137	0xbc93018a	-0.01794507
138	0x3cb90ea9	0.022589998
139	0x3cb66584	0.022265203
140	0x3d09577b	0.033530694
141	0xbc584274	-0.013199437
142	0x3d647faf	0.05578583
143	0x3d4c66ae	0.04990261
144	0x3d515283	0.05110408
145	0xbd63fdce	-0.05566197
146	0xbd40be30	-0.047056377
147	0x3d6c3c66	0.057674788
148	0x3d29ed6c	0.04148619
149	0xbb841229	-0.004030485
150	0x3ae100d5	0.0017166386
151	0x3dab7185	0.083712615
152	0xbcc2c49a	-0.023775388
153	0xbcd2afeb	-0.02571865
154	0x3d5c91c1	0.05384994
155	0x3c04b640	0.008100092
156	0x3ccf3127	0.025291992
157	0xbbfeb2a7	-0.007772762
158	0xbc39ba90	-0.011335984
159	0xbd5236f6	-0.051321946
160	0x3d1d6cbc	0.038433775
161	0x3cab88ef	0.020939318
162	0x3aff672c	0.0019485704
163	0xbcb9485d	-0.022617513
164	0x3cac0278	0.020997271
165	0xbd447b5e	-0.047969215
166	0xbc80a853	-0.015705263
167	0xbcb83fac	-0.022491299
168	0xbc279ecf	-0.010230734
169	0xbbc94acc	-0.0061429497
170	0xbd1a8451	-0.037723843
171	0xbd327a63	-0.04357375
172	0x3cb5b108	0.022179142
173	0x3d2bfdf6	0.041990243
174	0x3ca818c8	0.02051963
175	0x3d30f730	0.043204486
176	0x3cd1a5ff	0.025591848
177	0xbcd9c8a0	-0.026584923
178	0xbbbb074d	-0.0057076574
179	0xbd6722dc	-0.05642973
180	0xbd24d37d	-0.040240753
181	0x3d7345bf	0.059392687
182	0x3d0c01ca	0.034181394
183	0x3aabdb97	0.0013111708
184	0x3d58e2a7	0.052950528
185	0xbc8f245b	-0.01747339
186	0x3bd6cf11	0.006555446
187	0xbb972675	-0.0046127387
188	0xbccfcac9	-0.02536525
189	0xbd3793f3	-0.04481883
190	0xbc81c71b	-0.015842011
191	0xbd22afa8	-0.0397183
192	0xbc26c8d5	-0.010179718
193	0xbcf89d8c	-0.030348562
194	0x3cfd843c	0.030946843
195	0x3cea3e10	0.028594047
196	0x3d5a8c92	0.053356715
197	0xbc90727f	-0.017632721
198	0xbcfe374f	-0.031032233
199	0xbd57e9da	-0.052713253
200	0xbc6cb3c4	-0.014447156
201	0x3d1259e2	0.03573025
202	0x3d511362	0.051043876
203	0x3d01afd0	0.03166181
204	0xbcca45a7	-0.024691416
205	0x3d71a8aa	0.05899874
206	0x3c8db548	0.017298356
207	0xbd28c26c	-0.04120104
208	0x3d570a26	0.052499913
209	0xbb13dbe2	-0.002256148
210	0x3ce28906	0.027653228
211	0x3ce34972	0.027744982
212	0xbc85d826	-0.01633842
213	0x3d0af3d6	0.033923946
214	0xbd30755d	-0.043080676
215	0x3b050281	0.0020295682
216	0x3c4fbe58	0.012679659
217	0x3d07cf91	0.033156935
218	0x3d0003e6	0.031253718
219	0xbd5fbc11	-0.054622713
220	0xbced5343	-0.028970366
221	0x3d831556	0.06400554
222	0x3c855bdd	0.016279155
223	0x3cb8f8b4	0.022579528
224	0xbd3f1b78	-0.046657056
225	0xbc409b04	-0.011755709
226	0xbd3b785f	-0.04576909
227	0xbcd082bd	-0.025452966
228	0xbcf25b97	-0.029584689
229	0x3d6fc163	0.058534037
230	0xbcfa44b3	-0.030550336
231	0x3d34bd9a	0.04412613
232	0xbd398a39	-0.045297835
233	0xbd3d096d	-0.046151567
234	0xb8bc37d3	-8.974937e-05
235	0xbd2cccb1	-0.042187396
236	0xbc612f52	-0.013744192
237	0xbc77b228	-0.015118159
238	0xbb465194	-0.0030261027
239	0xbc08da48	-0.008352824
240	0x3d5442e4	0.051821604
241	0x3d2e34bc	0.04253076
242	0x3c936779	0.017993676
243	0xba070769	-0.00051509455
244	0x3b98d558	0.0046641044
245	0xbcce75d2	-0.025202665
246	0x3d400ca7	0.046887066
247	0xbcd5f2bc	-0.026116721
248	0xbc636ca9	-0.013880887
249	0xbc8c51ac	-0.017128788
250	0x3d38f3a2	0.04515422
251	0x3ce947f2	0.028476689
252	0xbbeb7789	-0.0071858806
253	0xbb1a76f0	-0.0023569427
254	0x3cb4aa3b	0.022053828
255	0x3d862980	0.06550884

l3.bias f4 [6]
0	0xbd4b951d	-0.049702752
1	0x3cdcc3f1	0.0269489
2	0x3c601d75	0.013678898
3	0xbc03da38	-0.008047633
4	0x3d65b9b6	0.05608531
5	0x3ba274e9	0.0049577844
